ep2-cnn/results-multiclass-blocks/final_weights.npz (npz, 137734 bytes, 4 tensors)

arr_0 f4 [256, 128]
-0.025174782 0.031023229 0.0023466349 0.08045924 0.014685994 0.11620174 0.11548922 0.17490283
-0.029928535 0.09084093 0.16955224 0.042992245 0.11537466 0.084311545 0.049239088 0.088827536
-0.011971746 -0.0779714 -0.029447824 0.02882649 -0.03653407 0.012515496 0.14063357 0.0048066354
-0.046878546 -0.08712646 0.060032174 -0.074448384 -0.057799578 -0.025775403 0.09954227 0.073868245
-0.013659447 0.1100941 0.076392524 0.06783316 -0.1550525 -0.03824961 0.16944131 -0.032951783
0.059735995 -0.095363684 -0.077272445 -0.00058226386 0.1397873 0.020912252 -0.025854295 0.14832853
0.0034741422 -0.07984352 0.044317093 -0.11093372 -0.049297154 -0.050585836 -0.062296253 -0.013636574
-0.07830438 0.002813457 0.0018107299 -0.13892558 0.012183322 0.012748927 0.03615129 0.11538338
0.05552423 0.07727046 0.032257374 -0.049207 -0.0011427847 -0.07188148 0.015206625 -0.12173617
0.107419044 0.15884174 -0.064222336 0.13076183 0.11597225 0.093678914 -0.036087748 0.019229552
0.0018589521 0.121837 0.09574525 0.10999265 -0.072298765 0.084136546 0.058973 -0.008167627
0.058510873 0.09327763 0.0691456 -0.14225149 0.0020385846 -0.063979715 0.024976563 0.038173486
0.14579083 0.0070101065 0.032663047 0.08902727 -0.06423883 -0.09091586 -0.03094415 0.11104204
-0.044317037 -0.02505984 0.079716034 0.04858634 0.028613575 -0.015168607 -0.02020304 -0.10406353
0.1327278 -0.009079551 0.051707 -0.063068844 -0.02193425 0.08674741 -0.072215974 0.2148134
0.04687773 -0.03411592 -0.07491582 0.1510406 0.01396348 0.04283604 0.10345493 -0.014883667
-0.06104316 0.20798424 -0.023581356 -0.09307599 0.121858895 -0.021091305 0.7250512 -0.6091034
0.095971316 0.4851664 -0.49374902 -0.0030015518 0.30229804 -0.021574289 -0.376188 0.4284625
-0.33349696 -0.1661724 0.09467408 0.08498305 0.1909372 0.10822342 0.7668016 0.60840297
-0.070712745 0.005543858 0.11084199 -0.119286194 0.09055865 0.033060342 0.49769568 -0.0585981
-0.064885825 -0.71450615 0.03180194 -0.49058154 -0.67150116 -0.061326027 -0.6387385 -0.5496441
0.045875315 0.7076402 -0.026117563 0.10758404 -0.3822132 -0.69447726 -0.074466795 -0.2266158
-0.10342887 0.08102465 0.10359768 0.002915144 -0.09453055 0.05288315 0.101147614 0.67620033
0.48250595 -0.5867289 0.19623213 -0.32516804 -0.011496454 -0.07482353 -0.0016767848 0.43973356
-0.044005245 0.26513174 -0.08781458 -0.14468421 -0.055645756 0.38216615 0.7624648 0.08986339
-0.014726758 -0.23744112 0.10423306 0.7112907 0.5254878 0.5443162 -0.020091003 0.40961096
-0.005639433 0.7589336 0.16968133 0.71556467 -0.0053478777 -0.03679973 0.046710085 -0.28303155
-0.42190185 0.007741958 0.4390149 -0.24081244 0.26236022 -0.08682448 -0.4095357 0.34959313
-0.15966338 0.070041835 0.39229456 0.5896084 -0.07780704 -0.03548494 -0.44817305 -0.19910327
0.11997041 0.35018566 -0.13289405 0.8013196 0.0727973 0.11125669 0.076260746 -0.39710408
-0.36937523 -0.3181417 -0.059876088 0.055751354 0.3248501 -0.116132975 -0.11679709 0.7614231
0.21086529 0.6452647 -1.1678169 -1.0122069 -0.65249264 0.0016833544 -0.04622543 0.10187882
00000000: 583b cebc 6d24 fe3c 00ca 193b d0c7 a43d
00000010: 869d 703c 2efb ed3d 9d85 ec3d ba19 333e
00000020: b02c f5bc cf0a ba3d 1a9f 2d3e a318 303d
00000030: 8d49 ec3d 88ab ac3d edae 493d 36eb b53d
00000040: 2425 44bc 78af 9fbd 903c f1bc 8825 ec3c
00000050: c0a4 15bd cc0d 4d3c 3f02 103e fb80 9d3b
00000060: b803 40bd 5c6f b2bd 4ce4 753d 6578 98bd
00000070: 40bf 6cbd f026 d3bc d1dc cb3d 3c48 973d
00000080: e0cb 5fbc 0479 e13d af73 9c3d 1dec 8a3d
00000090: 15c6 1ebe a0ab 1cbd 0682 2d3e 73f8 06bd
000000a0: bbad 743d 094e c3bd 0441 9ebd 11a3 18ba
000000b0: 6724 0f3e 2c50 ab3c 63cc d3bc 6fe3 173e
000000c0: 6fae 633b 0085 a3bd d785 353d 3831 e3bd
000000d0: d0eb 49bd 1833 4fbd 5b2a 7fbd f06b 5fbc
000000e0: 0c5e a0bd fa61 383b 0356 ed3a 8242 0ebe
000000f0: 8e9c 473c e0e0 503c 6013 143d 1f4e ec3d
00000100: 606d 633d fa3f 9e3d 4f20 043d 478d 49bd
00000110: 7ec9 95ba 9936 93bd 3525 793c d050 f9bd
00000120: 84fe db3d 69a7 223e 0087 83bd 6ee6 053e
00000130: dc82 ed3d bbda bf3d bfd0 13bd 4b87 9d3c
00000140: 15a8 f33a ad85 f93d 1616 c43d d443 e13d
00000150: 6011 94bd c84f ac3d ac8d 713d 83d1 05bc
00000160: 19a9 6f3d 5808 bf3d 359c 8d3d 60aa 11be
00000170: c699 053b cc07 83bd a69b cc3c cd5b 1c3d
00000180: 314a 153e 09b5 e53b b0c9 053d ee53 b63d
00000190: a68f 83bd 1832 babd 967e fdbc 026a e33d
000001a0: c885 35bd 4b4a cdbc 2942 a33d 7802 473d
000001b0: 0467 ea3c c085 78bc d980 a5bc 431f d5bd
000001c0: cce9 073e 66c2 14bc b8ca 533d 3d2a 81bd
000001d0: 75af b3bc a0a8 b13d f8e5 93bd 0bf8 5b3e
000001e0: dd02 403d 23bd 0bbd 776d 99bd 63aa 1a3e
000001f0: 14c7 643c d874 2f3d 2ee0 d33d a0da 73bc
00000200: 6408 7abd d2f9 543e b02d c1bc a09e bebd
00000210: 2891 f93d acc7 acbc f59c 393f 33ee 1bbf
00000220: 9c8c c43d bb67 f83e accc fcbe afb5 44bb
00000230: cfc6 9a3e 90bc b0bc b79b c0be 705f db3e
00000240: 1dc0 aabe 1929 2abe 7ce4 c13d 980b ae3d
00000250: 0b85 433e 3ea4 dd3d 1c4d 443f 4cc0 1b3f
00000260: d8d1 90bd 40a9 b53b 2001 e33d 524c f4bd
00000270: d076 b93d 486a 073d f8d1 fe3e 9004 70bd
00000280: dce2 84bd e0e9 36bf c042 023d 812d fbbe
00000290: 80e7 2bbf 0031 7bbd 5e84 23bf 7ab5 0cbf
000002a0: c1e7 3b3d e827 353f 80f4 d5bc 0555 dc3d
000002b0: 73b1 c3be 43c9 31bf 0c82 98bd f90d 68be
000002c0: 84d2 d3bd 40f0 a53d 052b d43d 000c 3f3b
000002d0: 3c99 c1bd 009c 583d 7b26 cf3d 771b 2d3f
000002e0: 050b f73e dd33 16bf 13f1 483e 6d7c a6be
000002f0: 9f5b 3cbc 143d 99bd 90c7 dbba c224 e13e
00000300: d83e 34bd 59bf 873e 21d8 b3bd 1928 14be
00000310: ceec 63bd 48ab c33e e530 433f 4c0a b83d
00000320: 8048 71bc c423 73be 2478 d53d 2617 363f
00000330: 5e86 063f 4e58 0b3f e395 a4bc 87b8 d13e
00000340: feca b8bb 7949 423f f1c0 2d3e 3f2f 373f
00000350: 403d afbb 50bb 16bd 1353 3f3d 83e9 90be
00000360: 8503 d8be 40b0 fd3b 90c6 e03e 8997 76be
00000370: 1454 863e 08d1 b1bd aaae d1be dffd b23e
00000380: cc7e 23be 1872 8f3d d5da c83e 93f0 163f
00000390: 4c59 9fbd a858 11bd f076 e5be bae1 4bbe
000003a0: 0cb3 f53d 894b b33e 6115 08be 4823 4d3f
000003b0: c016 953d 8cda e33d 982e 9c3d 3a51 cbbe
000003c0: c01e bdbe 78e3 a2be a140 75bd 885b 643d
000003d0: c152 a63e 20d7 edbd 5033 efbd a0ec 423f
000003e0: 12ed 573e 1130 253f 067b 95bf ff8f 81bf
000003f0: c209 27bf 00a4 dc3a e056 3dbd d8a5 d03d

arr_1 f4 [128]
-0.007787213 -0.04269741 0.0 0.0 -0.007300732 0.094128296 0.010808101 0.07413932
0.0 0.009793096 0.044459835 -0.0074020997 0.10804933 0.0 0.05844887 -0.014437734
-0.01748977 0.03702369 0.0 -0.0033804907 -0.022016663 0.042394087 0.05273428 0.018285522
0.0 0.0 -0.00745697 0.017782055 0.0 0.0 0.046044454 0.0
0.0 0.02867033 -0.0076691625 0.026670432 -0.11105181 0.0 0.06370171 0.009518359
-0.0033560959 -0.01015652 -0.011891945 -0.020117877 0.013969543 -0.06488629 -0.0052932296 0.101894096
-0.009679619 0.0 0.033141974 0.0 0.0 0.0 0.027561657 0.011733381
-0.010577131 0.00864625 0.03486719 -0.035995327 0.02714384 0.0 -0.010586438 0.043171663
0.0 0.035150792 -0.016544435 0.065960795 0.03892918 0.0070715896 0.037066713 0.0
0.0 0.06837098 0.0 0.016573215 0.051856294 0.04003074 -0.030567814 0.03997808
-0.020009318 0.014296118 0.011312878 0.054049555 -0.011129815 0.0 0.028723074 -0.020551626
0.03508968 -0.009324702 0.027765356 -0.025590632 0.048911836 0.0 0.0011944844 0.1120019
0.029790664 -0.005199609 0.038757917 0.031786278 -0.008170741 0.0 0.0694663 -0.0035808026
0.0 0.07914698 -0.022456096 0.020849163 0.046578526 0.0 -0.0076985923 -0.07086065
0.024804322 0.045880187 -0.013469039 -0.008057954 0.00817636 0.0 0.0 0.1315337
0.013903654 0.03559927 0.010249087 0.0018192234 -0.028912473 0.0 -0.008229274 0.0
00000000: e12b ffbb 7be3 2ebd 0000 0000 0000 0000
00000010: fb3a efbb 56c6 c03d 7614 313c 5bd6 973d
00000020: 0000 0000 3973 203c 841b 363d 508d f2bb
00000030: f848 dd3d 0000 0000 1568 6f3d 3f8c 6cbc
00000040: b546 8fbc 27a6 173d 0000 0000 398b 5dbb
00000050: 4a5c b4bc 6ca5 2d3d e6ff 573d 85cb 953c
00000060: 0000 0000 0000 0000 9959 f4bb acab 913c
00000070: 0000 0000 0000 0000 1c99 3c3d 0000 0000
00000080: 0000 0000 0ade ea3c 994d fbbb f37b da3c
00000090: 226f e3bd 0000 0000 0b76 823d e4f2 1b3c
000000a0: f2f1 5bbb 8867 26bc 6fd6 42bc 3fce a4bc
000000b0: 83e0 643c 1ae3 84bd d472 adbb daad d03d
000000c0: 4497 1ebc 0000 0000 e1bf 073d 0000 0000
000000d0: 0000 0000 0000 0000 fcc8 e13c 5e3d 403c
000000e0: b44b 2dbc 00a9 0d3c e6d0 0e3d d66f 13bd
000000f0: c25c de3c 0000 0000 bd72 2dbc c5d4 303d
00000100: 0000 0000 47fa 0f3d 3288 87bc 7416 873d
00000110: 3474 1f3d cbb8 e73b 44d3 173d 0000 0000
00000120: 0000 0000 1606 8c3d 0000 0000 8dc4 873c
00000130: 4467 543d 46f7 233d 5a69 fabc 0ec0 233d
00000140: 95ea a3bc 443a 6a3c a659 393c 1163 5d3d
00000150: d459 36bc 0000 0000 a74c eb3c e25b a8bc
00000160: 32ba 0f3d a3c6 18bc 2c74 e33c 72a3 d1bc
00000170: c757 483d 0000 0000 3f90 9c3a 4161 e53d
00000180: 8d0b f43c 7b61 aabb 9fc0 1e3d 5432 023d
00000190: 92de 05bc 0000 0000 5944 8e3d e6ab 6abb
000001a0: 0000 0000 d017 a23d d9f5 b7bc ddcb aa3c
000001b0: 20c9 3e3d 0000 0000 7944 fcbb 631f 91bd
000001c0: 6f32 cb3c ddec 3b3d 3fad 5cbc 8205 04bc
000001d0: 24f6 053c 0000 0000 0000 0000 c5b0 063e
000001e0: 27cc 633c 8ad0 113d c9eb 273c 0273 ee3a
000001f0: dad9 ecbc 0000 0000 14d4 06bc 0000 0000

arr_2 f4 [128, 10]
-0.1312514 0.082066745 0.05586362 0.11020378 -0.21240981 0.2026868 0.1228003 -0.2020508
0.04594682 0.07239338 -0.80073893 0.80669725 0.24809483 -0.36361825 0.22186448 -1.1952858
-1.1674277 0.5328358 -0.8922598 0.15508756 -0.0076753497 -0.12571175 0.1534328 0.06696619
-0.11366537 -0.18490432 0.08314474 -0.016766846 -0.13268709 0.053978905 0.20714013 -0.19562946
0.096139714 0.1567279 -0.19750531 -0.1902047 0.12073253 0.1276554 0.101262346 0.14187299
-0.18834937 0.19739142 0.13343024 -0.07105134 -0.023069821 0.09106893 0.011573752 0.049065452
-0.08278848 0.17668161 0.5523898 -1.4118704 -0.6691816 0.10658887 -0.39428872 0.25567397
-1.2853416 0.39361385 0.8030651 0.4581273 -0.827881 -0.97714996 -0.21560359 0.40098563
-0.7682554 -1.2562109 -0.56020814 0.5526341 0.25383326 0.50870264 0.022740334 -0.29854834
0.24008517 -0.19354409 -0.46688503 -0.3711341 0.44432053 -0.76380044 0.58649945 0.24810621
0.16639118 0.19710551 0.15182884 0.021049187 0.044226572 0.18148582 -0.1210227 -0.022625014
-0.1929836 0.035114035 -0.6535359 -0.66805416 -0.3583983 0.061230507 -0.47397813 0.72576004
-0.46705467 0.35551208 -1.10178 -0.5834546 0.37770364 0.43370798 -0.40983674 -0.26871333
-0.029453294 -0.24972524 -0.2073678 -0.30054855 0.12277022 -0.11012302 -0.08374116 0.0032850904
0.16844885 -0.14130017 -0.027327562 -0.119663924 -0.1355244 0.07492379 0.11935023 0.051308975
0.14885612 -0.97803617 0.9570764 0.71008617 -1.0988773 -1.3440298 -1.601948 -0.093222305
0.15807164 -0.42002776 -0.124470204 -0.051695094 0.028912246 0.03392698 -0.169333 0.1033798
-0.11400412 0.021928415 0.13429327 -0.128003 0.25717396 -0.21712984 -0.18714477 -0.2917509
0.09027448 0.31531307 -0.48413548 0.0474686 -0.5267079 -0.14253746 -0.45066705 0.44662428
-0.36559284 -0.0085045975 -0.6760219 -1.2113928 -0.43483728 0.37408742 -0.75798523 0.22887206
0.38507655 0.37263682 -0.4432293 -0.18690069 -0.22929303 -0.3600361 -0.24688086 0.20671879
-0.39102393 -0.26316652 -0.28824046 0.3948684 -0.34971505 -0.18796586 0.13238333 -0.25111687
-0.26906523 -0.44248906 0.2244732 0.22537677 -0.137207 -0.17382915 -0.009707838 0.016830027
-0.0961742 0.09521817 -0.19780065 -0.15229337 0.15437524 0.120674506 0.13781194 -0.08857917
0.1579856 0.1873303 0.15536147 0.013691152 -0.08304743 0.12271048 0.09705316 0.005654839
-1.3890373 -1.0788957 0.26765087 -0.6649785 0.07760075 -1.590902 -1.7511762 0.981998
-0.9165672 0.7501629 0.5502507 -0.2213491 -0.85574746 0.29668292 -1.1262088 -0.50325793
-0.8122946 0.38220766 0.5166742 -0.3007515 -0.6002345 -0.3426864 0.14254402 0.42674202
-0.05768228 -0.16115212 0.111945614 -0.52213144 0.11836457 0.041297615 -0.865537 0.27095792
0.3190933 0.59108454 -0.14936228 -1.0480345 -1.166159 0.13292 -0.9364765 -0.8478297
0.19873725 -0.026021093 0.17385422 0.19739632 0.16885684 -0.13918093 -0.02558799 0.063666895
0.1695667 -0.1730751 -0.06362097 0.15752809 0.17157747 0.07752575 -0.027078703 -0.057747588
00000000: c466 06be 9c12 a83d 40d1 643d 85b2 e13d
00000010: f581 59be 218d 4f3e b97e fb3d 68e6 4ebe
00000020: bc32 3c3d fb42 943d 3afd 4cbf b683 4e3f
00000030: 920c 7e3e 2c2c babe 7130 633e 20ff 98bf
00000040: 456e 95bf ed67 083f 236b 64bf 46cf 1e3e
00000050: 8081 fbbb 95ba 00be 7d1d 1d3e 9225 893d
00000060: 64c9 e8bd 8f57 3dbe ca47 aa3d a05a 89bc
00000070: 20df 07be fc18 5d3d 8b1c 543e 1753 48be
00000080: e6e4 c43d 477d 203e d53e 4abe 05c5 42be
00000090: 9e42 f73d 19b8 023e a262 cf3d 2747 113e
000000a0: a8de 40be fa20 4a3e f0a1 083e 5d83 91bd
000000b0: ecfc bcbc 5982 ba3d d69f 3d3c dbf8 483d
000000c0: 028d a9bd 06ec 343e 6b69 0d3f 2bb8 b4bf
000000d0: 7c4f 2bbf 444b da3d 36e0 c9be b3e7 823e
000000e0: 1386 a4bf c187 c93e ad95 4d3f a98f ea3e
000000f0: 02f0 53bf 8026 7abf 30c7 5cbe fd4d cd3e
00000100: 63ac 44bf 85cb a0bf cd69 0fbf 6e79 0d3f
00000110: 6ff6 813e 563a 023f f049 ba3c 54db 98be
00000120: e3d8 753e 6c30 46be 8e0b efbe 4a05 bebe
00000130: fb7d e33e 6d88 43bf d424 163f 8e0f 7e3e
00000140: 7362 2a3e 07d6 493e 0579 1b3e 586f ac3c
00000150: ec26 353d 6bd7 393e c0da f7bd 1858 b9bc
00000160: 7e9d 45be bcd3 0f3d 214e 27bf 9905 2bbf
00000170: fb7f b7be d7cc 7a3d 43ad f2be 69cb 393f
00000180: ca21 efbe ae05 b63e 2107 8dbf 485d 15bf
00000190: 5f62 c13e f90e de3e 1fd6 d1be cb94 89be
000001a0: 0948 f1bc f9b7 7fbe 3958 54be 80e1 99be
000001b0: f46e fb3d 2e88 e1bd 7c80 abbd ac4a 573b
000001c0: db7d 2c3e feb0 10be 0dde dfbc 5c12 f5bd
000001d0: e9c6 0abe a571 993d e56d f43d 5c29 523d
000001e0: bd6d 183e 9460 7abf f502 753f 35c8 353f
000001f0: 03a8 8cbf 2b09 acbf a20c cdbf 56eb bebd
00000200: 88dd 213e e10d d7be 3cea febd 3cbe 53bd
00000210: 60d9 ec3c 04f7 0a3d a165 2dbe cab8 d33d
00000220: fe7a e9bd 38a3 b33c 2d84 093e 3813 03be
00000230: 4eac 833e 4957 5ebe e1a2 3fbe 6060 95be
00000240: d4e1 b83d b770 a13e 9be0 f7be 6f6e 423d
00000250: 54d6 06bf 57f5 11be d5bd e6be f0ab e43e
00000260: fc2e bbbe de56 0bbc c50f 2dbf eb0e 9bbf
00000270: fea2 debe 6388 bf3e 520b 42bf 705d 6a3e
00000280: c128 c53e 41ca be3e f3ee e2be e562 3fbe
00000290: cbcb 6abe a756 b8be 56ce 7cbe 17ae 533e
000002a0: 4a34 c8be c3bd 86be 4194 93be 312c ca3e
000002b0: da0d b3be 1f7a 40be 7f8f 073e 6492 80be
000002c0: ebc2 89be ed8d e2be 4ddc 653e 2bc9 663e
000002d0: fe7f 0cbe 4500 32be a00d 1fbc 20df 893c
000002e0: fbf6 c4bd be01 c33d 418c 4abe cbf2 1bbe
000002f0: 8b14 1e3e 3224 f73d 931e 0d3e ff68 b5bd
00000300: fac6 213e 84d3 3f3e 1417 1f3e db50 603c
00000310: c514 aabd a24f fb3d cfc3 c63d 3a4c b93b
00000320: f9cb b1bf 4119 8abf 8909 893e 083c 2abf
00000330: 24ed 9e3d ada2 cbbf 8b26 e0bf 3964 7b3f
00000340: 26a4 6abf ad0a 403f 3bdd 0c3f 57a9 62be
00000350: 4412 5bbf d3e6 973e 9c27 90bf 83d5 00bf
00000360: 8af2 4fbf b9b0 c33e c344 043f 1afc 99be
00000370: f8a8 19bf 9874 afbe 0ff7 113e ee7d da3e
00000380: 4144 6cbd 1005 25be be43 e53d 68aa 05bf
00000390: 2069 f23d b027 293d d593 5dbf ffba 8a3e
000003a0: 3260 a33e 5151 173f 6df2 18be ff25 86bf
000003b0: b344 95bf 2e1c 083e edbc 6fbf 5e0b 59bf
000003c0: c781 4b3e 302a d5bc d706 323e 4322 4a3e
000003d0: cfe8 2c3e 7285 0ebe e89d d1bc ca63 823d
000003e0: e5a2 2d3e 993a 31be b64b 82bd 0b4f 213e
000003f0: 01b2 2f3e d2c5 9e3d 28d4 ddbc bc88 6cbd

arr_3 f4 [10]
-0.01725076 -0.03874862 -0.02280954 -0.014874819 -0.004523232 -0.01573336 -0.064313814 -0.061737545
-0.025502443 -0.034953963
00000000: 7751 8dbc dfb6 1ebd 13db babc 83b5 73bc
00000010: 9f37 94bb 3fe3 80bc f6b6 83bd 82e0 7cbd
00000020: 80ea d0bc e32b 0fbd
