ep2-cnn/results-multiclass-blocks/initial_weights.npz (npz, 137734 bytes, 4 tensors)

arr_0 f4 [256, 128]
000000 10 5e 8c bc e8 a4 a2 3d 00 ca 19 3b d0 c7 a4 3d
       -0.017134696 0.079416096 0.0023466349 0.08045924
000010 80 1d b4 3c 40 fe 79 3c 68 ac ed 3d a8 2e b7 3d
       0.021986723 0.015258372 0.116051495 0.08944446
000020 b0 2c f5 bc 50 a9 bb 3d ec b0 ed 3d b8 63 4d 3d
       -0.029928535 0.09163153 0.11606011 0.050143927
000030 30 23 93 3c 88 ab ac 3d e0 81 33 bc 80 7f db 3d
       0.017961115 0.084311545 -0.010956258 0.10717678
000040 00 7e ea 3a 4c 57 ee bd 90 3c f1 bc 40 b3 03 3d
       0.0017890334 -0.11637744 -0.029447824 0.032153368
000050 10 71 82 bc 80 76 fa bc ec 27 cf 3d 00 6c a9 b9
       -0.015923053 -0.030574083 0.10115036 -0.00032314658
000060 b8 03 40 bd 5c 6f b2 bd bc 37 8a 3d e4 a3 c1 bd
       -0.046878546 -0.08712646 0.06748912 -0.09455088
000070 40 bf 6c bd f0 26 d3 bc 70 97 7e 3d 3c 48 97 3d
       -0.057799578 -0.025775403 0.06215614 0.073868245
000080 e0 cb 5f bc 54 8c 9a 3d 0c 2f ac 3d 50 20 ca 3c
       -0.013659447 0.07546297 0.08407411 0.02467361
000090 90 55 8e bd a0 ab 1c bd e4 d8 b6 3d 10 bc 65 bd
       -0.069499135 -0.03824961 0.08928087 -0.056087554
0000a0 40 cd 80 3d d4 46 9b bd 34 e6 85 bd 60 84 bd 3c
       0.06289148 -0.07581869 -0.065380484 0.02313441
0000b0 40 e4 f4 3d c0 66 9b 3d b0 6f a8 bc 68 04 25 3d
       0.11957598 0.075879574 -0.02056107 0.040287405
0000c0 e0 82 57 3c 00 85 a3 bd a0 45 48 3c 38 31 e3 bd
       0.013153762 -0.07984352 0.012223631 -0.11093372
0000d0 d0 eb 49 bd 18 33 4f bd 5c ec b6 bd a0 89 24 bc
       -0.049297154 -0.050585836 -0.08931801 -0.010042578
0000e0 b0 92 68 bd f0 7e 87 bc e0 b1 c6 bc 70 ec d7 bd
       -0.056780517 -0.01654002 -0.02425474 -0.10543144
0000f0 20 79 5b bc e0 e0 50 3c e0 6a 3f 3d ec 52 a6 3d
       -0.013395578 0.012748927 0.046732783 0.08121285
000100 60 6d 63 3d b8 78 32 3d 88 e1 47 3d b4 27 f2 bd
       0.05552423 0.043572158 0.048799068 -0.11823979
000110 d0 7e 28 bd 28 c4 95 bd e0 17 39 bc d0 50 f9 bd
       -0.041136563 -0.073128045 -0.011297196 -0.12173617
000120 84 fe db 3d ac 16 b2 3d 00 87 83 bd 28 f4 ff 3d
       0.107419044 0.086957306 -0.064222336 0.12497741
000130 a4 30 9d 3d 8c 76 8d 3d c0 08 b6 bb 80 be b5 bb
       0.07675293 0.06907377 -0.0055552423 -0.005546391
000140 50 19 b3 3c bc e0 ee 3d 98 b0 ae 3d 68 cf 97 3d
       0.021862656 0.116639584 0.08529776 0.074126065
000150 00 90 7a bd c8 4f ac 3d a0 63 04 3d e0 4f 2b 3c
       -0.061172485 0.084136546 0.032321572 0.010456055
000160 c0 da 75 3c 28 21 d2 3d c8 b5 45 3d 60 3e fb bd
       0.015005767 0.1026023 0.048269063 -0.122677565
000170 b0 ce 27 bd cc 07 83 bd 00 65 7f 3c d8 44 7f bd
       -0.040968597 -0.063979715 0.015588045 -0.062321514
000180 9c ed eb 3d 40 0b 48 3c 80 dc 97 3b a4 3f 80 3d
       0.1151993 0.012209713 0.00463444 0.062621385
000190 38 63 65 bd 18 32 ba bd 04 9f d3 bd 2c 4b e9 3d
       -0.056002825 -0.09091586 -0.10333064 0.11391291
0001a0 c8 85 35 bd 14 48 bf bd 9c 41 d1 3d 68 87 25 3d
       -0.044317037 -0.0933992 0.10217592 0.040412337
0001b0 d0 a1 87 bc c0 85 78 bc 80 df 4c bc 58 fb 21 bd
       -0.01655665 -0.015168607 -0.012504458 -0.03954634
0001c0 64 c5 c9 3d 48 c9 6a bd dc 8d 85 3d 20 53 61 bd
       0.098521024 -0.057320863 0.06521198 -0.055010915
0001d0 80 27 ad bc a0 a8 b1 3d f8 e5 93 bd 74 80 d4 3d
       -0.021137 0.08674741 -0.072215974 0.10376063
0001e0 90 e7 27 3d 00 86 7e bd a4 57 ec bd d8 7f f6 3d
       0.04099232 -0.06213951 -0.115401536 0.12036103
0001f0 70 1a b2 3c d8 74 2f 3d e4 77 e4 3d a0 da 73 bc
       0.021741122 0.04283604 0.1115568 -0.014883667
000200 c0 93 6e bd b8 67 25 bd b0 2d c1 bc a0 9e be bd
       -0.058246374 -0.040382117 -0.023581356 -0.09307599
000210 28 91 f9 3d 00 be 5d 3d 88 8b cf bd e0 0d fc bd
       0.121858895 0.054136276 -0.10134035 -0.12307334
000220 9c 8c c4 3d 90 ce 1a 3d f4 4d e3 3d 80 d1 a2 bb
       0.095971316 0.03779465 0.11098853 -0.004968822
000230 18 0d 33 3d 90 bc b0 bc b0 7d 99 bc d0 e9 b7 3d
       0.04371366 -0.021574289 -0.01873669 0.08980143
000240 00 44 1b bc 40 6b 46 bd 7c e4 c1 3d 98 0b ae 3d
       -0.009476662 -0.048442125 0.09467408 0.08498305
000250 f8 a0 30 3d d0 f1 1a bd d8 a1 b8 3d 40 51 02 3d
       0.04312226 -0.037828267 0.09015244 0.031815767
000260 d8 d1 90 bd 40 a9 b5 3b 20 01 e3 3d d0 73 15 3d
       -0.070712745 0.005543858 0.11084199 0.0364874
000270 d0 76 b9 3d 48 6a 07 3d 70 3a 4f bd 90 04 70 bd
       0.09055865 0.033060342 -0.05059284 -0.0585981
000280 dc e2 84 bd c0 a9 21 bc c0 42 02 3d 20 ea e1 3d
       -0.064885825 -0.009867132 0.03180194 0.11030984
000290 b0 f3 f6 bc 00 31 7b bd c8 9e 1a bd 20 e6 6c bc
       -0.030145496 -0.061326027 -0.03774908 -0.014459163
0002a0 68 dc 46 3d 34 66 f8 3d 80 f4 d5 bc 4c 59 9a bd
       0.04855004 0.12128869 -0.026117563 -0.07536563
0002b0 00 97 e5 bc f0 7b 1b bd 0c 82 98 bd 58 ef 76 3d
       -0.028026104 -0.037959993 -0.074466795 0.06028685
0002c0 84 d2 d3 bd 40 f0 a5 3d 20 98 fc bc 00 0c 3f 3b
       -0.10342887 0.08102465 -0.030834258 0.002915144
0002d0 3c 99 c1 bd 00 9c 58 3d 08 9f b3 3d d8 36 e0 bd
       -0.09453055 0.05288315 0.08770567 -0.109479606
0002e0 64 78 bb bd c0 fa 8e bb 80 55 b2 bb e8 4a 5f 3d
       -0.09153822 -0.004363388 -0.0054423213 0.054514796
0002f0 c0 e2 87 bd 14 3d 99 bd 00 80 01 3a 50 af 1c 3d
       -0.06635046 -0.07482353 0.0004940033 0.03825313
000300 d8 3e 34 bd f8 76 b0 3d c0 fb a7 bd f0 82 4d 3d
       -0.044005245 0.086164415 -0.082023144 0.0501737
000310 b8 2b f9 bd 6c 5c ed 3d f0 d5 ea bc 4c 0a b8 3d
       -0.12166542 0.11589894 -0.028666466 0.08986339
000320 80 48 71 bc 14 17 af 3d 24 78 d5 3d 9c 58 fa 3d
       -0.014726758 0.08549324 0.10423306 0.12223932
000330 dc 0b 82 bd f0 55 b0 bc 20 d4 59 3c 08 c2 89 bd
       -0.06349918 -0.021525353 0.013295203 -0.06726462
000340 10 d1 a5 3c 60 de 67 bc 54 10 f6 3d 94 98 d9 bd
       0.02024129 -0.014152139 0.12014833 -0.10624805
000350 00 30 f4 b8 50 bb 16 bd d0 61 eb bd 10 e8 c8 bd
       -0.00011643767 -0.03679973 -0.11493266 -0.098098874
000360 b0 77 72 bd 40 b0 fd 3b 90 a1 d9 bc 00 50 e2 bc
       -0.059196174 0.007741958 -0.026566297 -0.027626038
000370 fc 51 81 bd 08 d1 b1 bd 90 26 dc 3d 48 29 67 bd
       -0.063144654 -0.08682448 0.10749543 -0.056435853
000380 08 d6 38 3d 18 72 8f 3d f4 63 d6 bd 54 f2 a7 3d
       0.04512599 0.070041835 -0.10468283 0.08200517
000390 4c 59 9f bd a8 58 11 bd 38 98 0d 3d 9c f8 a9 bd
       -0.07780704 -0.03548494 0.034568995 -0.082993716
0003a0 0c b3 f5 3d b8 80 dd bd 98 b0 f0 bd 0c 94 ac bd
       0.11997041 -0.10815567 -0.117524326 -0.08426675
0003b0 80 ed d7 3d 8c da e3 3d 98 2e 9c 3d a8 77 47 bd
       0.105433464 0.11125669 0.076260746 -0.048698097
0003c0 20 e5 06 bc 00 58 a0 39 60 09 70 bd 88 5b 64 3d
       -0.008233339 0.00030583143 -0.05860269 0.055751354
0003d0 e0 c1 c6 bd 20 d7 ed bd 50 33 ef bd 40 65 bd 3b
       -0.097049475 -0.116132975 -0.11679709 0.005779892
0003e0 b8 25 9c bd 04 f0 9c 3d 00 38 13 bb 80 2a ff bc
       -0.07624382 0.07662967 -0.0022463799 -0.031148195
0003f0 c4 b5 b1 3d 00 a4 dc 3a e0 56 3d bd d8 a5 d0 3d
       0.08677247 0.0016833544 -0.04622543 0.10187882

arr_1 f4 [128]
000000 00 00 00 00 00 00 00 00 00 00 00 00 00 00 00 00
       0.0 0.0 0.0 0.0
000010 00 00 00 00 00 00 00 00 00 00 00 00 00 00 00 00
       0.0 0.0 0.0 0.0
000020 00 00 00 00 00 00 00 00 00 00 00 00 00 00 00 00
       0.0 0.0 0.0 0.0
000030 00 00 00 00 00 00 00 00 00 00 00 00 00 00 00 00
       0.0 0.0 0.0 0.0
000040 00 00 00 00 00 00 00 00 00 00 00 00 00 00 00 00
       0.0 0.0 0.0 0.0
000050 00 00 00 00 00 00 00 00 00 00 00 00 00 00 00 00
       0.0 0.0 0.0 0.0
000060 00 00 00 00 00 00 00 00 00 00 00 00 00 00 00 00
       0.0 0.0 0.0 0.0
000070 00 00 00 00 00 00 00 00 00 00 00 00 00 00 00 00
       0.0 0.0 0.0 0.0
000080 00 00 00 00 00 00 00 00 00 00 00 00 00 00 00 00
       0.0 0.0 0.0 0.0
000090 00 00 00 00 00 00 00 00 00 00 00 00 00 00 00 00
       0.0 0.0 0.0 0.0
0000a0 00 00 00 00 00 00 00 00 00 00 00 00 00 00 00 00
       0.0 0.0 0.0 0.0
0000b0 00 00 00 00 00 00 00 00 00 00 00 00 00 00 00 00
       0.0 0.0 0.0 0.0
0000c0 00 00 00 00 00 00 00 00 00 00 00 00 00 00 00 00
       0.0 0.0 0.0 0.0
0000d0 00 00 00 00 00 00 00 00 00 00 00 00 00 00 00 00
       0.0 0.0 0.0 0.0
0000e0 00 00 00 00 00 00 00 00 00 00 00 00 00 00 00 00
       0.0 0.0 0.0 0.0
0000f0 00 00 00 00 00 00 00 00 00 00 00 00 00 00 00 00
       0.0 0.0 0.0 0.0
000100 00 00 00 00 00 00 00 00 00 00 00 00 00 00 00 00
       0.0 0.0 0.0 0.0
000110 00 00 00 00 00 00 00 00 00 00 00 00 00 00 00 00
       0.0 0.0 0.0 0.0
000120 00 00 00 00 00 00 00 00 00 00 00 00 00 00 00 00
       0.0 0.0 0.0 0.0
000130 00 00 00 00 00 00 00 00 00 00 00 00 00 00 00 00
       0.0 0.0 0.0 0.0
000140 00 00 00 00 00 00 00 00 00 00 00 00 00 00 00 00
       0.0 0.0 0.0 0.0
000150 00 00 00 00 00 00 00 00 00 00 00 00 00 00 00 00
       0.0 0.0 0.0 0.0
000160 00 00 00 00 00 00 00 00 00 00 00 00 00 00 00 00
       0.0 0.0 0.0 0.0
000170 00 00 00 00 00 00 00 00 00 00 00 00 00 00 00 00
       0.0 0.0 0.0 0.0
000180 00 00 00 00 00 00 00 00 00 00 00 00 00 00 00 00
       0.0 0.0 0.0 0.0
000190 00 00 00 00 00 00 00 00 00 00 00 00 00 00 00 00
       0.0 0.0 0.0 0.0
0001a0 00 00 00 00 00 00 00 00 00 00 00 00 00 00 00 00
       0.0 0.0 0.0 0.0
0001b0 00 00 00 00 00 00 00 00 00 00 00 00 00 00 00 00
       0.0 0.0 0.0 0.0
0001c0 00 00 00 00 00 00 00 00 00 00 00 00 00 00 00 00
       0.0 0.0 0.0 0.0
0001d0 00 00 00 00 00 00 00 00 00 00 00 00 00 00 00 00
       0.0 0.0 0.0 0.0
0001e0 00 00 00 00 00 00 00 00 00 00 00 00 00 00 00 00
       0.0 0.0 0.0 0.0
0001f0 00 00 00 00 00 00 00 00 00 00 00 00 00 00 00 00
       0.0 0.0 0.0 0.0

arr_2 f4 [128, 10]
000000 e4 0c 41 bd ce 11 d7 3d 14 c2 2e 3d 96 5b bb 3d
       -0.047131434 0.10501443 0.042665556 0.09148328
000010 02 ba 07 be 4d bc 51 3e bf c1 0b 3e fe 5b 21 be
       -0.1325455 0.20481987 0.13648127 -0.15757748
000020 5c dd 35 bd 05 19 04 3e 88 16 f5 bd a5 fb 23 3e
       -0.044400558 0.12900169 -0.11967188 0.16013964
000030 90 87 e3 3c d4 9d 2c 3d ec 27 73 3d 0e 6e 95 bd
       0.027774602 0.042142704 0.059364244 -0.07296382
000040 4d 8b 16 be 49 81 06 3e a4 42 2a be 77 54 40 3e
       -0.14701577 0.13135256 -0.16626984 0.18782221
000050 80 81 fb bb 95 ba 00 be 7d 1d 1d 3e 92 25 89 3d
       -0.0076753497 -0.12571175 0.1534328 0.06696619
000060 64 c9 e8 bd 8f 57 3d be ca 47 aa 3d a0 5a 89 bc
       -0.11366537 -0.18490432 0.08314474 -0.016766846
000070 20 df 07 be fc 18 5d 3d 8b 1c 54 3e 17 53 48 be
       -0.13268709 0.053978905 0.20714013 -0.19562946
000080 e6 e4 c4 3d 47 7d 20 3e d5 3e 4a be 05 c5 42 be
       0.096139714 0.1567279 -0.19750531 -0.1902047
000090 9e 42 f7 3d 19 b8 02 3e a2 62 cf 3d 27 47 11 3e
       0.12073253 0.1276554 0.101262346 0.14187299
0000a0 62 f3 39 be 89 1a 51 3e 6b 69 0f 3e 34 3d 84 bd
       -0.1815925 0.20420279 0.14005058 -0.06456986
0000b0 20 41 86 bc 1e 7f c8 3d f8 16 89 3c 5c a3 58 3d
       -0.016388476 0.09789871 0.016734585 0.052890167
0000c0 3c 94 a2 bd e5 e3 3b 3e 89 51 05 3e 0a 42 31 be
       -0.0793843 0.18348654 0.13019384 -0.17310348
0000d0 8d 8b bf bd 72 bb de 3d f6 ed bc bd 2f b0 b4 bd
       -0.09352789 0.10875596 -0.09225075 -0.08822667
0000e0 34 6a a6 bd e3 16 55 3e 59 5a 52 3e b8 b3 19 3d
       -0.081257254 0.20809512 0.20542277 0.03752491
0000f0 43 de d0 bd 33 37 ae bd d0 12 75 bd 06 e0 b8 3d
       -0.10198643 -0.08506622 -0.059832394 0.09027104
000100 a2 82 0e be ec d8 1a be bc e0 6b 3d 09 04 39 3e
       -0.1391702 -0.15121812 0.05758737 0.18067946
000110 00 ac 17 3b 0b 00 2c 3e 12 39 8a 3d 10 e2 a2 bd
       0.0023143291 0.16796891 0.067491665 -0.07953274
000120 fe 0c d9 3d ee 91 99 bd 20 3e fd bd 78 9e 79 bd
       0.10598181 -0.07498537 -0.12365365 -0.060942143
000130 b1 17 4c 3e 23 a7 24 be c7 1e 3d 3e 58 cb e9 3c
       0.19930913 -0.16079383 0.18468772 0.028539345
000140 73 62 2a 3e 07 d6 49 3e 05 79 1b 3e 58 6f ac 3c
       0.16639118 0.19710551 0.15182884 0.021049187
000150 ec 26 35 3d 6b d7 39 3e c0 da f7 bd 18 58 b9 bc
       0.044226572 0.18148582 -0.1210227 -0.022625014
000160 7e 9d 45 be bc d3 0f 3d 80 25 55 bc a9 4a c9 bd
       -0.1929836 0.035114035 -0.013009429 -0.098286934
000170 84 dc 00 be 10 02 0b bd 84 f0 35 be ea f1 f4 3d
       -0.1258412 -0.033937514 -0.1776753 0.11960204
000180 50 d9 38 bc 57 ff 00 3e 16 11 12 be 0c bb 4f 3d
       -0.01128228 0.12597404 -0.1426433 0.05071549
000190 e9 8d 3e 3e 7f 86 2e 3e b5 d0 32 be b0 1e 75 bd
       0.18608822 0.17043494 -0.17462428 -0.05984372
0001a0 bc 47 23 bd 8f 14 18 be 03 44 de bd a1 ea f8 bd
       -0.039863333 -0.14851592 -0.10852816 -0.12154127
0001b0 6a 00 85 3d bc 8b 29 bd 98 30 96 bd 18 7a 85 3c
       0.064942196 -0.041393027 -0.07333487 0.01629357
0001c0 d7 8d 39 3e b0 24 0b be 10 99 65 bc 06 61 df bd
       0.18120514 -0.13588214 -0.014013544 -0.109071776
0001d0 39 3b fa bd c6 16 ad 3d c5 f5 07 3e 72 8a 89 3d
       -0.12218327 0.08451609 0.13277347 0.067158595
0001e0 00 72 78 3b 20 66 1c bc b7 bf 50 3e 16 78 cd 3d
       0.0037909746 -0.009545833 0.20385633 0.1003267
0001f0 86 52 e9 3d 24 2a 15 be 61 6f 52 be 9c 09 6b 3d
       0.11392693 -0.14566857 -0.205503 0.05738221
000200 00 6f a5 bd 6a f6 f9 bd 3c ea fe bd 3c be 53 bd
       -0.08077812 -0.12205203 -0.124470204 -0.051695094
000210 60 d9 ec 3c 04 f7 0a 3d a1 65 2d be ca b8 d3 3d
       0.028912246 0.03392698 -0.169333 0.1033798
000220 fe 7a e9 bd 38 a3 b3 3c 2d 84 09 3e 38 13 03 be
       -0.11400412 0.021928415 0.13429327 -0.128003
000230 b3 b1 44 3e 86 a9 0c be eb 68 e5 bd 85 69 3a be
       0.19208412 -0.13736543 -0.11201652 -0.18204315
000240 80 35 bd bb cb 15 14 3e 77 36 55 be 6c bc 0e bd
       -0.0057742 0.14461438 -0.20821558 -0.03484766
000250 d2 87 45 be 80 fb 2e 3b b8 d2 7e bd 6e f1 ea 3d
       -0.19290093 0.0026700199 -0.062212676 0.1147183
000260 00 a0 13 39 ac 37 3c bd 7a a2 52 be 70 90 77 bd
       0.00014078617 -0.04595153 -0.20569792 -0.06044048
000270 8c 98 82 bd ea d0 a3 3d 4a ba 1c be e3 97 40 3e
       -0.06376752 0.079988316 -0.15305439 0.1880794
000280 15 39 2c 3e 3a 85 80 3d 3a 97 33 be 8e 8c 96 bd
       0.1681865 0.06275411 -0.17538157 -0.073510274
000290 f0 c2 1a be 9b d5 2b be 4c c1 6d bd 3e fc f5 3d
       -0.15113425 -0.16780703 -0.05804567 0.12011002
0002a0 63 01 ce bd 70 38 02 bc 54 2b 11 be 84 ab 60 3d
       -0.10058858 -0.007948026 -0.14176685 0.05485107
0002b0 fe 98 44 be 90 ee 6f bd 34 42 2e 3d 11 61 eb bd
       -0.19198987 -0.05857712 0.042543605 -0.11493123
0002c0 19 b9 29 be 12 9c 27 be 10 a1 2e 3c 37 db 07 3e
       -0.16574515 -0.1636813 0.0106585175 0.13267218
0002d0 fe 7f 0c be 45 00 32 be a0 0d 1f bc 20 df 89 3c
       -0.137207 -0.17382915 -0.009707838 0.016830027
0002e0 fb f6 c4 bd be 01 c3 3d 41 8c 4a be cb f2 1b be
       -0.0961742 0.09521817 -0.19780065 -0.15229337
0002f0 8b 14 1e 3e 32 24 f7 3d 4e 5a f7 3d d0 dc 98 bd
       0.15437524 0.120674506 0.12077771 -0.07463992
000300 11 6f 31 3e 17 c2 4e 3e 23 d2 2b 3e 30 5e 18 3c
       0.17327525 0.20191227 0.1677938 0.0092998
000310 9c cb 91 bd b3 bd 0c 3e 3a 51 d7 3d 30 05 77 3c
       -0.071189135 0.1374424 0.105135396 0.01507692
000320 18 1f c1 bc af 06 3b 3e 80 f2 03 bc b6 c1 bf 3d
       -0.023574397 0.18264268 -0.008053422 0.09363119
000330 1d 6c 50 be f8 66 46 be 9b be 35 3e 24 8b 5a 3d
       -0.20353742 -0.19375217 0.17748491 0.05335535
000340 62 e8 f1 3d c9 74 55 3e 06 62 f9 3d 22 88 90 3d
       0.11811902 0.20845331 0.121768996 0.07057215
000350 80 ad 52 3b 9a 7e e5 3d 4c 37 1d 3d 56 cd 4d be
       0.003214687 0.11205788 0.038382813 -0.2009786
000360 0c d2 11 be 2b 61 33 3e 3d e2 07 3e b6 2e e4 bd
       -0.14240283 0.17517535 0.13269897 -0.11141722
000370 9e fc 37 be 0f fb 18 be d8 99 86 bc 59 d3 3c 3e
       -0.1796746 -0.14939521 -0.01643078 0.18439998
000380 e0 85 ea 3c d0 54 cf 3c 61 0f 25 3e 8f 43 e3 bd
       0.02862829 0.025308996 0.16119148 -0.1109687
000390 a2 b2 ad 3d d4 7c 0c bd 88 91 9f 3c 2e c3 c7 3d
       0.08481337 -0.034298733 0.019478574 0.097540244
0003a0 f4 16 24 bd 1b f6 53 3e f8 68 3b bd c5 3d 48 be
       -0.040060952 0.2069935 -0.045754403 -0.19554813
0003b0 2f 0b 34 be 5e 95 e6 3d d6 2a 0a be 83 0c d4 bd
       -0.17582391 0.11258958 -0.13492903 -0.10353949
0003c0 c7 81 4b 3e 30 2a d5 bc d7 06 32 3e 43 22 4a 3e
       0.19873725 -0.026021093 0.17385422 0.19739632
0003d0 cf e8 2c 3e 72 85 0e be e8 9d d1 bc ca 63 82 3d
       0.16885684 -0.13918093 -0.02558799 0.063666895
0003e0 e5 a2 2d 3e 99 3a 31 be b6 4b 82 bd 0b 4f 21 3e
       0.1695667 -0.1730751 -0.06362097 0.15752809
0003f0 01 b2 2f 3e d2 c5 9e 3d 28 d4 dd bc bc 88 6c bd
       0.17157747 0.07752575 -0.027078703 -0.057747588

arr_3 f4 [10]
000000 00 00 00 00 00 00 00 00 00 00 00 00 00 00 00 00
       0.0 0.0 0.0 0.0
000010 00 00 00 00 00 00 00 00 00 00 00 00 00 00 00 00
       0.0 0.0 0.0 0.0
000020 00 00 00 00 00 00 00 00
       0.0 0.0
