ep2-cnn/results-multiclass-brute/final_weights.npz (npz, 902094 bytes, 8 tensors)

arr_0 f4 [3, 3, 1, 32]
000000 cd 44 2a 3e 72 bd 53 3e fc 59 57 3e 15 77 96 3e
       0.16627808 0.20677736 0.2103042 0.29387727
000010 d4 a4 f3 3d 97 fe 00 be a1 15 a9 be ff bb 0e be
       0.11896673 -0.12597118 -0.33024314 -0.13938902
000020 48 16 d1 3e 52 9e 86 be b8 d0 2c 3e 77 72 db be
       0.40837312 -0.26292664 0.16876495 -0.42860767
000030 2f 3a 6b 3e 48 a3 6f 3e d1 75 45 3e f1 94 61 3e
       0.22971414 0.2340213 0.19283225 0.22029473
000040 c9 c8 07 3e ee d8 da 3d e3 c4 30 3e e8 c5 23 bd
       0.13260187 0.10685907 0.17262606 -0.03998366
000050 f2 d2 b5 bc ce 74 0d be 77 e4 53 be 57 a0 86 bc
       -0.022195313 -0.13814089 -0.20692621 -0.016433878
000060 06 6b cd bd e7 7e 74 3e d0 43 07 3e c7 a0 5e 3d
       -0.10030179 0.23876534 0.13209462 0.054352548
000070 44 1f 26 be b4 52 39 3e 2c 21 05 3e 91 a8 a2 be
       -0.16222864 0.18097955 0.13000935 -0.3176923
000080 a9 e5 b6 3d ac 52 df 3c 45 e0 35 3e ab 46 e8 bb
       0.08930523 0.0272611 0.17761333 -0.0070885024
000090 3e ef fa 3d 32 03 b6 be 91 ce 45 3e 78 57 8e 3c
       0.12252663 -0.35549313 0.1931708 0.017375693
0000a0 ec 0d 87 3e db d3 c0 3c 4c d1 62 3e a3 b0 b9 bd
       0.2637781 0.02353852 0.22150153 -0.09066894
0000b0 ba 43 26 3e d7 5c 8e 3e a5 8c fe 3d 1b f4 5b 3c
       0.16236773 0.27805206 0.124291696 0.0134248985
0000c0 6b f9 fa 3a 13 ef 1f 3e 9d 76 10 3e 9a c9 65 3d
       0.0019147819 0.15618543 0.14107747 0.056100465
0000d0 bd 11 4f 3e df 6c fe bd b2 49 5a be 7c a5 15 3e
       0.2022161 -0.12423109 -0.21317175 0.14613909
0000e0 0f 34 2e 3e b9 42 7b 3d bd 1f a8 3d 0e 25 e2 3d
       0.17012046 0.06134293 0.082091786 0.11042224
0000f0 80 a4 37 be 70 71 63 3e f2 cb e2 3d b9 50 a9 be
       -0.17933846 0.22211242 0.11074056 -0.330694
000100 0a 57 e8 3d 26 dc 9d 3c c0 56 88 3e 11 e1 7b be
       0.113447264 0.019270014 0.26628685 -0.24597575
000110 67 ad 0d 3e 35 e3 99 be 38 85 02 3e bc 5a 50 3e
       0.13835679 -0.30056158 0.12746131 0.20347112
000120 0f 36 87 bd 5d 20 28 3e d3 8b f7 bd 37 cc c8 3d
       -0.06602108 0.16418596 -0.12087216 0.09804576
000130 bc 4a 86 3e 01 45 99 3e 7b 98 f2 3d 18 a4 86 3d
       0.26228893 0.29935458 0.118454896 0.06574267
000140 f5 c9 39 3e b8 95 1b 3e ba 43 ab be 6b c9 e5 3c
       0.18143447 0.15193832 -0.3345011 0.028050145
000150 c0 6e 88 3e 6e 8e 25 3e ab b9 dc bd 6c e7 5a bd
       0.26646996 0.16167614 -0.10777601 -0.053443357
000160 3c 1a af 3d 71 8b 4f bc 24 8c d9 bd cb 98 6f bd
       0.08549926 -0.012667523 -0.10622433 -0.058495324
000170 b1 24 1a be f9 d1 73 be f4 c8 2a be 47 dd 0d be
       -0.15053059 -0.23810567 -0.1667822 -0.13853942
000180 cb 20 be 3d 6a 2e 3d 3e 17 6e fc 3c 2d 5a d1 3d
       0.092835985 0.18474737 0.030814214 0.10222278
000190 5f 2a 0e be 58 7d 0b 3e 91 ac 52 be 22 9f 0f bd
       -0.13883351 0.13622034 -0.20573641 -0.03506387
0001a0 57 1f 59 3e b2 ea 95 b9 8c f1 9d bd 4b 85 10 be
       0.21203361 -0.00028594356 -0.07712087 -0.14113347
0001b0 68 fb b7 bc 5b b2 00 3c c3 71 4a 3e 84 ad d9 bd
       -0.022458747 0.007855023 0.19769959 -0.106287986
0001c0 fb ee 4f bd cd dc 07 3d dd 03 2a bc 34 5e 45 3e
       -0.05076502 0.033169556 -0.010376898 0.19274217
0001d0 94 07 2d 3d 55 30 61 bd d9 86 2a bd 6b 13 59 3e
       0.042243555 -0.054977734 -0.041632507 0.21198814
0001e0 05 8b 96 3d 7a 2e cb 3b ce 45 4f 3d fd 9d ad 3d
       0.073507346 0.006200609 0.05060368 0.084773995
0001f0 e2 68 88 3e 4c 6f 7a bd f6 bf 22 3e 6c 73 94 3d
       0.2664252 -0.061141297 0.1589354 0.072485775
000200 d7 bc 11 3c fe c4 77 3e 38 be 39 3e 95 6d 2d 3d
       0.008895121 0.2419624 0.18138969 0.042340834
000210 fe bc 20 3d b5 a3 03 bd 69 ad ef 3d 33 ea cf 3d
       0.039242737 -0.032138545 0.11702997 0.10152092
000220 30 13 88 b7 0c 1c 99 3e a5 88 14 3e fe 5f 9d 3e
       -1.6221398e-05 0.2990421 0.14505251 0.307373
000230 58 b0 04 3e e4 37 ff 3d 4f 24 1c 3d d6 89 2a 3e
       0.12957895 0.12461832 0.038120564 0.16654143
000240 3e 5a 3e bd 22 7c 24 3e 43 cd d9 3d 18 4f 8d 3e
       -0.04647278 0.16062978 0.10634854 0.27599406
000250 dc ff 40 3b b3 e5 5a 3e 69 2a 28 3e 2c 61 6a bd
       0.002944938 0.21376686 0.16422428 -0.057221577
000260 a2 a3 bb 3d 27 30 65 3e c4 39 d6 3d 3b da 8c 3d
       0.0916207 0.2238165 0.10460237 0.06877562
000270 75 91 20 bd c5 e6 8b 3e 31 bc d6 3d 58 47 55 3e
       -0.03920122 0.273245 0.104851134 0.20827997
000280 ce cc c6 3d c3 ea 42 bd de b9 a8 3d b6 a2 96 be
       0.09707032 -0.047587167 0.08238576 -0.29421014
000290 f3 e8 77 3c bc d5 69 3d 94 f4 a8 3d 51 a0 55 3e
       0.015131223 0.0570886 0.082497746 0.20861937
0002a0 7c 7a d8 be 0b 8f 4e bd cb 10 00 3e 5c 25 3c 3e
       -0.42280948 -0.050429385 0.12506406 0.18373626
0002b0 a7 58 14 3c d7 dc 19 be 57 f7 7f 3d ed a5 7c 3e
       0.0090543395 -0.1502565 0.06249174 0.2467267
0002c0 c2 af 58 3e 00 a8 8a bd 48 cb 85 be dd 16 0d bc
       0.21160796 -0.06770325 -0.26131654 -0.008611408
0002d0 3b ef a2 3e 3c dc 32 3e 2a 97 19 3e 00 34 a3 3b
       0.31823143 0.17466825 0.14999071 0.004980564
0002e0 92 84 dd bc 8a 77 2e 3e db d6 18 be 8f 4b df bd
       -0.027040754 0.17037788 -0.14925711 -0.109030835
0002f0 9a 06 38 be 02 85 f7 bd be 08 a3 be c3 6f 54 3e
       -0.17971268 -0.12085916 -0.31842607 0.20745759
000300 e9 ea b6 3d 22 57 59 3e 87 7b af be cb 3e 91 3e
       0.08931524 0.21224645 -0.3427393 0.2836822
000310 60 78 e2 bd a0 80 62 3e 6c 2c e8 bc 29 02 ca 3c
       -0.11058116 0.22119379 -0.028341495 0.024659233
000320 61 4b d9 be 63 d2 54 3e 75 bc f2 3d 8f 27 4c 3e
       -0.42440322 0.20783381 0.118523516 0.19936965
000330 fe 08 5c be 5f 21 54 3d a7 33 08 be 47 d5 f9 3b
       -0.21487805 0.051789638 -0.13300954 0.0076243016
000340 f6 a4 bb 3d 2b d5 41 3e 71 d2 f7 3d a2 a1 0f 3e
       0.09162323 0.18928973 0.121006854 0.14026502
000350 ad fe ed be 8d 4c a9 3d 90 83 69 3e 9e 22 1b 3e
       -0.46483365 0.08266554 0.22804093 0.15149924
000360 e7 00 af 3d 1d 55 f8 bd 93 6f 5b 3e 7c ca 72 3e
       0.08545094 -0.12125609 0.21429281 0.23710054
000370 ad 93 0f 3e 61 7f 53 bd 63 70 91 3e a6 dc 3d 3e
       0.14021178 -0.05163515 0.28406057 0.18541202
000380 af a4 97 bc f8 0b 80 bc 00 5b d3 be b4 b5 80 3d
       -0.018511144 -0.015630707 -0.41280365 0.06284657
000390 06 73 c6 bd 37 b7 a2 3e 40 76 e3 3a 71 85 f4 3d
       -0.09689908 0.31780407 0.0017353967 0.119395144
0003a0 bb 47 22 bf fb 9d f7 3c 1d d0 1c 3e a4 6c c5 3e
       -0.633907 0.030226698 0.15313764 0.3855945
0003b0 ee 4e a9 be 51 4b b0 be f5 d9 82 3d 2c 74 08 be
       -0.3306803 -0.34432462 0.06389228 -0.13325566
0003c0 dc 37 59 3e f9 4a 35 3e 75 d6 71 3e c3 c2 b5 3d
       0.21212715 0.17704381 0.23616965 0.088750385
0003d0 db d2 a8 be b1 13 9f 3d 63 8d a7 bb d2 9e 96 bd
       -0.3297337 0.07767428 -0.00511329 -0.07354511
0003e0 c4 4f cd 3d 2c 80 6e 3e b7 ef eb bd 77 66 08 3e
       0.1002498 0.23291081 -0.11520331 0.13320337
0003f0 6f ff 21 3e 4b a3 d3 3d c3 2e f4 bb 95 66 d4 3d
       0.15820096 0.1033388 -0.0074518635 0.103711285

arr_1 f4 [32]
000000 f6 9b 1f bb 6b d9 08 bc 43 d7 c3 3c 22 54 ae 3d
       -0.0024354435 -0.008352618 0.023906356 0.08512141
000010 cb 21 ad bb a8 0a a4 3c 5e ae 44 ba 63 d6 1b bb
       -0.0052835695 0.020024613 -0.00075027894 -0.0023778907
000020 ca f5 0a 3e 19 0e aa bc 91 84 9d ba 2f 83 2b bb
       0.13570324 -0.020758675 -0.0012017657 -0.002617072
000030 47 ed ce 3c 1c fc 0a bb 18 c1 b7 ba 4a 3b 42 bc
       0.025259627 -0.0021207398 -0.0014019338 -0.011854956
000040 e4 53 cf bb f3 6c 49 bc 1c b6 cf bb ce 12 23 bb
       -0.006327139 -0.012294042 -0.006338848 -0.0024883035
000050 6e 7f 03 ba 99 e9 a9 bb d3 68 39 3b 21 07 2a bb
       -0.0005016242 -0.0051853177 0.002829124 -0.002594419
000060 b6 37 ef ba 16 fe ef bb 5b cd f9 ba 03 17 80 bb
       -0.0018250856 -0.0073239906 -0.0019058393 -0.003908993
000070 c1 03 46 3c e2 70 86 bc 22 5a 53 3b 4e ff b8 ba
       0.012085856 -0.016411249 0.0032249768 -0.0014114173

arr_2 f4 [3, 3, 32, 64]
000000 ae 07 5c bd 49 71 98 3d e8 3c 6c 3d 02 96 2a bd
       -0.05371826 0.074434824 0.057675272 -0.041646965
000010 49 d3 86 bc 51 05 0a 3d a3 27 bf bc 06 82 ac bd
       -0.01645817 0.033696476 -0.02333433 -0.084232375
000020 00 b6 da bd c3 a9 78 3b 70 87 9a 3d 10 45 3b bd
       -0.10679245 0.0037942983 0.07545364 -0.04572016
000030 1f 12 43 bd f0 4d ac bd 23 ab 61 bc c3 1e dd bc
       -0.047624703 -0.08413303 -0.013773712 -0.026992207
000040 5d 73 ef bd 28 f9 8e bb c4 ac 2f bd 77 d8 bd bc
       -0.11691926 -0.004363198 -0.04288937 -0.023174508
000050 5a 16 b7 bd 32 ea 81 bc 4f 28 83 bd 43 3c b8 3c
       -0.0893981 -0.015858743 -0.06404173 0.022489673
000060 33 5f 02 3e 86 c1 fc 3c aa 26 fd 3c 7d 20 5f 3d
       0.12731628 0.030853998 0.030902226 0.054474343
000070 87 2a 1c bc a4 e6 87 bd 6b ad 0b bb ca 42 7d bd
       -0.009531624 -0.06635788 -0.0021313082 -0.061831273
000080 0a 85 89 bd 25 a9 d7 bd 16 d8 9f bd 6c 2f 8b 3d
       -0.06714828 -0.10530309 -0.07804887 0.067961544
000090 55 12 42 3d ce dd b7 3d 68 1c 7d bd 82 86 1b 3d
       0.047380764 0.08977853 -0.06179467 0.037970074
0000a0 1b ca a7 bd ed a2 57 bd aa c0 a9 bb 91 d7 80 bd
       -0.081928454 -0.052645613 -0.005180438 -0.06291116
0000b0 9b 8c 56 bd b0 bd b0 3c 13 8c 87 3b 43 b5 77 bd
       -0.052380186 0.021574825 0.004136571 -0.0604756
0000c0 4b 74 81 3c 31 ce a6 3c 86 f8 9e 3d 68 6a 0f 3d
       0.015802523 0.020361992 0.07762246 0.035013586
0000d0 01 8d f4 3d ed 27 90 bb 3d 53 b6 3d 16 9f 03 3e
       0.11940957 -0.004399291 0.08902595 0.12853655
0000e0 f9 6b 2e 3d f6 06 6a 3d 39 cf 9d bb 4b 5d b7 3d
       0.04258344 0.057135545 -0.0048159626 0.08953341
0000f0 7b 37 6d b9 5e 2f 58 3d 9a f8 bb bd 4f 9a dc bc
       -0.0002262275 0.052779548 -0.09178276 -0.026929049
000100 31 aa 10 be 11 a5 d5 b9 65 67 81 3a 6a 85 8f ba
       -0.14127423 -0.0004074951 0.0009872733 -0.0010949795
000110 74 43 9c 3b ce 38 18 3b cd 0a 6b bd b4 49 07 3d
       0.004768783 0.0023227218 -0.057383347 0.033029273
000120 4a 69 4e 3d e3 05 7b 3d f4 40 53 bd c8 79 67 bd
       0.05039338 0.06128491 -0.051575616 -0.056512624
000130 b2 1c 2c bd 17 e8 c2 bc 43 4c 1c be 6d 1a 05 3d
       -0.042019553 -0.02379231 -0.15263467 0.032495905
000140 76 42 e3 bd 6d d0 b4 3d bb 50 67 bd d1 72 ce 3d
       -0.11096661 0.088288166 -0.056473475 0.10080493
000150 bd 33 88 bd 2b 23 14 3c b0 52 fa 3d a9 38 5f 3c
       -0.06650493 0.009041588 0.12222803 0.013624349
000160 b0 08 15 3e 0c cf a2 3b 8f 93 6f 3c 42 2a 19 bd
       0.14554095 0.0049685296 0.014622583 -0.037393816
000170 5c 4d 9a bd 75 22 58 3c aa a1 f5 3d 3d ef a1 bd
       -0.075342864 0.013191809 0.119937256 -0.07906959
000180 b2 f8 0d 3c 5b b6 a4 3c 1e 25 71 bd a7 93 0e bd
       0.008665251 0.020106485 -0.05887329 -0.03480878
000190 5f 4d 2f 3d e8 5a 25 3d 65 8b a9 3d 63 1d ea bc
       0.042798396 0.040369898 0.082785405 -0.028578466
0001a0 41 63 92 be 25 46 38 bd ee 81 fd b9 0d a9 6c bd
       -0.2859135 -0.04498877 -0.00048352726 -0.057778407
0001b0 37 77 a8 3d cb 5c d4 bb b3 c7 9c 3d 9b 6c e4 ba
       0.082258634 -0.0064807883 0.07655277 -0.0017427386
0001c0 3e da b5 bd c1 ce 8d 3d 82 06 67 bb 83 8c 92 bc
       -0.08879517 0.06924201 -0.0035251682 -0.017889267
0001d0 91 66 06 3d 8e 9d 1a 3d 6d c1 aa bc a3 bb 64 bd
       0.03281266 0.037747912 -0.020844186 -0.055843007
0001e0 37 34 84 bd bf af bf bd 31 1f 8b 3b a5 c0 57 bb
       -0.06455272 -0.09359693 0.0042456617 -0.0032921222
0001f0 a0 04 3b 3d 88 dc 49 bd fb ed 32 bd 70 be d2 bb
       0.045658708 -0.04928258 -0.043683987 -0.0064313933
000200 dc e7 d6 3d 3d 4c e2 bd 06 f8 87 bd 33 a2 1b 3e
       0.104934424 -0.110496975 -0.066391036 0.15198593
000210 10 ef 01 be 46 47 96 3c ce ca 9f 3e 3e f3 51 be
       -0.12688851 0.018344533 0.31209415 -0.20502946
000220 54 48 52 3e 60 3b e0 bc f1 9f a5 3d 76 97 b9 bd
       0.20535403 -0.027372062 0.08087147 -0.09062092
000230 70 47 0b 3d 03 71 42 be 9d a1 08 3e 4c f6 6d be
       0.034003675 -0.18988423 0.133429 -0.23238486
000240 5f c3 c3 3d ad 30 79 be 31 08 e2 3d 53 56 90 3b
       0.095587485 -0.24334975 0.11036719 0.004404822
000250 c6 b2 86 bd 55 30 a0 3d 08 6f 55 3c e0 71 26 be
       -0.06577067 0.078217186 0.01302696 -0.16254377
000260 d0 c7 0e be 26 11 24 be 63 a0 a2 3c 13 37 66 3d
       -0.1394341 -0.16022167 0.019851869 0.056204867
000270 1f b0 3a bd c7 cd 20 3e 02 a2 02 be d4 b9 da bc
       -0.04557812 0.15703498 -0.12757114 -0.026699938
000280 cc ad 97 3d 67 9d 56 be 39 b9 6e be 13 e6 80 bd
       0.07406196 -0.20958482 -0.23312844 -0.06293883
000290 53 66 99 3d f0 8a 30 bd 47 cf 83 bc 41 56 64 3d
       0.0749022 -0.04310125 -0.016090048 0.05574632
0002a0 de 8d 35 bd 85 34 7b bd 7f 3a 8c 3d 25 cb a9 bd
       -0.04432475 -0.061329383 0.06847095 -0.082907
0002b0 aa 67 2f be f7 ae af 3d 81 7f 55 3d 10 af 23 be
       -0.17129388 0.08578294 0.05212355 -0.1598475
0002c0 a1 73 07 bf da cf 89 be ce 60 06 3d a7 68 0f be
       -0.5291081 -0.2691639 0.032807164 -0.14004765
0002d0 48 08 46 3e c4 aa 74 3e 6f 9c 24 be e1 ba 78 be
       0.19339097 0.23893267 -0.160753 -0.24290039
0002e0 40 15 a1 3d 19 a3 b0 be 5c 78 80 3d c9 fe ad be
       0.07865381 -0.34499434 0.06272957 -0.33983448
0002f0 6e cf 35 be 17 f2 6e 3e 3e a7 86 bd 6c 89 84 bd
       -0.1775491 0.23334537 -0.06574868 -0.06471524
000300 64 a3 48 be fb 5d 68 3d 1a 2b 6a bd 6c c5 b5 bd
       -0.19593579 0.05673025 -0.05717001 -0.08875546
000310 cb 91 bd 3d d4 4f d9 3d 48 a6 97 3d 8b 05 29 bc
       0.092563234 0.10610929 0.074047625 -0.010316263
000320 89 70 04 be 88 63 bf bd 90 ad 12 3e 21 ad a2 3d
       -0.12933554 -0.09345156 0.14324021 0.07943178
000330 a3 e7 fc 3c 38 39 ab 3d 0f d6 a9 bd 67 f7 0e be
       0.030872172 0.08360523 -0.082927816 -0.13961564
000340 83 76 8d bd bd 4b 93 3d 65 9e 2c bc 3a 9e bd bc
       -0.0690737 0.0719218 -0.010535811 -0.023146737
000350 da 33 a2 bd 3f fb 16 3d e7 01 33 bc 44 2e e8 3c
       -0.07920046 0.0368607 -0.0109257465 0.028342374
000360 47 5e 09 3e 68 8a b6 3d ca df ab 3d 21 25 7e bd
       0.1341487 0.08913118 0.08392294 -0.062047128
000370 92 95 40 bd dd f5 05 3d 4f 51 84 3e 58 93 88 3d
       -0.04701764 0.032705177 0.25843284 0.066687286
000380 01 4d e4 bd 73 48 0e bd 86 4a 6b bd 24 76 6b bd
       -0.111475 -0.03473706 -0.057444118 -0.057485715
000390 97 f1 6c bd 6c 30 04 be 08 be ec bc 37 53 00 be
       -0.057847586 -0.12909096 -0.028899208 -0.12531744
0003a0 39 43 78 be fd a4 0a bc 10 0d c9 bc 8f e8 9d 3d
       -0.24244393 -0.008462188 -0.024542361 0.07710373
0003b0 df 17 42 bc eb 14 f7 bd b0 20 4c be d1 be b5 3c
       -0.011846512 -0.12064537 -0.19934344 0.022185715
0003c0 0c fd 36 3e c1 65 4f bd 7c f5 3b 3d 94 11 5f bb
       0.17869967 -0.05063415 0.04588841 -0.0034037577
0003d0 a9 9e 23 3e 34 c4 f4 3d f3 37 dd bc 1f 6a dc bd
       0.15978493 0.11951485 -0.027004218 -0.107624285
0003e0 61 7a 86 3d b7 8a ca be 04 2f 9a 3b 8e eb a1 bc
       0.06566311 -0.39558956 0.0047053117 -0.019765642
0003f0 04 16 90 3d a0 db e0 bd fc af 98 bd f0 48 ea bc
       0.07035449 -0.1097939 -0.07455441 -0.028599232

arr_3 f4 [64]
000000 76 a9 0c 3b fb 38 93 3c ee de 6d 3a af 1f 6e bc
       0.0021463311 0.017971506 0.00090740516 -0.014533921
000010 02 56 f4 b8 7c 87 ce bb 8b d0 c3 bb 74 91 7d 3c
       -0.00011650847 -0.006302772 -0.005975788 0.015476573
000020 3f 5a 4f bd 9a 6b 47 3c 92 d9 aa bb 3f f5 2e bc
       -0.050623175 0.01217165 -0.0052139247 -0.010678588
000030 2b a0 76 bd e8 b5 27 3c d6 cf 38 3d 67 2c 35 bc
       -0.06021134 0.010236241 0.045120083 -0.01105795
000040 f5 dd 40 3b 13 00 f8 3b 8f 10 40 3c 6a 45 0e 3b
       0.0029429172 0.007568368 0.011722698 0.0021708854
000050 bf 66 d7 3c b2 8c 91 bb 75 bc 1a bd 8a cb e3 bb
       0.02629411 -0.004441821 -0.037777383 -0.006951754
000060 f6 fa 12 3d 94 25 26 bc 81 33 9b 3a fa cc 86 bc
       0.035883866 -0.010140795 0.0011840911 -0.016455162
000070 31 3f d4 3a 60 ab b5 bc 08 55 ee 3b 77 00 83 3b
       0.0016193149 -0.022176445 0.00727332 0.003997858
000080 e9 71 3d bc 48 8f ca bc a5 26 40 bd ae fe 80 bc
       -0.011562803 -0.024726525 -0.046911854 -0.01574644
000090 e6 48 88 bc da 80 97 bc 9f 42 87 bb 85 0b 71 bc
       -0.016636323 -0.018494058 -0.004127815 -0.014712219
0000a0 74 4a 83 3c 3a 0d 13 3b 6c e6 43 bc 78 65 c2 bc
       0.016026713 0.0022438304 -0.011956792 -0.023730025
0000b0 a3 96 e4 ba ee 7b cc bb 2a e2 5e bb 63 3b 8a 3c
       -0.0017439913 -0.0062403595 -0.0034009316 0.01687402
0000c0 9a 47 21 bc cb a2 21 bc 3e 56 d4 bb a1 c5 fe 38
       -0.009843731 -0.009865473 -0.0064800074 0.00012148475
0000d0 da 0b 10 3d 9d fc aa 3b c4 f3 5d ba c4 19 96 bc
       0.035167553 0.005218102 -0.0008466805 -0.018322833
0000e0 c5 6f 92 bb b7 71 c2 3a 21 50 39 3d ed 3a 15 bd
       -0.0044688904 0.0014834915 0.045242433 -0.03643315
0000f0 ee 78 36 bc bb 4c bc bc fd 36 24 bc c1 7d 1e bd
       -0.01113723 -0.022985807 -0.010022876 -0.038694147

arr_4 f4 [1600, 128]
000000 06 61 3f 3d 19 80 38 be 4d c7 33 3d 59 4c a1 3d
       0.046723388 -0.18017615 0.04389124 0.0787589
000010 11 3e 7b bd 71 8e 7a bd 04 8d 48 3e b7 a6 2d bd
       -0.061338488 -0.061171 0.19585043 -0.04239532
000020 32 85 69 bd 46 26 0e bd ae 0b 2e 3d 3c dd dc 3d
       -0.05701179 -0.03470447 0.042491607 0.107843846
000030 5d 2b 5b bd e0 87 37 3d 5a a4 57 bd e0 ad 0e 3d
       -0.05350815 0.044807315 -0.052646972 0.03483379
000040 fb a8 50 3c d8 7f b1 bc 5c da 3f bc b8 4d 3d bd
       0.012735601 -0.021667406 -0.011709776 -0.046216697
000050 6c e0 d6 bc 76 1b a5 bd 4c e2 14 bd 60 3e 15 3c
       -0.02623006 -0.080618784 -0.036348626 0.00910911
000060 b6 6c 42 bd 26 c4 37 bd c5 1b bd bd c0 72 21 bd
       -0.047466956 -0.044864796 -0.09233812 -0.039416075
000070 b8 dc 11 3d 41 f0 cd bc 80 51 44 bd bd 62 ed 3c
       0.035610884 -0.025138976 -0.047929287 0.028977746
000080 53 25 aa bd ad ad 2d 3c b0 31 5e bd 2f f6 47 be
       -0.083079 0.01060049 -0.054246604 -0.19527505
000090 e1 01 12 bb 81 1b 52 3e b6 65 6e bd 10 a5 03 3d
       -0.0022278952 0.20518304 -0.058202468 0.032139838
0000a0 85 1b d8 3c c1 98 07 3d e4 8a 9a bc 31 71 02 3c
       0.02638031 0.03310466 -0.018865056 0.007961557
0000b0 22 9b f1 3c 3e 9f 37 3e 96 99 ff 3b 47 b5 e9 3d
       0.029492918 0.1793184 0.0078002913 0.11411529
0000c0 b7 79 bd 3d e7 dc 21 bd 4b 8a 96 3d b0 51 af 3b
       0.09251731 -0.03951731 0.07350596 0.005350314
0000d0 be 55 34 bd 2a 75 68 3e 38 82 a9 3d a2 70 c9 3c
       -0.044027083 0.22700945 0.082767904 0.02458984
0000e0 5d 87 1a bb bc 72 e9 3c 58 32 fd 3d a0 10 87 bc
       -0.0023579218 0.028497092 0.12363118 -0.01648742
0000f0 e7 42 60 ba 7a 94 2d bd 43 15 e1 3c f8 82 08 bd
       -0.0008554891 -0.042377926 0.027475959 -0.033328027
000100 85 4c 9d 3c 96 60 30 3c 24 85 6d bd f5 3a 7d bd
       0.019201526 0.010765215 -0.0579883 -0.061823804
000110 8a 29 08 bc 00 38 0c 3c 29 58 84 3e 3c 43 5e bd
       -0.008310685 0.008558273 0.2584851 -0.05426334
000120 22 5d fe 3c 72 73 e0 3c e7 b4 6a bd 7a d2 a7 3d
       0.031050269 0.027398799 -0.05730143 0.08194442
000130 1b 9b aa bc ab 27 9a 3d 2d 19 aa bc 88 f8 15 be
       -0.020825913 0.07527097 -0.020763958 -0.14645588
000140 0f 4f b4 3c c8 85 89 3c 2b fd 7c 3d e6 88 e8 bc
       0.022010354 0.016787425 0.061764877 -0.02838559
000150 c0 7d 5f bb 77 62 1e bd ab c7 4b 3d 22 02 f7 bb
       -0.0034102052 -0.038668122 0.049750965 -0.007538096
000160 9e 67 4f bd 6d 8b 28 bd ad 15 8b bd a8 2b c1 3b
       -0.050635926 -0.04114859 -0.06791244 0.005895097
000170 23 68 bd bb 83 35 b7 bc b3 66 e6 3c a4 65 6d 3e
       -0.0057802363 -0.022364384 0.028125143 0.23183304
000180 62 dd 14 3d 6f a0 1e 3d b9 d2 12 bd cc 71 b1 3d
       0.03634394 0.03872722 -0.035845492 0.08664283
000190 ec d8 46 3d 24 88 b1 bd 0e db 86 bd 32 45 b3 3d
       0.048546717 -0.08668545 -0.0658475 0.08753432
0001a0 f9 36 03 be e6 3a b8 bc de 3e e0 bd 94 db 84 3d
       -0.12813939 -0.022489022 -0.10949491 0.06487194
0001b0 d0 33 66 bd 68 07 6f bd 0a 52 97 bc c5 3e 4b bd
       -0.056201756 -0.058356673 -0.018471736 -0.04962041
0001c0 82 4b 56 bd f2 e4 26 bd a7 05 a2 3c 75 84 5b bd
       -0.052318104 -0.040745683 0.019778086 -0.053593118
0001d0 96 e9 e6 3c 21 ea b1 3d 6e 0e 76 3b 0c 18 a2 bd
       0.028187554 0.08687235 0.0037545222 -0.07914743
0001e0 8a e2 ec bc 96 28 be 3b eb c3 e9 bc 16 24 a5 bc
       -0.028916616 0.005803178 -0.028535804 -0.020158809
0001f0 b1 c6 19 3e da 02 7c 3d d7 60 40 bc 14 61 b3 3b
       0.15017201 0.061526157 -0.011741838 0.005474219
000200 bc 1e 21 3d 14 67 4d bd 83 6a b6 bc fb a9 4f bd
       0.03933595 -0.05014713 -0.022267586 -0.050699215
000210 fd 22 42 3d 40 6f e2 bc a9 5b eb bc 50 15 64 3b
       0.04739665 -0.027640939 -0.02873023 0.0034802742
000220 b6 c5 f1 3c a5 3d 83 3b f8 58 5e 3d 3c c5 30 bd
       0.029513221 0.0040051513 0.054284066 -0.043156847
000230 fa 34 a2 bc b0 81 1b bd c9 f8 cc bc f4 10 55 3d
       -0.019800652 -0.037965477 -0.025020974 0.05201812
000240 e9 4c 66 bd aa 0b e6 3d c6 9a 9b bc 13 fd 75 bd
       -0.05622569 0.112326935 -0.0189947 -0.060055804
000250 26 1f 60 3c 2d 91 31 3c 02 1a cb bd a2 12 32 bd
       0.013679301 0.010837835 -0.0991707 -0.0434748
000260 c8 7f 11 bd 24 08 dc bc 6a f6 d6 bb 6a 9d 8f 3c
       -0.035522252 -0.02685935 -0.0065601366 0.017531116
000270 3a 36 27 3c 24 2a 65 bd e4 ba 56 3c c8 78 44 bd
       0.0102058 -0.05594839 0.013106082 -0.04796675
000280 12 1a f0 3c 48 a4 96 3b c8 29 b6 bd 0e 25 f9 3d
       0.029309306 0.0045972206 -0.08894688 0.12165271
000290 c3 6e b5 3c d3 14 2e 3d 8e 1c d3 3d ac 5f 07 3d
       0.022147542 0.04250033 0.10308181 0.033050224
0002a0 14 6f 46 bd 5b 0d d7 3c a0 55 53 3d 00 06 29 3d
       -0.048445776 0.026251486 0.05159533 0.041265488
0002b0 07 79 b4 3d 86 64 8b 3d 88 bd 04 bd 21 f1 41 3d
       0.08812147 0.06806283 -0.032407314 0.0473491
0002c0 5a e3 71 bd 79 2e a6 bd 42 50 7a bd 65 58 1b 3d
       -0.05905471 -0.08114333 -0.061111696 0.037926096
0002d0 63 97 ea bc 0d 6a 61 3d 3f 06 e7 3d d7 ff 63 bd
       -0.02863664 0.05503278 0.11280488 -0.05566391
0002e0 b1 39 7f 3c 01 8b 4e bc 27 fc 6a 3c 9c 7d 23 bd
       0.01557772 -0.012606383 0.014342344 -0.039914712
0002f0 da b5 19 bd 1d c6 b4 3d c9 bc c4 3c 0d 16 6d bd
       -0.037526943 0.088268496 0.024015801 -0.057882357
000300 ae 1f 0b 3d 48 9a c6 3c 22 32 36 3d 26 79 51 3c
       0.03396576 0.024243489 0.044481404 0.012785232
000310 fc d0 92 3c d8 0f 35 3c 30 20 7b bd 5b e0 60 bc
       0.017921917 0.011051141 -0.061309993 -0.0137253655
000320 bf d1 63 3d 83 bc 87 3c 2a 50 11 bd bf 73 02 bd
       0.05561995 0.016569382 -0.03547684 -0.031848665
000330 1b 82 ea bd 4a 27 45 bc 6c e9 d2 3d 9b a7 8b 3d
       -0.11450597 -0.012033293 0.10298428 0.068190776
000340 35 c4 a7 39 56 eb b8 bc 64 7b 30 bd 2f 86 98 3c
       0.00031998908 -0.022573154 -0.043086424 0.018618671
000350 ad 35 ef 3b f8 6f 3d 3c 00 a7 1a 3d d9 66 91 3d
       0.0073001 0.01156234 0.03775692 0.07099695
000360 4d 09 a3 3c ed 66 32 bd de 84 28 be 78 39 8b 3b
       0.019901896 -0.04355519 -0.16456935 0.004248794
000370 a3 2d b4 bc d7 23 05 3d b6 63 4a bd be 36 bd bc
       -0.021994418 0.032504883 -0.049411498 -0.023097392
000380 e0 a3 06 bd dd 10 a7 3d 55 78 a6 bc 97 b9 88 3c
       -0.032871127 0.08157513 -0.02032105 0.016690059
000390 45 4f df 3c 0d ac 76 3d bf 4a ed bb ee e4 25 3a
       0.027259478 0.060222674 -0.0072415764 0.00063283637
0003a0 b3 a5 0d bd 12 74 42 3d 89 7b e1 3d b8 2f f0 3d
       -0.03458185 0.047473975 0.110098906 0.11727852
0003b0 23 b3 3d 3b 34 59 88 bd 3f 28 38 bd a3 d9 51 bd
       0.0028945885 -0.06657639 -0.044960257 -0.051232945
0003c0 9a 0c 45 3d 77 8d 02 bd 23 a2 de bc 7e 49 1b bd
       0.04810772 -0.031873193 -0.027176922 -0.037911884
0003d0 ac 7c 83 3d a2 50 a1 bb de e5 df 3c 56 66 30 bd
       0.06420264 -0.0049229423 0.027331289 -0.043066345
0003e0 eb 57 33 bd 89 34 46 3d 25 34 8c 3c 99 12 fe 3c
       -0.043785017 0.048389945 0.017114708 0.031014727
0003f0 12 6f 54 3d 0b 2f 31 bc 01 52 e4 bd 19 0b 1f bd
       0.051863737 -0.010814439 -0.111484535 -0.038828943

arr_5 f4 [128]
000000 f1 9f d0 bb 72 49 2a bc 7d b3 00 bc 20 2b 49 3c
       -0.0063667228 -0.010393487 -0.007855293 0.012278348
000010 e9 08 e1 bb de 97 ca bb a4 fb 68 bc 5c 3f d0 bb
       -0.0068675173 -0.0061826548 -0.014220152 -0.0063552093
000020 f0 a8 c5 bb 89 4b 0b bc bc 51 c0 bb a0 ee ce 3b
       -0.006032102 -0.008501896 -0.0058691185 0.0063150674
000030 87 0c b6 bb f2 a5 0c bc f4 02 33 3d f7 b9 e8 bb
       -0.0055556926 -0.008584486 0.04370399 -0.007102247
000040 cd 17 e3 bb 3d d6 e6 3b 17 00 cc bb d4 41 dd 3c
       -0.0069303275 0.007044582 -0.0062255966 0.027008928
000050 24 09 20 bc c7 7b c4 3c 43 0d 8d 3c 6c 5f ce bb
       -0.009767804 0.023984803 0.017218238 -0.0062979963
000060 d3 f4 b2 bb c6 5e c9 3c ee 5c a2 3c 1b 5f 81 3a
       -0.005461314 0.024581324 0.019819703 0.0009870263
000070 84 05 ef bb 35 56 27 bb 72 c1 09 bc 48 1c d4 bb
       -0.0072943587 -0.002553356 -0.008407937 -0.006473098
000080 30 2d 0f 3d f8 d1 12 3c e1 04 c6 bc 02 18 4b 3c
       0.034955204 0.008961193 -0.024172248 0.012395861
000090 dd 8c c7 bb c3 16 46 3c ba 6e fc 3c 0b 0d f6 bb
       -0.0060897903 0.012090388 0.030814517 -0.007508879
0000a0 96 82 f6 3b 2a a5 d3 bb 7a a9 e7 bb 19 f7 cc bb
       0.0075228913 -0.006458898 -0.0070697637 -0.0062550423
0000b0 13 7f 2d 3d 6e c5 63 3c 93 13 03 bc 06 6c 77 3d
       0.042357516 0.013902051 -0.008000272 0.060405754
0000c0 1f 81 26 ba 87 a4 15 3c d7 a5 8f 3c 6b 10 a3 3c
       -0.0006351638 0.009133465 0.017535133 0.01990529
0000d0 45 00 09 bc a5 b7 f3 b9 65 19 6c 3c 80 28 0c bc
       -0.008361881 -0.00046485398 0.014410351 -0.008554578
0000e0 78 73 c7 bb c1 23 dc bb bb 1c ab 3c 04 ae f6 bb
       -0.006086763 -0.0067181294 0.020887723 -0.0075280685
0000f0 f3 bd cd bb f2 ff fa bb bf 49 7e 3c 16 2d d3 bb
       -0.006278747 -0.0076599056 0.015520512 -0.0064445836
000100 dd 64 ca bb 6c c2 da bb 9e b2 df bb 0d 17 02 bc
       -0.0061765746 -0.006676009 -0.0068267127 -0.007940066
000110 cb 6f 07 bc ab c9 fd bb ed dc 93 3c 9c ad 10 bc
       -0.0082664 -0.007744988 0.018049682 -0.008830454
000120 8a 6e c8 bb 3a 3b 15 bc e5 12 c9 bb 92 c7 f4 ba
       -0.006116693 -0.009108359 -0.0061362856 -0.0018675199
000130 6a f8 be bb fd 71 e0 3b 59 b8 92 3c 14 4e c8 3c
       -0.005827953 0.006849526 0.01791017 0.024451293
000140 7f d3 d2 bb e3 d4 08 bc 2a eb 6c bc 8f 56 cc bb
       -0.0064339037 -0.008351537 -0.014460364 -0.0062359045
000150 e2 33 dd bb 58 ac 27 bd ef 0f df bb 01 ab f7 bb
       -0.0067505697 -0.040935844 -0.0068073194 -0.007558227
000160 f1 e5 ca bb 2a f8 cc bb fc 66 ae 3a 4c bf 8c bc
       -0.006191962 -0.0062551694 0.0013305838 -0.017181061
000170 bf 2d e7 bb bc e5 2b 3c 4c 70 23 bc 4f ae f2 bc
       -0.007055014 0.010491785 -0.009975504 -0.029624132
000180 6c 52 fc bb 3b 47 1b 3d 57 b7 2b bc 96 b5 74 3b
       -0.007700255 0.037909728 -0.010480723 0.003733968
000190 b9 1f a3 bb c4 f8 eb 3b bb e1 d5 3b fd 4f 9d 3b
       -0.004978147 0.007201286 0.0065271533 0.004800795
0001a0 72 17 ef 3c 7d 17 d5 bb 58 83 59 3c 19 87 bf 3c
       0.029185984 -0.006503044 0.013275944 0.02337985
0001b0 40 cd d0 bb a3 10 5b 3b 34 7e d7 bb 32 05 8d bb
       -0.006372124 0.0033426664 -0.006576324 -0.004303598
0001c0 f8 e8 be bb b8 ff ca bb 2a 7a 74 3c 5e 9d eb bb
       -0.005826112 -0.006195035 0.014921704 -0.0071903905
0001d0 34 54 b9 bc e7 48 bc 3c 0c 9d fa bb c6 8f af bb
       -0.022623159 0.022983981 -0.007648116 -0.0053577153
0001e0 1f 1b 25 3b f7 1f 14 bc 05 d6 e5 bb f6 3d 09 bc
       0.0025193167 -0.009040824 -0.0070140385 -0.008376589
0001f0 5e 08 b4 3b 77 b0 87 3c 97 7d 82 3b ff 90 cb bc
       0.0054941615 0.016563637 0.0039822566 -0.024849413

arr_6 f4 [128, 10]
000000 9f e1 45 3e 8b 77 4b be 6f f7 c7 bd ef 9c 94 bd
       0.19324349 -0.19869821 -0.09763991 -0.07256495
000010 4d ff 13 be a7 ed 12 be 77 64 c0 bd ea e8 d8 bd
       -0.14452858 -0.1434847 -0.09394162 -0.105913
000020 93 86 d3 bd 7d 73 4e 3d 04 75 10 3e a2 68 43 be
       -0.10328402 0.050403107 0.14107138 -0.19082883
000030 f2 1a 4b be 66 78 1b 3e 6c 7e 75 3d f3 9b a5 bd
       -0.19834498 0.15182647 0.05993502 -0.080863856
000040 16 b0 96 be 30 29 0b 3e 7d 38 6d 3e bd 98 38 be
       -0.29431218 0.1358993 0.2316608 -0.18027015
000050 f9 9b b8 3c 28 f9 b0 3d ee 67 8a bb f4 94 45 be
       0.022535311 0.08641273 -0.004223815 -0.19295102
000060 3e 16 f8 3d 7a b2 8a bd 0f 7f 09 3e 75 7a 23 3e
       0.12113617 -0.06772323 0.13427375 0.15964682
000070 91 bf d1 bd c7 f0 29 bc 82 ed 27 be 79 22 40 be
       -0.102416165 -0.010372347 -0.16399196 -0.1876315
000080 9d 1b 76 3d 6f 32 4b 3e 84 43 6b be 7e f5 cb 3c
       0.060084928 0.19843458 -0.22974974 0.024897333
000090 1f 63 d2 bd 7f 30 0f 3c eb 1e eb bb f1 95 42 be
       -0.10272812 0.00873959 -0.0071753166 -0.1900251
0000a0 76 15 8a bd 32 0a 06 3e ce 3e e9 bc 76 9c 03 3e
       -0.067423746 0.13089827 -0.02847233 0.12852654
0000b0 be af 84 3d e0 65 78 bd 98 48 01 be 03 8e 10 3e
       0.06478833 -0.06064403 -0.12625349 0.14116673
0000c0 26 51 45 3e 11 a6 b8 3d 79 71 eb bd d2 a0 ff 3d
       0.19269237 0.0901605 -0.114962526 0.12481846
0000d0 24 e9 17 be b1 ec 37 bd 41 c7 e9 3c f4 f1 fe 3d
       -0.1483503 -0.04490346 0.028537394 0.12448493
0000e0 2e 00 27 3d d8 92 94 bd 89 84 ca bd ca f2 f9 3d
       0.040771656 -0.07254571 -0.0988856 0.122045115
0000f0 eb ad 0a be bd 57 14 3d 86 f1 83 bd 48 82 f8 3d
       -0.13542907 0.036216486 -0.06442551 0.12134224
000100 3a 6f 6a be 02 58 47 be 10 a4 3c 3e 4e ea 5e be
       -0.22893992 -0.19467166 0.1842196 -0.21769068
000110 19 ae c9 3d 4d 6d 03 3e 98 51 33 bb fb aa 26 3d
       0.098476596 0.12834664 -0.0027361866 0.040690403
000120 59 8a 8d bd 8a c5 9b 3d 55 85 cf 3d 02 3b c4 bd
       -0.06911153 0.07606037 0.10132853 -0.09581567
000130 77 31 93 bd 7d 6e e2 3d 74 d3 21 3e 09 1b f0 bd
       -0.07187169 0.1105623 0.15803319 -0.117239065
000140 db 3b 01 3e 2c 14 11 3e 14 8d 56 be e6 21 80 3d
       0.1262049 0.14167851 -0.20952255 0.062564656
000150 cc 1e a4 3d 4a e5 46 be 75 4e f3 3d 13 fe 4e 3e
       0.080136865 -0.19423404 0.11880199 0.20214109
000160 4f d7 34 be 1f 7d 0f be ac fa 0e 3e 2f c9 1e 3e
       -0.17660259 -0.14012574 0.13962811 0.15506433
000170 ba 2c f8 bd 28 85 ee bd ca 57 27 bc ee 9f 11 3e
       -0.12117906 -0.11646491 -0.010213802 0.14221165
000180 34 fe f3 bd 31 c1 19 3e da 06 4e 3d 29 87 1c 3e
       -0.1191372 0.15015103 0.050299503 0.15285935
000190 22 87 c1 bd c7 30 80 be ef dd 42 3e 31 44 b4 be
       -0.09449603 -0.25037214 0.19029973 -0.35208276
0001a0 00 da 89 be 37 d8 bf be c8 b7 c4 3d 28 02 9b bd
       -0.26924133 -0.37469646 0.09605366 -0.07568771
0001b0 7a a8 dc 3d a9 86 97 be a1 74 93 be b6 29 7e 3e
       0.10774322 -0.29594925 -0.28799918 0.24820599
0001c0 c7 54 a9 be 3c af 32 3e fa 25 95 3d b0 5c 4d 3c
       -0.33072492 0.17449659 0.07282634 0.012534305
0001d0 af 31 9e 3d 8f a2 61 bd dc db 56 3d 41 3e 13 bd
       0.0772432 -0.05508667 0.052455768 -0.03594804
0001e0 16 34 b9 bd 1c ce fa 3d 06 66 e3 bd 9f 82 c0 bc
       -0.09043138 0.122463435 -0.11103444 -0.023499785
0001f0 2a db dc 3d 8a 71 1f bc 13 79 42 3e 33 43 63 bd
       0.1078399 -0.00973166 0.18991499 -0.055484008
000200 ea 20 99 bd e2 b3 32 3e 61 b6 49 3e 69 7a 4e be
       -0.07476981 0.17451432 0.19698478 -0.20163883
000210 f3 82 eb 3d a2 c9 4f 3e f6 7c fb bc 7c 76 0f bd
       0.11499586 0.2029176 -0.030699234 -0.035025105
000220 ea 7f 94 3d 9d 78 8d 3d 84 2a c4 bb 23 d8 62 3d
       0.0725096 0.06907771 -0.0059865136 0.055381905
000230 bc 22 66 be 4f 68 5e 3e 2a d5 c1 3d 78 cd 58 be
       -0.22474188 0.21719478 0.09464486 -0.2117213
000240 5c 01 90 be 5a 9e 79 3e b0 e8 ac bd 65 7b 8b bd
       -0.28126037 0.24376813 -0.08442819 -0.06810645
000250 a4 f3 91 be ae 95 40 3c cd 94 26 3e 9b a3 d0 3d
       -0.28506196 0.011754436 0.162677 0.10187455
000260 24 d8 33 3e 73 82 1d 3b 83 31 0a 3e 49 1d e7 bd
       0.1756292 0.0024034053 0.1349545 -0.112848826
000270 e4 47 93 bd 2c 4f 44 3d e6 d4 24 be 52 8a 92 3d
       -0.071914464 0.047927067 -0.1609684 0.07155289
000280 fc a2 40 3e cc 85 31 3e 6b 9b f5 3c 7b 43 83 3d
       0.18812174 0.17336196 0.029981336 0.06409355
000290 39 96 5a bd d7 1a 86 3c 45 b4 2d bd 0d b4 6c bc
       -0.05336592 0.01637022 -0.042408247 -0.014447224
0002a0 a3 fa 34 3e 70 fd 3a 3d 01 21 69 bd 64 6c 52 be
       0.17673735 0.045651853 -0.05691624 -0.2054916
0002b0 a7 ac 74 3e ea 8b 9f be 91 59 b3 3d 8b 7e b6 bd
       0.23893987 -0.31161433 0.08757318 -0.08910855
0002c0 10 0a 58 be 04 2d 41 be 94 1b 5d be b8 af 66 3e
       -0.21097589 -0.18864828 -0.21592551 0.22527969
0002d0 73 d5 5b bd 1c 1e 0f bc 4c de 8e bd c8 e3 e1 bc
       -0.053670358 -0.008735206 -0.069759935 -0.027574435
0002e0 43 56 d3 bd e4 ae dd 3d c1 98 d2 3d cb f0 36 3d
       -0.103191875 0.10824373 0.10283042 0.04466323
0002f0 91 b9 70 bd d3 ba d3 bd 9b 12 6d bd 2b 07 26 3e
       -0.05877072 -0.10338368 -0.05787907 0.16213672
000300 78 36 dd bd 72 6e ac be 18 e6 22 be 55 1d 5f 3e
       -0.10801405 -0.33678013 -0.15908086 0.21788533
000310 ce 15 c9 3c 64 7a 49 be 24 c6 c4 be ea de 16 be
       0.02454653 -0.19675595 -0.3843242 -0.14733472
000320 e9 92 0a be 01 6a f8 3d 17 f9 3a 3d 86 6e a0 3d
       -0.13532604 0.12129594 0.045647707 0.07833581
000330 69 f7 e0 bc 18 2f 9b 3d 54 fa 0e be ff af 17 be
       -0.027461724 0.07577342 -0.1396268 -0.14813231
000340 0e 64 05 bd cd 68 fd 3d c0 d9 2f be 73 9f bc 3c
       -0.032566123 0.12373505 -0.17172909 0.02302525
000350 75 67 a6 bc 77 52 ca bd 6d f8 93 3d 69 ff 24 3e
       -0.020313004 -0.0987901 0.07225118 0.16113056
000360 f8 de 33 be 0c 32 3a 3e d3 3f 1d be 96 26 54 be
       -0.17565525 0.18183154 -0.15356378 -0.20717844
000370 1b 74 a9 be 08 e8 38 3c 0a 3d dc 3d 00 56 0a be
       -0.33096394 0.011285789 0.1075383 -0.13509369
000380 33 e6 8c 3d 51 df 43 3e 9a 5d 96 be 5b b5 4e be
       0.068798445 0.19128157 -0.29368287 -0.20186369
000390 94 e5 4b 3d aa 14 16 bb 44 98 85 3b 14 a3 ed bd
       0.04977949 -0.00229005 0.0040769894 -0.1160337
0003a0 84 26 d4 3d 87 df 16 be b1 0b 6b 3d 4b 84 9e 3d
       0.10358909 -0.14733706 0.057384197 0.07740077
0003b0 9d 0c b1 bd 68 38 3f 3e 01 b8 10 be 0e ec 2b 3e
       -0.08644984 0.18673861 -0.14132692 0.16789266
0003c0 77 9d 37 bd 08 b8 d6 3d b5 e5 fa 3c d9 5f a6 3d
       -0.044827905 0.1048432 0.030627111 0.0812375
0003d0 72 e7 07 3e 9a b8 28 be 47 5d 83 bd 13 7e c5 3d
       0.13271883 -0.1647667 -0.064142756 0.096431874
0003e0 06 e1 a2 3d a8 ff 1d be b6 ff 86 3e c9 7f 91 3d
       0.07953076 -0.15429556 0.26366967 0.07104451
0003f0 b8 ca 83 3d 9c 76 2f bd 71 66 2c be ac 9c 2d be
       0.0643515 -0.042837724 -0.16835953 -0.16954297

arr_7 f4 [10]
000000 c1 2e b4 bb 0a 1f b3 3b de ef 31 bc f6 a9 5c bc
       -0.0054987376 0.0054663466 -0.010860411 -0.013468256
000010 1c b7 cd bc 21 9e bb bb de 28 f7 bc 97 d3 93 ba
       -0.025111727 -0.0057256375 -0.030170854 -0.0011278269
000020 44 1b 8e bc ce 64 97 bc
       -0.017346986 -0.018480685
