ep2-cnn/results-multiclass-brute/initial_weights.npz (npz, 902094 bytes, 8 tensors)

arr_0 f4 [3, 3, 1, 32]
00000000: 0ac1 f53d 6554 113e c002 1cbc 9fba 0c3e
00000010: a247 993d bc5d f7bc 0414 02be 0a88 a2bd
00000020: 10d1 a33d 0330 c0bd 945d cd3d f1a7 c6bd
00000030: ac00 383d f2c8 f53d 216d 113e 339b 073e
00000040: d414 d33d 7eee 843d 10d9 d93d 4085 25bd
00000050: fca3 e0bd 407c 9fbb 8286 9ebd 4cc9 a2bd
00000060: af33 01be 46de f63d eacf 803d 80fa ac3c
00000070: 501c f6bd b26b b03d f4e4 1e3d cbbf 0dbe
00000080: 2c93 023d 8e68 9dbd 8823 cdbc f1a1 f9bd
00000090: 0019 3d3d 0402 3fbd 0027 d73d 80bb 26bc
000000a0: d496 93bd 0a3d 1bbd b585 073e c61c 5cbd
000000b0: f0ca 0fbc 9ccd cd3d 0ad8 863d ed2c f4bd
000000c0: 5245 45bd 9003 c83d 32ef ed3d 0649 0abd
000000d0: a09f 013d 9c26 03be f49a 73bd ce32 ea3d
000000e0: 624d f13d 9ada 36bd b068 a73c e060 333c
000000f0: 8006 d13b b01f 733d 809b f53a 10c1 c6bd
00000100: aed9 883d e623 46bd d874 3c3d 1673 99bd
00000110: 187f af3d dc0c 4fbd 8092 02bb 8bfa 103e
00000120: 59c8 adbd d879 773d d446 0bbe 08cb 30bd
00000130: 8ce1 2d3d ab4e 043e fa8f 9c3d e0f7 e33b
00000140: 336f 043e c2bd e93d 5020 f6bd 0e3c a5bd
00000150: 126d bd3d fcab a83d f820 97bd 1e6a 18bd
00000160: 78df 4d3d 30c9 25bc f6ef a3bd 6cc1 78bd
00000170: 60fd f13c 73a7 07be bd33 a3bd 935e d3bd
00000180: 280d 763d d28a 803d 40a8 9fbd c67a 06be
00000190: 9fe9 aabd 00ee 04bd 99c6 a4bd 9431 e3bc
000001a0: 14e0 c1bd 0400 b2bd d009 04be 1a03 f6bd
000001b0: 4e0b a7bd 4c2d 0abe 6f36 0c3e b79b 06be
000001c0: 9bd3 91bd 40b0 6abc 2090 fcbd 5a50 9b3d
000001d0: 0407 b43d 8a57 37bd b4c0 51bd f3fa 0c3e
000001e0: 78ad 113d 9051 b2bd cdfb 83bd 4ce4 c7bc
000001f0: 075d 0a3e 38fb f8bd 5c86 adbc 5c98 e6bc
00000200: 78b0 48bd 41f0 063e 4c10 6b3d 389f d4bc
00000210: d00a 583c c3e4 cdbd e41a 283d 84f4 143d
00000220: 1808 8fbc 2946 063e 5c65 6f3d 46d1 f83d
00000230: a8a2 a63d 00a0 f138 4874 c8bc 7e21 8a3d
00000240: f8ef dfbd a6c6 d23d c015 6a3c bb51 023e
00000250: 0e9f bfbd 321f f23d 9881 d83d e4e2 c1bd
00000260: 3022 ff3c 7411 c03d 9eff 903d 00e9 74bb
00000270: 30a1 5dbd d625 e33d acf5 a8bc a471 a43d
00000280: 4478 263d 9088 09bc bb4f f5bd 00c3 2e3d
00000290: 45bb 93bd 205b 7a3c b888 ebbc 7ba6 073e
000002a0: fccf 903d 2b75 b4bd 800e 913d 480e e6bc
000002b0: fa32 0dbe 1325 06be 40f6 453c aa80 fa3d
000002c0: 6ae6 fe3d 6d4f adbd 6dd8 0bbe f059 adbc
000002d0: 3958 0b3e eabb 9c3d 6ea3 863d 8097 9c3a
000002e0: 726d 66bd f26a a63d 8062 fd3a 3043 1d3d
000002f0: 8775 89bd c615 aabd 15da 04be 5e5a 8e3d
00000300: de53 b03d 62c2 ec3d 1c19 c0bd f04f 8f3d
00000310: 00c6 c53b c0b4 8abb 0893 e73c 6014 68bc
00000320: 70ca cbbc d6d8 ac3d da57 af3d 6aa5 3ebd
00000330: c0e7 2a3b 3fff 023e a022 e0bd 449a a03d
00000340: 60f5 2f3d 5f2e 0d3e 7cff 853d d0d8 e63c
00000350: d230 fdbd 3067 863c b360 083e 7e9e c73d
00000360: 0cc0 413d 62ac f2bd d89c d13d a4a1 ce3d
00000370: 509c 84bc c0c5 13bb 6eb2 f33d 405d bfbb
00000380: 669b 96bd 9055 cabd 6118 0ebe 90d4 013c
00000390: 8155 98bd 9e2f e13d dc37 25bd ea8b 8c3d
000003a0: 6083 353c e457 98bc cc05 a43d 52c7 f43d
000003b0: 48db 87bc 601d c4bd 843a 453d e968 11be
000003c0: 8945 063e 0aa6 ea3d 24db db3d 807d 10bb
000003d0: 4735 e0bd 408f 873c 6748 bbbd 4120 efbd
000003e0: f0fd 4a3d be8c ed3d bc12 f1bd 203e 143d
000003f0: 70db c1bc 783e 08bd 2461 98bd 1ab4 39bd
0.1199971 0.1419235 -0.00952214 0.13743065 0.07484366 -0.030196063 -0.12702948 -0.07936104
0.0799886 -0.093841575 0.10027614 -0.09700001 0.044922516 0.12001218 0.14201786 0.13242798
0.10306707 0.06490801 0.106371045 -0.04041028 -0.109687775 -0.0048671067 -0.07740499 -0.079485506
-0.12617372 0.12054114 0.062896565 0.021115541 -0.12017119 0.08614291 0.038792565 -0.13842694
0.031878635 -0.07685958 -0.025041357 -0.12189091 0.04616642 -0.04663278 0.105054855 -0.010176539
-0.072065026 -0.03790001 0.13234599 -0.053738378 -0.008776411 0.100489825 0.06584175 -0.119226314
-0.048161812 0.097663045 0.116178885 -0.033761047 0.03164637 -0.12807697 -0.059473947 0.114354715
0.11782338 -0.04464207 0.020435661 0.01094839 0.0063789487 0.05935639 0.0018738359 -0.097047925
0.06682144 -0.04837408 0.04600987 -0.07492654 0.08569163 -0.050549373 -0.0019923747 0.14158075
-0.08485479 0.060418934 -0.13601238 -0.043162376 0.042451426 0.12920634 0.07644649 0.0069570392
0.12933044 0.114131466 -0.12017882 -0.08068095 0.09249319 0.082359284 -0.07379335 -0.037210576
0.050261945 -0.010118768 -0.08004753 -0.060731336 0.029539764 -0.1324747 -0.07968853 -0.10320773
0.06007114 0.06276478 -0.07795763 -0.13132772 -0.08345341 -0.032453537 -0.08045692 -0.027733602
-0.09466568 -0.08691409 -0.12894368 -0.1201231 -0.08156453 -0.13493842 0.1369264 -0.13145338
-0.07120439 -0.014324248 -0.12332177 0.07583685 0.087904006 -0.044761218 -0.051209167 0.13767605
0.035565823 -0.08706963 -0.064445116 -0.024400853 0.1351205 -0.12157291 -0.021182232 -0.028148822
-0.04899642 0.13177587 0.05738859 -0.025954828 0.013186172 -0.100533985 0.04104127 0.036366
-0.017459914 0.13112701 0.058446273 0.12149291 0.08136493 0.00011521578 -0.02446951 0.067446694
-0.10934442 0.102917954 0.014287412 0.1272649 -0.09356509 0.11822356 0.10571593 -0.09467104
0.031144232 0.09378329 0.07080005 -0.0037370324 -0.0541088 0.11091201 -0.020624958 0.08029488
0.040642038 -0.008394375 -0.11978098 0.042666435 -0.07213453 0.015280515 -0.028751716 0.13247101
0.0707092 -0.088114105 0.07082844 -0.028082982 -0.13788977 -0.1310008 0.012082636 0.12231572
0.12446292 -0.08462415 -0.13656779 -0.02116105 0.13607873 0.07653029 0.065741405 0.0011947006
-0.05625672 0.08125867 0.0019331723 0.038394153 -0.0671187 -0.08304934 -0.12973817 0.0695083
0.086097464 0.11560513 -0.09379789 0.06997669 0.0060355663 -0.004232973 0.028268352 -0.014165014
-0.024876803 0.08439796 0.08561678 -0.04654447 0.0026078075 0.12792681 -0.10944104 0.07841924
0.042958617 0.1378722 0.065428704 0.028179556 -0.12362827 0.016406626 0.13318138 0.09747027
0.04730229 -0.11849286 0.10234994 0.10089424 -0.016187817 -0.0022548288 0.11899267 -0.0058399737
-0.07353859 -0.09879601 -0.13876487 0.007924214 -0.074381836 0.109954104 -0.040336475 0.06862624
0.0110786855 -0.018596597 0.08008918 0.1195208 -0.016584054 -0.09575915 0.048151508 -0.14200176
0.13112463 0.11457451 0.10735157 -0.002204746 -0.10947662 0.0165478 -0.09144669 -0.11676074
0.04955858 0.1159911 -0.117711514 0.03619206 -0.023664206 -0.0332627 -0.07440403 -0.045337774

arr_1 f4 [32]
00000000: 0000 0000 0000 0000 0000 0000 0000 0000
00000010: 0000 0000 0000 0000 0000 0000 0000 0000
00000020: 0000 0000 0000 0000 0000 0000 0000 0000
00000030: 0000 0000 0000 0000 0000 0000 0000 0000
00000040: 0000 0000 0000 0000 0000 0000 0000 0000
00000050: 0000 0000 0000 0000 0000 0000 0000 0000
00000060: 0000 0000 0000 0000 0000 0000 0000 0000
00000070: 0000 0000 0000 0000 0000 0000 0000 0000
0.0 0.0 0.0 0.0 0.0 0.0 0.0 0.0
0.0 0.0 0.0 0.0 0.0 0.0 0.0 0.0
0.0 0.0 0.0 0.0 0.0 0.0 0.0 0.0
0.0 0.0 0.0 0.0 0.0 0.0 0.0 0.0

arr_2 f4 [3, 3, 32, 64]
00000000: 9674 4ebd aa14 643d 469f 053d 98ef 4ebc
00000010: 18b3 6cbc 16b9 b3bc b271 573d 108f 43bd
00000020: cbb9 9dbd 1865 003c 8bba 823d 8b17 02bd
00000030: 305d d13b e07f 4dbd e0e9 9d3c 806d fcbc
00000040: b0b0 12bd 4094 e2bc d054 a5bd 8683 2bbd
00000050: 3640 c4bc c0ad e3bc e33c aabd 2826 3abc
00000060: ec56 803c ebd7 8c3d e69a 1d3d a692 4a3d
00000070: 0026 4bbc 5646 7fbd 167b ffbc d3cf 94bd
00000080: 08af 98bd a6e8 a6bd 3067 6abd ccde 983c
00000090: 495b 903d 0343 a73d 9b40 93bd 50f9 d3bb
000000a0: f8b0 98bd 6085 6cbd 0076 253b 80a9 52bd
000000b0: 66f6 90bd 2c95 fdbc 00f1 79bc 00ff 2fbd
000000c0: a2d4 623d d887 0f3c 9ad3 553d 623e 3c3d
000000d0: 36ea 2b3d 0019 c83b c375 833d daba 7d3d
000000e0: c69b 393d 5637 113d 58ab 2a3c ead0 743d
000000f0: 6852 103c f6d4 363d 6024 13bd 80c1 4cbc
00000100: a0dc e03c b6e4 18bd db12 22bd e634 383d
00000110: 1888 58bc e669 51bd e00f 0abd 0aa3 713d
00000120: faf8 5d3d 19bb 8a3d a005 51bd bb58 67bd
00000130: 30f7 24bd 80ac e5bc f61e 43bd d6fa 5a3d
00000140: 505c b6bb a19d 8b3d 96c0 59bd 49e1 a73d
00000150: 404f 323c 1ee7 98bd 267f 473d cc3b 95bc
00000160: 6887 2a3c 60c3 dbbc 8091 253a 86dc 2abd
00000170: d662 a4bd 1b78 23bd 12af 353d 767b 7fbd
00000180: 5066 e4bb 0c55 b13c 407f f0bc 839b 93bd
00000190: e669 4e3d a6cc 063d 76bd 633d 96e4 febc
000001a0: 706f 83bd d69e 67bd 4c64 b5bc 80cd 99bd
000001b0: 5a2d 563d a04a 24bd b6f5 373d 941d 963c
000001c0: 2338 94bd 4d12 a93d f631 0cbd 6097 2f3b
000001d0: 302a aabd a209 583d 1e04 85bd 3bd1 8dbd
000001e0: 6659 7fbd 86fd 7fbd 2d45 a93d b617 033d
000001f0: 18c5 723c 4687 5bbd 40ff 9fbc 30ec aebb
00000200: d5ae 923d 2893 86bd c07f 06bd 46fd 7c3d
00000210: f44b a0bc 0028 0438 8ba1 a53d 96b6 e2bc
00000220: 9828 34bc d693 69bd 060a 13bd d6b5 0fbd
00000230: 284e 97bd 8044 18bd 284b 69bc d073 fdbb
00000240: 989b 4f3c 3e04 9cbd 5aa6 4a3d a042 acbc
00000250: 5659 bebc 00ab fdbc 162f b4bc 6b1f 8ebd
00000260: da22 023d e8e3 81bd 288e 473c 181a 38bc
00000270: 8ab1 723d 4b02 aa3d b0c5 a23b 0601 143d
00000280: 6503 963d ccd3 dcbc 13f0 8d3d f0c3 75bd
00000290: 66ce 14bd 2002 8ebd 749c eb3c a020 a6bc
000002a0: e2de 723d a0cf 1ebd 269d 38bd 50f7 f13b
000002b0: 3057 5bbd 14bb a83c 6064 923c d010 01bd
000002c0: 00e1 91bd 16a8 dbbc 46bd 063d ec50 b03c
000002d0: 802a 7aba 43e8 873d b095 6cbd 00de 08bb
000002e0: d02c b23b 80fa 07bd 3a5f 2e3d a04e 023b
000002f0: d8f7 12bc 00ff 203d 8298 6f3d 30d7 c33b
00000300: 14f3 9c3c 803f d83c 6b50 36bd 96d7 19bd
00000310: 1808 6f3c 2345 993d fd51 9d3d 8b26 49bd
00000320: 40f8 03bd f3b7 a7bd cb0c 903d c69d 123d
00000330: 00ea f43c 806d 363a 2055 903c 8c49 febc
00000340: a055 1abb 80cc dabb c0d8 78bc 1004 41bd
00000350: d386 85bd 4636 5b3d 7620 8fbd 3027 8abd
00000360: f005 5cbd 900b 74bd 030f 873d 66d7 5b3d
00000370: 80bb 98bd 364c 08bd 4c6d b63c 80cf 9d3b
00000380: 20c2 e3bc 80eb abbb 003c ab3b 00fc 0d3a
00000390: 0090 32bb 7e85 a9bd 403c 2bbc a370 99bd
000003a0: 36ce c3bc b0fc f1bb 0c48 a83c 7a21 403d
000003b0: a02d 353b d845 89bd 0c0a be3c 6b1c 83bd
000003c0: 1a85 2a3d e593 8e3d 7073 6cbd 0c5f e0bc
000003d0: 469e 283d c313 913d 3a41 073d cc7a 93bc
000003e0: 0bff 993d 10d7 40bd 6060 f1bc 7088 a4bd
000003f0: 0099 693c 80dc 223c 6ca0 e7bc aa12 253d
-0.050404154 0.05568377 0.032622598 -0.012630366 -0.014446996 -0.021938842 0.052598663 -0.047743857
-0.07701453 0.007836603 0.063832365 -0.031760734 0.0063892826 -0.05017078 0.01927656 -0.030813932
-0.035813034 -0.027658582 -0.08072817 -0.041873477 -0.0239564 -0.027792811 -0.083123945 -0.011361636
0.015666448 0.068771206 0.0384778 0.04945626 -0.012399197 -0.062322937 -0.031186622 -0.07266202
-0.074552596 -0.08149843 -0.057227314 0.018660925 0.07048661 0.08167078 -0.07190057 -0.0064689294
-0.07455629 -0.057744384 0.0025247335 -0.05143118 -0.07078247 -0.03095492 -0.015255213 -0.042967796
0.055378564 0.008760415 0.052203752 0.04595793 0.041971408 0.006106496 0.06418946 0.061945774
0.045314573 0.035453163 0.010416828 0.05976955 0.00880871 0.04463669 -0.03592336 -0.012497306
0.027448952 -0.03732749 -0.039568763 0.044972323 -0.013216041 -0.051126383 -0.033706546 0.058993377
0.05419252 0.06773967 -0.051030755 -0.056481104 -0.0402748 -0.028036356 -0.04763695 0.053461872
-0.0055652037 0.06817175 -0.05316218 0.081972666 0.0108831525 -0.07465957 0.048705243 -0.01821699
0.01040826 -0.02682656 0.00063159317 -0.041714214 -0.08026664 -0.039909463 0.044356413 -0.0623736
-0.0069702044 0.021646999 -0.029357553 -0.07207396 0.05039396 0.03291001 0.055600606 -0.031114858
-0.064177394 -0.056547962 -0.022142552 -0.07509899 0.052289344 -0.04011023 0.044912063 0.01832465
-0.0723727 0.08255444 -0.034227334 0.0026793107 -0.08308828 0.05274356 -0.06494926 -0.06924673
-0.062341116 -0.06249764 0.08265147 0.032005034 0.014817499 -0.053595804 -0.019530892 -0.0053382143
0.07162253 -0.065710366 -0.032836676 0.061764978 -0.019567467 3.1508505e-05 0.080874525 -0.027674954
-0.010996006 -0.057025753 -0.03589823 -0.03508552 -0.07387954 -0.0371747 -0.01423911 -0.007734753
0.012671374 -0.07617997 0.04947505 -0.021027863 -0.023235958 -0.030965328 -0.021995109 -0.06939586
0.03177152 -0.06342298 0.012179889 -0.01123669 0.059251346 0.083012186 0.004967414 0.03613379
0.07324866 -0.026956461 0.06930556 -0.060001314 -0.03632965 -0.06933999 0.028761126 -0.020279229
0.05929459 -0.038772225 -0.045071743 0.0073842183 -0.053549945 0.020597018 0.017870128 -0.031510174
-0.071229935 -0.026813548 0.03289535 0.021522962 -0.0009543076 0.06636097 -0.05775994 -0.0020884275
0.005437471 -0.03319788 0.042571284 0.001988329 -0.008970223 0.039305687 0.058495052 0.00597658
0.019158877 0.026397467 -0.044510286 -0.037559114 0.014589332 0.0748389 0.07681654 -0.049109023
-0.03221917 -0.081893824 0.0703369 0.035794996 0.029896736 0.0006959066 0.017618716 -0.03104093
-0.0023549572 -0.0066772103 -0.015188396 -0.047123015 -0.06519856 0.053518556 -0.06988613 -0.06745756
-0.0537166 -0.05958134 0.0659466 0.053672217 -0.07457638 -0.033275805 0.022268914 0.0048159957
-0.027802527 -0.0052465796 0.0052256584 0.0005416274 -0.0027246475 -0.08277415 -0.010451376 -0.07492187
-0.02390204 -0.007384859 0.020542167 0.046906926 0.0027645603 -0.06702775 0.02319815 -0.06401905
0.04163084 0.069618024 -0.057727277 -0.027389072 0.041166566 0.070838474 0.03302119 -0.01800289
0.07519349 -0.0470801 -0.0294649 -0.08033836 0.014257669 0.009940267 -0.028274737 0.040301003

arr_3 f4 [64]
00000000: 0000 0000 0000 0000 0000 0000 0000 0000
00000010: 0000 0000 0000 0000 0000 0000 0000 0000
00000020: 0000 0000 0000 0000 0000 0000 0000 0000
00000030: 0000 0000 0000 0000 0000 0000 0000 0000
00000040: 0000 0000 0000 0000 0000 0000 0000 0000
00000050: 0000 0000 0000 0000 0000 0000 0000 0000
00000060: 0000 0000 0000 0000 0000 0000 0000 0000
00000070: 0000 0000 0000 0000 0000 0000 0000 0000
00000080: 0000 0000 0000 0000 0000 0000 0000 0000
00000090: 0000 0000 0000 0000 0000 0000 0000 0000
000000a0: 0000 0000 0000 0000 0000 0000 0000 0000
000000b0: 0000 0000 0000 0000 0000 0000 0000 0000
000000c0: 0000 0000 0000 0000 0000 0000 0000 0000
000000d0: 0000 0000 0000 0000 0000 0000 0000 0000
000000e0: 0000 0000 0000 0000 0000 0000 0000 0000
000000f0: 0000 0000 0000 0000 0000 0000 0000 0000
0.0 0.0 0.0 0.0 0.0 0.0 0.0 0.0
0.0 0.0 0.0 0.0 0.0 0.0 0.0 0.0
0.0 0.0 0.0 0.0 0.0 0.0 0.0 0.0
0.0 0.0 0.0 0.0 0.0 0.0 0.0 0.0
0.0 0.0 0.0 0.0 0.0 0.0 0.0 0.0
0.0 0.0 0.0 0.0 0.0 0.0 0.0 0.0
0.0 0.0 0.0 0.0 0.0 0.0 0.0 0.0
0.0 0.0 0.0 0.0 0.0 0.0 0.0 0.0

arr_4 f4 [1600, 128]
00000000: f397 3f3d b048 6dbd d76e 4b3d 4c14 09bc
00000010: 4e73 66bd 2f26 6dbd cc74 01bd 1e1f 28bd
00000020: 3064 65bd 800b f0bc 901c 17bd a409 7d3c
00000030: 5d2b 5bbd d387 373d 1b7f 6dbd ba1e ea3c
00000040: ead6 923c 4339 183d 44d5 4cbc 1433 3ebc
00000050: 1017 bfbc a129 663d d6e2 b43c 44dd 403c
00000060: 7ac6 34bd d81a e1bb 9463 24bc da33 42bd
00000070: 7f4c 243d 9cf4 463c 03aa 41bd b121 0a3d
00000080: 00a4 c839 48ef 3cbd d075 cdbc e7c1 31bd
00000090: 204d 233b 9479 683c 101d e5bc 1785 163d
000000a0: c084 1a3b f5e5 113d 7cb5 74bc 345e 523c
000000b0: a84c f93b 583a b53b 703b 573b c09e 3dbd
000000c0: 7cac c6bc eab5 03bd c425 3a3c ccd9 013c
000000d0: 2d3d 1ebd 41b8 013d a9ba 57bd 4efc f33c
000000e0: 80aa 783a 1138 0b3d ea43 d03c a016 40bc
000000f0: 005a 253b f8d5 da3b 28d5 08bd 8c45 03bd
00000100: dae3 ae3c 7465 783c f185 60bd 8096 68bd
00000110: e063 e43a dcb8 663c f534 6a3d f115 53bd
00000120: 1914 0e3d 7273 e03c a838 57bd f784 563d
00000130: 4f7f 673d c567 503d cc64 453c 3036 9cbc
00000140: 1a77 d83c 9290 a63c b55f 6c3d de34 c8bc
00000150: 30e4 5ebb 70a3 63bd 0b46 563d c46a bebc
00000160: c763 4bbd ec3b 24bd d0ca 1cbd a82b c13b
00000170: e043 9dba 9b3f 3b3d e988 043d 7958 423d
00000180: 3fd0 1c3d 055e fdbc 05c0 f2bc d595 053d
00000190: b86f 60bc 9399 27bd 9468 f3bc 5ca3 6f3c
000001a0: 8f70 5cbd 1e16 94bc d266 41bd 1357 18bd
000001b0: bc9d 5abd 02c6 f33c cca8 72bc 1448 57bd
000001c0: 7a33 4dbd 7063 1abd d2c6 efbc 7080 4dbd
000001d0: 08a9 54bc 6781 2d3d d82e d03b 5571 383d
000001e0: a8f4 a0bb fcc3 2f3c cae5 d3bc fc7a 6fbc
000001f0: 5a89 9a3c 5113 5a3d 2879 03bc a110 083d
00000200: a529 2c3d 5030 6dbc 06d2 91bc cc64 7fbc
00000210: d7ed 533d 0837 cebc 8010 78bc 5015 643b
00000220: 153c 083d fc61 383c 3c33 09bc 35f9 5dbd
00000230: 7017 9fbc 341e 1abd 3419 1c3c cbe7 683d
00000240: 33d3 4ebd 66af df3c c69a 9bbc d04b a2bb
00000250: 4c68 713c 2a94 02bd 9256 acbc b89b 32bd
00000260: 89ff 0dbd 3cd2 2fbc bedc fdbc c0c2 603a
00000270: 6c90 783c 1c5b 90bc e4ba 563c 2a69 40bd
00000280: d157 573d a8d0 40bc fc5f 783c c5a9 6d3d
00000290: 227a b93c e748 043d d994 063d 65bb 193d
000002a0: 7648 bb3c 8655 d83c 5955 543d a762 333d
000002b0: 4852 e43b 7ad7 f43c 689d 52bd d0a1 7ebb
000002c0: d07d 46bc 22cd c8bc ec66 9ebc 2c11 793c
000002d0: eac9 c6bc f3ac 223d 40ae 9dbc e0b4 59bd
000002e0: 040c 623c 8015 e7bb 6dd7 40bd 50af 16bd
000002f0: 10e9 10bd 8886 e23b 8a9a 80bc 329c 6cbd
00000300: 876d 0b3d d628 e23c 870b 463d de6d 8c3c
00000310: 32b3 f03c ba9d 933c 7847 88bc 8c33 65bc
00000320: 7b4d 703d da9b 883c 7c6e 11bd 87ca 5e3d
00000330: 7f62 4c3d 94c5 24bc 6c70 703c 1e4d 4abd
00000340: a0d4 f03a ee71 cebc 0429 0dbd 06fe b13c
00000350: 4c55 1a3c c460 6a3c 6187 253d 9bb2 133d
00000360: 6651 be3c 6ad2 31bd 11b4 52bd ac38 6b3c
00000370: e03f 98bc 285b 7cbc 020d 3bbd f43c 5cbd
00000380: 3acb 0ebd 0a5b f83c f883 45bc 04c1 0b3c
00000390: e9b6 323d 904a 09bc 3600 e03c f723 383d
000003a0: 58df d73b 3943 523d 6692 ec3c 97f0 483d
000003b0: a066 4b3b b74a 0abd 5c65 2abd 9b47 ffbc
000003c0: 21cb 433d d593 e6bc f029 babc 584a 16bd
000003d0: 7a30 bd3c 7b92 1b3d 1687 f73c f705 f2bc
000003e0: 64e4 373c 47ea 5f3d acea 723c d9c8 123d
000003f0: beef fe3c 40aa eabb 6d76 4f3d 3504 2bbd
0.04677577 -0.05793065 0.049666252 -0.008366656 -0.056262307 -0.057897743 -0.031605527 -0.0410453
-0.05600375 -0.029302359 -0.036892474 0.015444193 -0.05350815 0.044807266 -0.057982545 0.028579105
0.017924745 0.037163984 -0.012502018 -0.011608858 -0.023326427 0.056192044 0.02208082 0.011771504
-0.044134595 -0.006869655 -0.010033507 -0.04741273 0.040112015 0.01214328 -0.047281276 0.033723537
0.00038269162 -0.046126634 -0.025080591 -0.04339781 0.0024917796 0.014189143 -0.02796796 0.036748018
0.002357766 0.035619695 -0.014935847 0.012839843 0.007608015 0.0055306368 0.0032841824 -0.046293974
-0.024252169 -0.03215591 0.011361543 0.007925462 -0.03863256 0.03166986 -0.052668247 0.029783394
0.00094858557 0.033989016 0.025423009 -0.011724144 0.0025230646 0.006678339 -0.033406407 -0.032048747
0.021348882 0.015160907 -0.054815236 -0.056784153 0.0017424785 0.01408216 0.05717941 -0.051534597
0.034687135 0.027398799 -0.052544266 0.0523729 0.056517895 0.050880212 0.012047958 -0.019068807
0.02642398 0.020332608 0.05770846 -0.024439272 -0.0034010522 -0.055575788 0.052312892 -0.02324427
-0.049655702 -0.04009621 -0.038279355 0.005895097 -0.0011998378 0.045714956 0.03235713 0.047447655
0.038284536 -0.030928621 -0.029632578 0.032613594 -0.013698511 -0.040917944 -0.029712953 0.01462635
-0.05381828 -0.018076953 -0.047217198 -0.037192415 -0.053373083 0.029757503 -0.014810752 -0.052558973
-0.05009792 -0.037692487 -0.02926961 -0.050171316 -0.012979753 0.042359736 0.0063532405 0.045029957
-0.004911978 0.010727879 -0.025866408 -0.014616724 0.018864322 0.053241078 -0.008024491 0.033218984
0.042031903 -0.014476851 -0.017800342 -0.015587997 0.051740494 -0.025172725 -0.015140653 0.0034802742
0.033260424 0.01125383 -0.008374032 -0.05419274 -0.019420356 -0.03762646 0.009527493 0.05686168
-0.050494384 0.027305316 -0.0189947 -0.004952885 0.014734339 -0.03187958 -0.021037374 -0.043605536
-0.034667525 -0.010731276 -0.030989047 0.0008573942 0.015171152 -0.01762157 0.013106082 -0.046975292
0.052573983 -0.0117684975 0.015159603 0.058023233 0.022641245 0.032296088 0.032856796 0.03753223
0.0228617 0.026407968 0.051839206 0.043795254 0.0069678165 0.029887903 -0.051419646 -0.0038853772
-0.012114957 -0.024511877 -0.019336186 0.015201848 -0.024266202 0.03971572 -0.019248128 -0.05315101
0.01379681 -0.0070521235 -0.047080446 -0.036788285 -0.035378516 0.00691301 -0.01569869 -0.057766147
0.03404 0.027607363 0.048350837 0.017142233 0.029382322 0.018019546 -0.016635641 -0.0139893405
0.05866764 0.016675878 -0.035505757 0.054392364 0.04989862 -0.010056872 0.014675241 -0.04938995
0.0018373914 -0.02520081 -0.034462944 0.021727573 0.00941975 0.014305297 0.04041231 0.036059003
0.023232173 -0.043413557 -0.051441256 0.014356773 -0.018585145 -0.015402593 -0.045666702 -0.053769067
-0.03486178 0.030316848 -0.01205539 0.008529905 0.043631468 -0.0083795935 0.02734385 0.044956174
0.006587904 0.05133364 0.028878402 0.04905757 0.003103651 -0.03376266 -0.04160057 -0.031162074
0.04780114 -0.028146664 -0.022725075 -0.036691993 0.023094404 0.03798149 0.030215781 -0.02954386
0.011223886 0.054666784 0.014826458 0.035836075 0.031120177 -0.0071614087 0.05065005 -0.04175206

arr_5 f4 [128]
00000000: 0000 0000 0000 0000 0000 0000 0000 0000
00000010: 0000 0000 0000 0000 0000 0000 0000 0000
00000020: 0000 0000 0000 0000 0000 0000 0000 0000
00000030: 0000 0000 0000 0000 0000 0000 0000 0000
00000040: 0000 0000 0000 0000 0000 0000 0000 0000
00000050: 0000 0000 0000 0000 0000 0000 0000 0000
00000060: 0000 0000 0000 0000 0000 0000 0000 0000
00000070: 0000 0000 0000 0000 0000 0000 0000 0000
00000080: 0000 0000 0000 0000 0000 0000 0000 0000
00000090: 0000 0000 0000 0000 0000 0000 0000 0000
000000a0: 0000 0000 0000 0000 0000 0000 0000 0000
000000b0: 0000 0000 0000 0000 0000 0000 0000 0000
000000c0: 0000 0000 0000 0000 0000 0000 0000 0000
000000d0: 0000 0000 0000 0000 0000 0000 0000 0000
000000e0: 0000 0000 0000 0000 0000 0000 0000 0000
000000f0: 0000 0000 0000 0000 0000 0000 0000 0000
00000100: 0000 0000 0000 0000 0000 0000 0000 0000
00000110: 0000 0000 0000 0000 0000 0000 0000 0000
00000120: 0000 0000 0000 0000 0000 0000 0000 0000
00000130: 0000 0000 0000 0000 0000 0000 0000 0000
00000140: 0000 0000 0000 0000 0000 0000 0000 0000
00000150: 0000 0000 0000 0000 0000 0000 0000 0000
00000160: 0000 0000 0000 0000 0000 0000 0000 0000
00000170: 0000 0000 0000 0000 0000 0000 0000 0000
00000180: 0000 0000 0000 0000 0000 0000 0000 0000
00000190: 0000 0000 0000 0000 0000 0000 0000 0000
000001a0: 0000 0000 0000 0000 0000 0000 0000 0000
000001b0: 0000 0000 0000 0000 0000 0000 0000 0000
000001c0: 0000 0000 0000 0000 0000 0000 0000 0000
000001d0: 0000 0000 0000 0000 0000 0000 0000 0000
000001e0: 0000 0000 0000 0000 0000 0000 0000 0000
000001f0: 0000 0000 0000 0000 0000 0000 0000 0000
0.0 0.0 0.0 0.0 0.0 0.0 0.0 0.0
0.0 0.0 0.0 0.0 0.0 0.0 0.0 0.0
0.0 0.0 0.0 0.0 0.0 0.0 0.0 0.0
0.0 0.0 0.0 0.0 0.0 0.0 0.0 0.0
0.0 0.0 0.0 0.0 0.0 0.0 0.0 0.0
0.0 0.0 0.0 0.0 0.0 0.0 0.0 0.0
0.0 0.0 0.0 0.0 0.0 0.0 0.0 0.0
0.0 0.0 0.0 0.0 0.0 0.0 0.0 0.0
0.0 0.0 0.0 0.0 0.0 0.0 0.0 0.0
0.0 0.0 0.0 0.0 0.0 0.0 0.0 0.0
0.0 0.0 0.0 0.0 0.0 0.0 0.0 0.0
0.0 0.0 0.0 0.0 0.0 0.0 0.0 0.0
0.0 0.0 0.0 0.0 0.0 0.0 0.0 0.0
0.0 0.0 0.0 0.0 0.0 0.0 0.0 0.0
0.0 0.0 0.0 0.0 0.0 0.0 0.0 0.0
0.0 0.0 0.0 0.0 0.0 0.0 0.0 0.0

arr_6 f4 [128, 10]
00000000: 65eb 453e d6c8 49be e3c5 d6bd 7a7e 87bd
00000010: e955 0fbe 1a33 10be 6b47 b7bd 4c32 cbbd
00000020: 5a7c cdbd 9cc7 5a3d 6594 1c3e c879 f4bd
00000030: c3f6 f4bd cbe9 183e f0b1 883c 4477 30bd
00000040: 840d 3fbe 023d df3d abea 4c3e 545b 0bbe
00000050: 28b1 f23c dad0 bf3d 0097 523b b6f0 3dbe
00000060: 7792 033e d049 77bd 2324 113e 6d0f 2a3e
00000070: 2a9f c2bd 40a9 43bb 19a1 02be 53e9 41be
00000080: 86df 933d d5c6 373e e675 4fbe b4af 463d
00000090: e115 abbd 20d6 be3b c0b4 c5bb 072a 41be
000000a0: 8c24 79bd 1bac 0c3e 68d8 b3bc 5d5a 0a3e
000000b0: 76fc 913d 503d 5dbd 6f08 f5bd 2103 173e
000000c0: 351b 4c3e 9a80 c53d c4d1 dcbd 8d35 073e
000000d0: e377 10be 708f 19bd 64a1 113d c1bc 063e
000000e0: 44cc 443d 22fe 85bd 2693 bbbd 714a 043e
000000f0: 2418 cebd 8e8e 973d f4db 70bd 16be cb3d
00000100: 3aa5 2abe 214d 10be 6d21 413e 26c7 26be
00000110: 668a c63d caa4 ef3d 80ae 383b 847e 403d
00000120: b045 88bd 421c a83d c648 db3d 1b55 b8bd
00000130: d443 87bd 3a5d ee3d afc7 273e c127 e4bd
00000140: e780 073e 5318 173e e071 50be 8297 8c3d
00000150: c60f b23d dd86 40be 5acd ff3d 093d 553e
00000160: 4698 2ebe 3d3f 09be 81e3 163e 21f3 253e
00000170: b451 e8bd 24b4 debd 007f 38bb 1f82 193e
00000180: 451b e4bd c987 213e a4b2 6d3d 733e 243e
00000190: 3208 8ebd a6d3 c7bd 67ef 0f3e 2412 04be
000001a0: 1764 fabd 6a92 54be 2ace 903d 1011 8fbd
000001b0: 667c f83d a0af 3ebd 154d e5bd 176d 413e
000001c0: d56b 3fbe 231a 193e 8227 c43d c430 413d
000001d0: 11e8 0c3e d2c1 a3bd 20be 843c 90fc 3c3c
000001e0: 6f95 c0bd ae52 fb3d 9611 e1bd e8c1 b9bc
000001f0: 1271 de3d b0f1 0bbc e179 433e 00e4 75bd
00000200: aad5 96bd f16a 343e 0fe9 4f3e f7a1 49be
00000210: a651 f73d 2da7 543e bca8 0fbd c8b0 efbc
00000220: e691 9d3d 2a16 973d 80b2 98ba fc8e 763d
00000230: e692 b0bd 236d 323e a2b5 de3d 1a5b ddbd
00000240: 0c39 f6bd 6d20 3f3e d459 41bd a488 41bd
00000250: 58ae 37be 8053 253b 7dcb 373e 1686 ed3d
00000260: 7f2e 363e e0ed 82bb bd94 253e 9ca0 b7bd
00000270: 7ce0 a6bd eca7 5d3d 845b 29be 6237 993d
00000280: a996 473e 7d0d 373e 1c6e 163d 4ef3 903d
00000290: d049 3fbd 88bc bc3c 04ee 11bd 2098 febb
000002a0: 89cb 3b3e 94a0 563d 501f b2bd 6bc0 fcbd
000002b0: a6b1 993d c891 46be b2da ca3d 6288 c2bd
000002c0: e830 5fbd 5e82 e1bd 458d 4dbe 01f2 493e
000002d0: 347e 5bbd 10cf 0ebc 7af8 8dbd 605c 92bc
000002e0: c4f3 c9bd cada f53d 5297 d33d a803 063d
000002f0: 94ab 44bd 9e08 cabd 8007 14bb 1833 083d
00000300: bcb3 023d bde8 15be 0a86 9fbd 3fad 543e
00000310: e04b 0a3d 90ea 19be 1301 05be e038 f3bb
00000320: 925b 02be d58a 043e f44a 583d 6a0e b13d
00000330: 703e 9dbc eaf9 ab3d 06aa 06be 0162 0fbe
00000340: a0c3 c9bc a33b 073e d827 bcbd e01b 3bbd
00000350: e8b3 af3c d658 abbd 32b8 903d 2f10 273e
00000360: e10e 06be 6b2a 253e 9316 29be 73cd 41be
00000370: a131 17be 3c1b 463d ba49 ca3d da2b 87bd
00000380: 3220 843d 772b 383e 929f 01be 1d2d f8bd
00000390: 1c13 493d e0ed a0bb 4083 2a3c af2d e1bd
000003a0: ee75 e03d 4a74 10be 6a7a 823d 6665 ab3d
000003b0: f408 a4bd 4397 453e 9944 0abe 095d 323e
000003c0: 70db 1cbd ca54 e33d 2041 173d d689 b33d
000003d0: 9d49 0e3e 7ff8 21be a4e4 6bbd b6ba d23d
000003e0: ee4b b03d 6957 17be 317b 493e 92a4 933d
000003f0: c0cd 5c3c f86d d9bc ac16 a0bd c1a8 16be
0.19328077 -0.19705519 -0.10486963 -0.0661592 -0.13997616 -0.14081994 -0.08949169 -0.09921703
-0.10033484 0.05341302 0.15290983 -0.119372904 -0.119611286 0.14932935 0.01668641 -0.04308249
-0.186575 0.10900308 0.20011394 -0.13609058 0.02962549 0.09366007 0.003213346 -0.18548855
0.1284884 -0.060373127 0.14173941 0.16607447 -0.095030144 -0.002985552 -0.12756766 -0.18936662
0.07220368 0.17946942 -0.20259818 0.048507407 -0.083537824 0.0058238655 -0.00603351 -0.18863688
-0.06082587 0.13737528 -0.021953776 0.13511033 0.07128231 -0.05401355 -0.11964499 0.14747287
0.19932254 0.096436694 -0.10782197 0.13204022 -0.14108233 -0.03749031 0.035554305 0.13157941
0.048046365 -0.065426126 -0.09158926 0.12919022 -0.10063198 0.07400237 -0.058803514 0.099483654
-0.16664591 -0.14091922 0.18860407 -0.16286907 0.09694366 0.11701353 0.0028180182 0.046995655
-0.06653917 0.08208515 0.1070724 -0.090006076 -0.06604734 0.11638875 0.16384767 -0.11140395
0.13232766 0.14755373 -0.2035594 0.06864835 0.08694415 -0.18801446 0.124903396 0.20824064
-0.17050275 -0.1340303 0.14735223 0.16206028 -0.11343709 -0.10874203 -0.002815187 0.14991044
-0.11138014 0.15774454 0.058031693 0.16039447 -0.06935157 -0.097571656 0.14056168 -0.12897545
-0.12226122 -0.20758978 0.07070573 -0.06985676 0.12133102 -0.046554208 -0.11196343 0.1888927
-0.18693478 0.14951377 0.09577848 0.047165647 0.13760401 -0.07995953 0.01620394 0.011534825
-0.09403502 0.12271629 -0.109896824 -0.02267547 0.1086141 -0.0085415095 0.19089462 -0.06003189
-0.07364972 0.1761892 0.20303749 -0.19690691 0.1207612 0.20766897 -0.035073027 -0.0292591
0.076938435 0.07377274 -0.0011649877 0.060194954 -0.08621769 0.17424445 0.108744875 -0.10808392
-0.120225996 0.18664713 -0.047204807 -0.04724945 -0.179376 0.0025226772 0.17948718 0.115978405
0.17791174 -0.003995642 0.1617002 -0.08966181 -0.08148286 0.05411522 -0.16538817 0.074812666
0.19491066 0.17876239 0.036726102 0.07077657 -0.046701252 0.023039117 -0.03562738 -0.0077695996
0.18339361 0.052399233 -0.08697379 -0.12341388 0.07504587 -0.19391549 0.09904994 -0.09498669
-0.05449 -0.11011194 -0.20073421 0.19721223 -0.053587154 -0.00871636 -0.06932159 -0.017866313
-0.09860948 0.12004621 0.103315964 0.03271833 -0.048015192 -0.09864925 -0.0022587478 0.03325185
0.03190969 -0.14639564 -0.07789238 0.20769213 0.033763766 -0.15030885 -0.12988691 -0.0074225515
-0.12730244 0.12943585 0.052805856 0.086453274 -0.019194812 0.08397277 -0.13150796 -0.1400223
-0.024629414 0.13206343 -0.09187287 -0.04568088 0.02144809 -0.083665535 0.070663825 0.16314767
-0.13091613 0.16129462 -0.16512518 -0.18926029 -0.14765026 0.048365816 0.098773435 -0.06600161
0.06451453 0.1798533 -0.12658527 -0.1211798 0.04909049 -0.0049111694 0.010407269 -0.109950416
0.10959993 -0.14106861 0.06371005 0.083689496 -0.0800952 0.19295983 -0.1350273 0.17418303
-0.03829521 0.111001566 0.036927342 0.087665245 0.13895269 -0.1581745 -0.057591096 0.102895185
0.086082324 -0.14779438 0.196759 0.07209124 0.013476789 -0.026541695 -0.07816824 -0.14712812

arr_7 f4 [10]
00000000: 0000 0000 0000 0000 0000 0000 0000 0000
00000010: 0000 0000 0000 0000 0000 0000 0000 0000
00000020: 0000 0000 0000 0000
0.0 0.0 0.0 0.0 0.0 0.0 0.0 0.0
0.0 0.0
