ep2-cnn/results-multiclass-haar/final_weights.npz (npz, 408070 bytes, 4 tensors)

arr_0 f4 [784, 128]
00000000: a3a2 84bd 38db 32bd ad55 873d 3696 463d
00000010: a4e3 b43c b003 a73c b639 7d3d 5866 0c3d
00000020: 0b7f 01bd 7e15 a4bc 667b 02bd bae8 84bd
00000030: e1ad 8f3d 3c7c a63c 5c7f 193d 0245 643d
00000040: 73c3 a33d 4abb babc 9c92 9b3c 4c98 58bd
00000050: 5105 2cbd b85e 44bc a0b7 303b 62e7 64bd
00000060: 6aab bbbc 9aa2 783d a08f 4ebc a68c 423d
00000070: 8f01 94bd 1483 e9bc 5527 873d 3089 f83b
00000080: 5b26 a53d 38d8 00bd 2ad7 683d a99f 3cbd
00000090: 0f19 7dbd 25d4 863d 7f14 953d 1c63 98bd
000000a0: 7c6e 86bd 980d d0bc 48c2 0ebc c6a4 6bbd
000000b0: 20df b93b 0004 ae3a f407 96bc 9092 a13b
000000c0: 2a76 703d 0b2f 7abd 9aa7 54bd 78ca 1f3c
000000d0: fac8 1b3d 6345 39bd df5d 9b3d c289 a1bd
000000e0: d086 e93b 2c98 8dbd 0e24 a4bc 6893 99bd
000000f0: 06cf 38bd 286f 323d a891 7ebd d599 6dbd
00000100: e0d2 043b 70be 2a3d 88ee 013c d69e 7f3d
00000110: e01a c9bc 301b 5d3c fd86 84bd 68d7 3e3c
00000120: 2ee0 0a3d 0008 6cbc bd46 993d 3ec9 413d
00000130: db3f 48bd 089c fe3c 6c3d 213d 7421 ad3c
00000140: 59e5 54bd c2f0 793d 8cbf 1b3d 68d8 1c3c
00000150: 44b0 263d 4eb2 2cbd 364e 373d 50e5 d53c
00000160: 5fda 853d 3513 993d 3ea2 a1bd 8ec0 4c3d
00000170: 0ec8 39bd ebc1 93bd fcb5 e33c 0326 4abd
00000180: 483d 1a3d ea30 d3bc 6771 3fbd 765c 113d
00000190: 0491 31bd 0017 e93a 72ab 24bd a891 4fbc
000001a0: 62b6 433d f704 9bbd 8077 413c c0be 8a3c
000001b0: 62e6 1b3d 303f 00bc da14 dbbc 8a9a bbbc
000001c0: 5db2 33bd f098 b23c 0848 50bd d76b 1abd
000001d0: 771d 1abd 1675 a1bc aaaa 343d 101a ee3b
000001e0: de5a 6a3d f54e 943d c2f6 3d3d 811d 843d
000001f0: 7ecf 84bd 00cb 26bb 1259 513d 96a6 093d
00000200: 0e1b 9ebc 0a80 733d 1f91 97bd 9490 8b3c
00000210: a564 893d 00c4 80bc aaa5 0ebd d2a2 8fbd
00000220: bc23 5bbd f010 dabb 58e7 7fbc 8650 65bd
00000230: fec7 59bd 3805 a23c b529 8c3d 82be dabc
00000240: bcce 8cbc ad50 8fbd 8036 fa3c 4a80 6bbd
00000250: cc56 3fbd 208e 35bc d437 9d3c 80ea 263c
00000260: 5b68 02bd cc45 993c f08c e9bc 180f 34bd
00000270: 1d7a 953d 0bda 8f3d c8d6 37bc 0ee3 3a3d
00000280: a8d6 b23c 601f d83b 3021 b6bb 8aeb 513d
00000290: d70c 953d e897 9d3c f21e 573d ed65 6abd
000002a0: 82f7 243d 6870 78bd cea6 48bd dd58 933d
000002b0: f068 7bbc 3030 8d3c beed 663d d68a 76bd
000002c0: 1e1f 18bd 00d3 1a3a 4664 01bd 1f86 903d
000002d0: 49be 8dbd 0024 d039 f618 333d 28d4 65bc
000002e0: 66d4 1c3d d38c 3dbd b7e9 a23d 00e9 193c
000002f0: 80d0 f83a 508a 0a3c 9674 103d b8bd e1bc
00000300: 900a 8abc 587b 083c 69a3 9ebd 40a3 033d
00000310: 347a 0dbd e6ce a5bc 1860 90bd 71cf 33bd
00000320: 14f5 883c 2253 07bd 5aa4 68bd 1a77 84bd
00000330: 38f8 53bd 3a28 1d3d 5928 32bd cc75 f0bc
00000340: 50d5 17bc 2463 f63c 3667 243d 2818 763c
00000350: 24be d2bc 78b3 443c 625f 1dbd 12c0 623d
00000360: 303e efbb 3280 2fbd c98d 1ebd d867 a1bd
00000370: 9dd6 52bd 9837 aabc ebf8 88bd f69b 0d3d
00000380: c060 16bc 3072 cc3c 3cc6 8b3c dce3 cc3c
00000390: a002 83bc 2ae9 58bd 7ce8 e23c fcb1 df3c
000003a0: 3c79 8abd e2d3 643d d534 46bd 5e30 483d
000003b0: 6c34 a83c 082a 0e3d 2012 5fbb 2c90 043d
000003c0: b9d3 903d 5c60 ff3c e82a fdbc 3d10 853d
000003d0: d465 cbbc bd76 973d 30c4 41bd c06f b4bb
000003e0: 1e0f 1b3d 455b 9f3d 3d97 8e3d 04e6 bb3c
000003f0: a0de 0b3d 519b 9b3d 886f bd3c 5449 983c
-0.06476333 -0.043666095 0.06608138 0.048483096 0.022081204 0.0203875 0.061822616 0.03427729
-0.0316153 -0.02002978 -0.031855963 -0.064897016 0.07015587 0.020322911 0.037474975 0.055729873
0.07996263 -0.022794385 0.018990807 -0.052879617 -0.041997258 -0.011985473 0.0026964918 -0.055884726
-0.022908885 0.060701944 -0.012607485 0.047497414 -0.0722686 -0.028504886 0.06599299 0.0075847134
0.08063956 -0.031456202 0.05684582 -0.0460507 -0.061791476 0.06583432 0.072793 -0.074407786
-0.06564042 -0.025397107 -0.008713312 -0.057530187 0.0056723505 0.0013276339 -0.01831434 0.0049308017
0.05870644 -0.06108002 -0.05191765 0.009752862 0.038033463 -0.045232188 0.07586264 -0.07887603
0.0071266666 -0.0691379 -0.020036723 -0.07498819 -0.045119308 0.043563038 -0.062150627 -0.058008034
0.0020267293 0.04168552 0.007930405 0.062407337 -0.024548948 0.013495252 -0.064710595 0.011648037
0.0339052 -0.014406204 0.074841954 0.04731106 -0.048889022 0.03108026 0.039365217 0.021134116
-0.051976535 0.06102062 0.03802447 0.00957308 0.040695444 -0.042162232 0.044752322 0.026110321
0.065357916 0.074743666 -0.07892273 0.049988322 -0.045356803 -0.07214721 0.027796738 -0.049352657
0.0376561 -0.02578016 -0.04673901 0.03548857 -0.04335119 0.0017783344 -0.040202565 -0.0126690045
0.047781356 -0.07569306 0.011808276 0.01693666 0.038061507 -0.007827565 -0.026743341 -0.022900838
-0.043871272 0.021801442 -0.050849944 -0.0377005 -0.037625756 -0.019709151 0.04410807 0.0072662905
0.057215564 0.07241622 0.046377905 0.0645094 -0.064848885 -0.0025450587 0.051110335 0.033606134
-0.01930001 0.05944828 -0.074007265 0.017036714 0.067086495 -0.01571846 -0.03482596 -0.070134774
-0.053500876 -0.006654851 -0.0156191215 -0.055984996 -0.053169243 0.01977788 0.068438925 -0.02670217
-0.017188422 -0.069978096 0.030543566 -0.057495393 -0.046713635 -0.0110812485 0.01919166 0.010187745
-0.031837802 0.01871004 -0.028509587 -0.043959707 0.07298682 0.0702401 -0.011220641 0.045626692
0.021830872 0.006595537 -0.0055581555 0.05125002 0.0727784 0.019237474 0.052519746 -0.05722611
0.040275104 -0.060654074 -0.048987202 0.07194684 -0.015344843 0.017234892 0.056379072 -0.060190998
-0.03713905 0.0005906075 -0.03158977 0.070568316 -0.0692106 0.00039699674 0.043724976 -0.014027633
0.038288496 -0.04627688 0.07954734 0.00939393 0.0018983036 0.008455828 0.035267435 -0.027556285
-0.01685074 0.008330189 -0.07746012 0.03213811 -0.03454037 -0.020240258 -0.070495784 -0.043899003
0.016718425 -0.033038266 -0.056797363 -0.06468029 -0.05175039 0.03836844 -0.04349551 -0.029353045
-0.009267166 0.03007657 0.040137492 0.015020408 -0.025725432 0.012005679 -0.038421042 0.055358954
-0.0073011145 -0.042846866 -0.038709436 -0.07881135 -0.051474202 -0.020778462 -0.06688102 0.034572564
-0.00917834 0.024956793 0.017062299 0.025010996 -0.015992463 -0.052956738 0.027698748 0.02730655
-0.06761405 0.05586613 -0.04839023 0.04887425 0.02053281 0.034708053 -0.0034037903 0.032364056
0.07071633 0.031173877 -0.030904248 0.06497238 -0.024828829 0.073956944 -0.04730624 -0.0055064857
0.037856214 0.0778108 0.0696244 0.022936828 0.03414786 0.07597984 0.023124471 0.018589653

arr_1 f4 [128]
00000000: b951 263e 0a62 73bc 5222 a53e fc03 76bc
00000010: 1aa2 873e fce0 7b3c c70e 333d 4553 0e3e
00000020: 6a28 ce3d cedf 143e 7af0 883e 9307 213e
00000030: 780a 6cbd d2eb 813e 7d47 983d fca2 b33d
00000040: 42b1 8a3e 6ccc f33d 286b d63e 0df7 813d
00000050: 7d2d 28bd 0ec6 bf3d 4dc1 ae3e 906d 313e
00000060: b763 abbb c6df d93d e551 063e d2bf b3bd
00000070: 9fbd b73d 88d4 163e 9ed2 003d 0404 3f3e
00000080: 7b56 603e f5b5 803e 9cc8 153e d364 cc3d
00000090: da0d 26bc a386 4e3e 4039 013d 9d93 2b3e
000000a0: 077d 0d3d d8e0 883d 31ce ee3c 4f9f 5d3c
000000b0: 5ddd 783e 9697 7a3e 295c 9ebc 5a3d e5bd
000000c0: 14ef 193e 8a7b ac3e b49b 2d3c 9830 963d
000000d0: 5a40 5a3c 50d6 78bd 5228 82bc 3027 163e
000000e0: 797b 173e 9085 2d3e b2e1 653e 4eb8 cf3d
000000f0: 67ce f63d 1be4 033e 32e3 163e 80e7 7cbc
00000100: 9830 4f3e 8062 553d 137a 1c3e 2811 103c
00000110: 1ccb 09bd 286a c63d d577 a43d d164 873e
00000120: ebe1 933e 8a19 b53e bfa2 bb3d 92e1 353e
00000130: 073b b1bd 8948 443e 509e b4bc 1502 a13d
00000140: d20f 1e3e a70b b83d bcbf 453e 9409 1cbc
00000150: 1c9c 623e 8db7 0a3e 3533 e7ba 4ff7 0b3e
00000160: 3cbd 0ebc adfc 623e f8d3 d13c 4bd3 8e3d
00000170: 70e1 073e 05d3 013e 20b9 6abd 877b ed3d
00000180: 2800 7c3e 6c17 373e 616d 673e 6f8b 61bc
00000190: ff2b de3d 9e3c 41bb 5c11 973e b4bf 0dbe
000001a0: abeb 583e 5493 0cbd 8e28 213d 7431 093e
000001b0: 79c7 cabc b5c8 483e bb21 933d ace6 113e
000001c0: e7f5 a03e 5dfd 223e b1de a53d b73e 15bd
000001d0: 4e30 3c3e c816 a33d 7601 113d 8916 f53d
000001e0: 2a08 c93d dcdc 6e3d 7472 d5ba 7a43 873e
000001f0: 0240 be3e 44ba 18bd 418b a83d 00ba 9dbc
0.16242112 -0.014854917 0.32252747 -0.015015598 0.2649086 0.015373465 0.043715265 0.13898952
0.10066302 0.145385 0.2674597 0.15725546 -0.05762717 0.2537523 0.0743551 0.08771321
0.27088362 0.11904225 0.4187863 0.06345949 -0.041059006 0.09363948 0.34131852 0.17326951
-0.005230393 0.106383845 0.13117178 -0.08776821 0.08971714 0.14729512 0.03145086 0.18653876
0.2190799 0.25138822 0.14627308 0.09980168 -0.010135138 0.20168547 0.03154874 0.16755529
0.034543063 0.066835105 0.029151054 0.013526752 0.24303193 0.24471888 -0.019331055 -0.111933425
0.15032607 0.33688003 0.010596205 0.07333487 0.013321007 -0.06075126 -0.015888367 0.14663386
0.14793195 0.16945481 0.22449377 0.10142575 0.12051087 0.12879984 0.14735106 -0.015436053
0.20233381 0.05209589 0.15280943 0.008793153 -0.033640966 0.096882164 0.08030669 0.26444104
0.288833 0.35371047 0.09161901 0.1776183 -0.08653837 0.19168295 -0.022048146 0.07861725
0.15435722 0.089865975 0.19311422 -0.009523768 0.22129864 0.13546582 -0.0017639162 0.1366856
-0.008712109 0.221667 0.02561377 0.06973895 0.13269591 0.12678154 -0.057305455 0.115958266
0.24609435 0.17880028 0.22600318 -0.013766154 0.10848235 -0.0029485594 0.29505432 -0.1384266
0.2118365 -0.03432019 0.039345317 0.13397771 -0.02475332 0.19607814 0.07184168 0.1424815
0.3143761 0.15916963 0.08099116 -0.036436763 0.18377802 0.079633296 0.035401784 0.11967189
0.0981601 0.058316097 -0.001628472 0.26418668 0.3715821 -0.03728701 0.082296856 -0.01925373

arr_2 f4 [128, 10]
00000000: 196a 85bf b844 0abe 9274 adbe b4e0 5a3e
00000010: 5fee c73e 26af 583e 0488 9d3d 3760 363c
00000020: 6235 4a3e aaa1 39bf 1571 5b3e 8d01 0fbd
00000030: aee5 1fbf f3ca 40bf 1611 963e 7828 eb3e
00000040: 5adc dd3e 96be 5ebe 3b8a cdbc 3c8e 883d
00000050: 3748 dfbd a4ac 0c3f a06f 69be 715a 8abf
00000060: 1b3e d13e bb8f 28be cbf4 a2be 11e1 533f
00000070: 02f7 c4be 112d dcbe f6e1 a03e 4df0 d5be
00000080: d02e abbe 7a0b 26bf 3b40 0d3f c49a 0b3e
00000090: 7acb ed3e 60e9 273c 9473 263e d86a 0bbf
000000a0: 2a18 14bf 86ea 7c3c b506 20bf 82e6 35bf
000000b0: 04c7 2abf ba17 2f3f 192e b5be 59f6 c93e
000000c0: 3f3c 85bc 3d86 bcbe 39fb d93d ff0f fc3d
000000d0: 643d 78bc bb75 d53d 6951 a1be 99ac b0be
000000e0: 838e a7be 2b24 b2bd dee7 e3be 84a5 3d3f
000000f0: 8cec 8c3e b202 113e ae99 76be 5c88 9a3e
00000100: fd3c 2abf c50b babe d1e8 05bf 0a7e 923e
00000110: ec61 a53c c360 e3be ce1d e0be 5054 0d3e
00000120: ff41 d0be 90e5 be3d 9e85 bcbe 9353 53bf
00000130: 6d4e f73e a13d 063e d361 4d3e d636 05be
00000140: d4e6 c9bd 615b 9dbe 2525 6ebe d971 fc3d
00000150: 572e b4bc 3cd2 31be 5693 96be 024a 2bbe
00000160: 6a38 973e 3883 8abe 6aa7 a33b 1c14 c0be
00000170: 7405 e2bd 0d11 3abe 7976 003e 2e3e 5ebd
00000180: 977e 173e 47d2 1cbe 2a1c 8abe cbd2 5bbe
00000190: a393 a3bd 8be3 9c3e ead1 a1be 5804 f03d
000001a0: 4cbf 243f 99ac 15bd 0c33 8ebe 2dfb 39bf
000001b0: 5fb3 62be a490 8ebf 4de6 efbc 4855 1a3f
000001c0: 559b 71bf 1926 00bf 7ded da3d ea70 053f
000001d0: 7704 e23d 9a26 203f b371 4abf bbf8 cebd
000001e0: c0be 593f 66d2 12bf f42b c5bd c6b9 06be
000001f0: a412 9b3e 86e9 a2bf e09f cfbe d22b c5bd
00000200: 599e 05bf 960d 9e3e 4a66 513e 02b6 d2be
00000210: c100 833e 4120 d63b cb03 06bf c27d 293e
00000220: a208 7b3e b376 3abf aed3 82be 1d25 1abf
00000230: e07f 9b3d dc14 c1be d114 873e c1b4 2cbd
00000240: 7296 b4be 234c 76be f069 a3bd 7af6 673e
00000250: 07fc 29bd 773d dfbe a72c 32bd 818d 7d39
00000260: 78ad 5cbe a799 51be 42c9 75be 92a6 78be
00000270: 8b78 56bd ef55 3e3d 4de0 c3bb 23ef bbbc
00000280: 2a84 6e3c 1c97 953f 1cd9 c6be e0e7 01bf
00000290: 1976 033e 37a4 82bf 8c64 303f fdce 893e
000002a0: b9d1 b7be 48e7 9cbf 829a b63e c68a 593b
000002b0: 3842 4fbf b9e6 c63d 85b4 07bf b234 ab3e
000002c0: 49e4 bc3e ebb7 0f3d cdda 0cbf cd89 2f3d
000002d0: f2dc 31bf 06ae d0be c586 5bbe f496 fdbe
000002e0: 3500 d33e ea63 c93e 8c0d 0fbf 5baa cc3c
000002f0: ece9 6cbf 9e72 85bd cef8 a3be 0b79 f1bd
00000300: 3789 833e c1a4 7c3c e56e 5dbf e4c5 f73e
00000310: 66d1 953e 0874 0c3f 296e 1f3d c0ee a4be
00000320: a46a 433d f687 3c3e f1e5 80be 4e84 c4bd
00000330: 9429 3c3f eecd b9bc 389b 4fbc dc86 c33e
00000340: 97fd 813c 8a96 4dbf 3596 4bbe 0278 653e
00000350: f56a aebe 28b6 65be faab c1be 8f8a fc3c
00000360: 8ff1 363e fa47 82be 7c88 0a3e 0b44 c7be
00000370: a0ca 86be 578c c4be 0102 c7be a11d 07bf
00000380: 8814 aebd 2f09 33bf 2375 d33e 866d ca3e
00000390: 0bca 54bf b0ee aa3d ce0c b3be 69ca 48be
000003a0: 5cb3 793e e20c c3be af0d a1be 8d43 b5be
000003b0: 9a30 b5be 1d10 013e 8f1e 04bf d804 1a3e
000003c0: fb6d c03d f918 f13d e6ea 853d 69a5 8cbe
000003d0: 58a1 c83c 0949 553e 8515 cdbd e87d 94bd
000003e0: 69ff 273e 73f5 fc3d 1ccf 2bbc dfd2 133e
000003f0: dfd0 6ebe 61ec 2fbf 3249 09bf d58d 6f3d
-1.0423003 -0.13502777 -0.33878 0.2137478 0.3904905 0.21160564 0.076919585 0.011131338
0.19746926 -0.72512305 0.21429856 -0.03491359 -0.6245984 -0.75309676 0.2930991 0.45929313
0.43332177 -0.2175239 -0.025090327 0.06667754 -0.10902446 0.5495093 -0.22796488 -1.080885
0.40867695 -0.16461079 -0.31827387 0.827653 -0.38469702 -0.43003133 0.31422395 -0.41784897
-0.33434153 -0.6486126 0.5517613 0.13633257 0.46444303 0.010248512 0.16255027 -0.54459906
-0.5784937 0.015436774 -0.62510234 -0.7105485 -0.66709924 0.6839558 -0.35386732 0.3944576
-0.01626408 -0.36821166 0.1064362 0.123077385 -0.015151355 0.10422846 -0.31507424 -0.34506682
-0.32725915 -0.08698305 -0.44512838 0.7408068 0.2752422 0.14161184 -0.24082062 0.3018216
-0.6649931 -0.36337104 -0.52308375 0.28611785 0.020188294 -0.4440976 -0.4377274 0.13801694
-0.4067535 0.09321129 -0.36820692 -0.825494 0.48302022 0.13109447 0.20056848 -0.130092
-0.0985848 -0.3073378 -0.23256357 0.12326402 -0.021994753 -0.17365354 -0.29409283 -0.1672745
0.29535228 -0.27053237 0.0049943225 -0.37515342 -0.11036196 -0.18170567 0.12545194 -0.054258518
0.14794384 -0.1531459 -0.26974612 -0.2146713 -0.07987144 0.30642352 -0.31605464 0.117195785
0.64354396 -0.036541555 -0.2777332 -0.7264889 -0.22138737 -1.1137891 -0.02928462 0.6028638
-0.9437764 -0.5005813 0.106898285 0.5212542 0.11036008 0.625589 -0.7907974 -0.10106035
0.85056686 -0.5735229 -0.09627524 -0.13156804 0.3028766 -1.2727516 -0.40551662 -0.09627499
-0.52194744 0.3086974 0.20449176 -0.41154486 0.25586513 0.0065346067 -0.5234954 0.16551879
0.24515012 -0.7283737 -0.25552124 -0.6021288 0.075927496 -0.37711227 0.2638307 -0.042164568
-0.3527103 -0.24052481 -0.0797919 0.22652617 -0.041500118 -0.4360158 -0.043499615 0.00024180675
-0.21550548 -0.2046877 -0.24002555 -0.24282292 -0.052361052 0.04646867 -0.0059776665 -0.022941178
0.014557878 1.168674 -0.38837516 -0.5074444 0.1283802 -1.0206364 0.6890342 0.26915732
-0.35902193 -1.2258081 0.35664755 0.0033194288 -0.80960417 0.097119756 -0.53009826 0.3343864
0.36892918 0.035087507 -0.55021363 0.042856026 -0.6947776 -0.4075777 -0.21438129 -0.4952923
0.41211095 0.3933404 -0.55880046 0.024983576 -0.92544436 -0.06516002 -0.3202576 -0.11790665
0.25690624 0.01542014 -0.86497337 0.48393166 0.2926132 0.5486455 0.038923416 -0.32213402
0.047709122 0.1841124 -0.2517543 -0.095955476 0.73500943 -0.022681203 -0.012671284 0.38188827
0.015867991 -0.8030783 -0.19881518 0.2240906 -0.34065977 -0.22432768 -0.3782652 0.030827789
0.17865585 -0.2544554 0.13528627 -0.389191 -0.26326466 -0.3838832 -0.38868716 -0.52779585
-0.0850001 -0.6993589 0.41300306 0.39536685 -0.83120793 0.08346307 -0.34970707 -0.19608463
0.24384826 -0.38095766 -0.31455752 -0.354031 -0.35388643 0.12603803 -0.5160913 0.1504091
0.09395977 0.11772341 0.06538944 -0.27469948 0.024490997 0.20828642 -0.1001387 -0.07250577
0.16406025 0.12351503 -0.01048639 0.1443591 -0.23321865 -0.6872006 -0.5362731 0.05848487

arr_3 f4 [10]
00000000: 2495 cbbd 7347 cabd 97d0 4bbd 43ed d4bd
00000010: d0e4 39bd ae3c e2bc c9f7 a8bd feba 9dbd
00000020: 8f46 a3bd 78ea 74bd
-0.09940556 -0.09876909 -0.049759474 -0.103968166 -0.04538423 -0.027616825 -0.08250386 -0.077016816
-0.07972442 -0.05979392
