ep2-cnn/results-multiclass-haar/initial_weights.npz (npz, 408070 bytes, 4 tensors)

arr_0 f4 [784, 128]
0	0xbd84a2a3	-0.06476333
1	0xbd32db38	-0.043666095
2	0x3d8755ad	0.06608138
3	0x3d469636	0.048483096
4	0x3cb4e3a4	0.022081204
5	0x3ca703b0	0.0203875
6	0x3d7d39b6	0.061822616
7	0x3d0c6658	0.03427729
8	0xbd017f0b	-0.0316153
9	0xbca4157e	-0.02002978
10	0xbd027b66	-0.031855963
11	0xbd84e8ba	-0.064897016
12	0x3d8fade1	0.07015587
13	0x3ca67c3c	0.020322911
14	0x3d197f5c	0.037474975
15	0x3d644502	0.055729873
16	0x3da3c373	0.07996263
17	0xbcbabb4a	-0.022794385
18	0x3c9b929c	0.018990807
19	0xbd58984c	-0.052879617
20	0xbd2c0551	-0.041997258
21	0xbc445eb8	-0.011985473
22	0x3b30b7a0	0.0026964918
23	0xbd64e762	-0.055884726
24	0xbcbbab6a	-0.022908885
25	0x3d78a29a	0.060701944
26	0xbc4e8fa0	-0.012607485
27	0x3d428ca6	0.047497414
28	0xbd94018f	-0.0722686
29	0xbce98314	-0.028504886
30	0x3d872755	0.06599299
31	0x3bf88930	0.0075847134
32	0x3da5265b	0.08063956
33	0xbd00d838	-0.031456202
34	0x3d68d72a	0.05684582
35	0xbd3c9fa9	-0.0460507
36	0xbd7d190f	-0.061791476
37	0x3d86d425	0.06583432
38	0x3d95147f	0.072793
39	0xbd98631c	-0.074407786
40	0xbd866e7c	-0.06564042
41	0xbcd00d98	-0.025397107
42	0xbc0ec248	-0.008713312
43	0xbd6ba4c6	-0.057530187
44	0x3bb9df20	0.0056723505
45	0x3aae0400	0.0013276339
46	0xbc9607f4	-0.01831434
47	0x3ba19290	0.0049308017
48	0x3d70762a	0.05870644
49	0xbd7a2f0b	-0.06108002
50	0xbd54a79a	-0.05191765
51	0x3c1fca78	0.009752862
52	0x3d1bc8fa	0.038033463
53	0xbd394563	-0.045232188
54	0x3d9b5ddf	0.07586264
55	0xbda189c2	-0.07887603
56	0x3be986d0	0.0071266666
57	0xbd8d982c	-0.0691379
58	0xbca4240e	-0.020036723
59	0xbd999368	-0.07498819
60	0xbd38cf06	-0.045119308
61	0x3d326f28	0.043563038
62	0xbd7e91a8	-0.062150627
63	0xbd6d99d5	-0.058008034
64	0x3b04d2e0	0.0020267293
65	0x3d2abe70	0.04168552
66	0x3c01ee88	0.007930405
67	0x3d7f9ed6	0.062407337
68	0xbcc91ae0	-0.024548948
69	0x3c5d1b30	0.013495252
70	0xbd8486fd	-0.064710595
71	0x3c3ed768	0.011648037
72	0x3d0ae02e	0.0339052
73	0xbc6c0800	-0.014406204
74	0x3d9946bd	0.074841954
75	0x3d41c93e	0.04731106
76	0xbd483fdb	-0.048889022
77	0x3cfe9c08	0.03108026
78	0x3d213d6c	0.039365217
79	0x3cad2174	0.021134116
80	0xbd54e559	-0.051976535
81	0x3d79f0c2	0.06102062
82	0x3d1bbf8c	0.03802447
83	0x3c1cd868	0.00957308
84	0x3d26b044	0.040695444
85	0xbd2cb24e	-0.042162232
86	0x3d374e36	0.044752322
87	0x3cd5e550	0.026110321
88	0x3d85da5f	0.065357916
89	0x3d991335	0.074743666
90	0xbda1a23e	-0.07892273
91	0x3d4cc08e	0.049988322
92	0xbd39c80e	-0.045356803
93	0xbd93c1eb	-0.07214721
94	0x3ce3b5fc	0.027796738
95	0xbd4a2603	-0.049352657
96	0x3d1a3d48	0.0376561
97	0xbcd330ea	-0.02578016
98	0xbd3f7167	-0.04673901
99	0x3d115c76	0.03548857
100	0xbd319104	-0.04335119
101	0x3ae91700	0.0017783344
102	0xbd24ab72	-0.040202565
103	0xbc4f91a8	-0.0126690045
104	0x3d43b662	0.047781356
105	0xbd9b04f7	-0.07569306
106	0x3c417780	0.011808276
107	0x3c8abec0	0.01693666
108	0x3d1be662	0.038061507
109	0xbc003f30	-0.007827565
110	0xbcdb14da	-0.026743341
111	0xbcbb9a8a	-0.022900838
112	0xbd33b25d	-0.043871272
113	0x3cb298f0	0.021801442
114	0xbd504808	-0.050849944
115	0xbd1a6bd7	-0.0377005
116	0xbd1a1d77	-0.037625756
117	0xbca17516	-0.019709151
118	0x3d34aaaa	0.04410807
119	0x3bee1a10	0.0072662905
120	0x3d6a5ade	0.057215564
121	0x3d944ef5	0.07241622
122	0x3d3df6c2	0.046377905
123	0x3d841d81	0.0645094
124	0xbd84cf7e	-0.064848885
125	0xbb26cb00	-0.0025450587
126	0x3d515912	0.051110335
127	0x3d09a696	0.033606134
128	0xbc9e1b0e	-0.01930001
129	0x3d73800a	0.05944828
130	0xbd97911f	-0.074007265
131	0x3c8b9094	0.017036714
132	0x3d8964a5	0.067086495
133	0xbc80c400	-0.01571846
134	0xbd0ea5aa	-0.03482596
135	0xbd8fa2d2	-0.070134774
136	0xbd5b23bc	-0.053500876
137	0xbbda10f0	-0.006654851
138	0xbc7fe758	-0.0156191215
139	0xbd655086	-0.055984996
140	0xbd59c7fe	-0.053169243
141	0x3ca20538	0.01977788
142	0x3d8c29b5	0.068438925
143	0xbcdabe82	-0.02670217
144	0xbc8ccebc	-0.017188422
145	0xbd8f50ad	-0.069978096
146	0x3cfa3680	0.030543566
147	0xbd6b804a	-0.057495393
148	0xbd3f56cc	-0.046713635
149	0xbc358e20	-0.0110812485
150	0x3c9d37d4	0.01919166
151	0x3c26ea80	0.010187745
152	0xbd02685b	-0.031837802
153	0x3c9945cc	0.01871004
154	0xbce98cf0	-0.028509587
155	0xbd340f18	-0.043959707
156	0x3d957a1d	0.07298682
157	0x3d8fda0b	0.0702401
158	0xbc37d6c8	-0.011220641
159	0x3d3ae30e	0.045626692
160	0x3cb2d6a8	0.021830872
161	0x3bd81f60	0.006595537
162	0xbbb62130	-0.0055581555
163	0x3d51eb8a	0.05125002
164	0x3d950cd7	0.0727784
165	0x3c9d97e8	0.019237474
166	0x3d571ef2	0.052519746
167	0xbd6a65ed	-0.05722611
168	0x3d24f782	0.040275104
169	0xbd787068	-0.060654074
170	0xbd48a6ce	-0.048987202
171	0x3d9358dd	0.07194684
172	0xbc7b68f0	-0.015344843
173	0x3c8d3030	0.017234892
174	0x3d66edbe	0.056379072
175	0xbd768ad6	-0.060190998
176	0xbd181f1e	-0.03713905
177	0x3a1ad300	0.0005906075
178	0xbd016446	-0.03158977
179	0x3d90861f	0.070568316
180	0xbd8dbe49	-0.0692106
181	0x39d02400	0.00039699674
182	0x3d3318f6	0.043724976
183	0xbc65d428	-0.014027633
184	0x3d1cd466	0.038288496
185	0xbd3d8cd3	-0.04627688
186	0x3da2e9b7	0.07954734
187	0x3c19e900	0.00939393
188	0x3af8d080	0.0018983036
189	0x3c0a8a50	0.008455828
190	0x3d107496	0.035267435
191	0xbce1bdb8	-0.027556285
192	0xbc8a0a90	-0.01685074
193	0x3c087b58	0.008330189
194	0xbd9ea369	-0.07746012
195	0x3d03a340	0.03213811
196	0xbd0d7a34	-0.03454037
197	0xbca5cee6	-0.020240258
198	0xbd906018	-0.070495784
199	0xbd33cf71	-0.043899003
200	0x3c88f514	0.016718425
201	0xbd075322	-0.033038266
202	0xbd68a45a	-0.056797363
203	0xbd84771a	-0.06468029
204	0xbd53f838	-0.05175039
205	0x3d1d283a	0.03836844
206	0xbd322859	-0.04349551
207	0xbcf075cc	-0.029353045
208	0xbc17d550	-0.009267166
209	0x3cf66324	0.03007657
210	0x3d246736	0.040137492
211	0x3c761828	0.015020408
212	0xbcd2be24	-0.025725432
213	0x3c44b378	0.012005679
214	0xbd1d5f62	-0.038421042
215	0x3d62c012	0.055358954
216	0xbbef3e30	-0.0073011145
217	0xbd2f8032	-0.042846866
218	0xbd1e8dc9	-0.038709436
219	0xbda167d8	-0.07881135
220	0xbd52d69d	-0.051474202
221	0xbcaa3798	-0.020778462
222	0xbd88f8eb	-0.06688102
223	0x3d0d9bf6	0.034572564
224	0xbc1660c0	-0.00917834
225	0x3ccc7230	0.024956793
226	0x3c8bc63c	0.017062299
227	0x3ccce3dc	0.025010996
228	0xbc8302a0	-0.015992463
229	0xbd58e92a	-0.052956738
230	0x3ce2e87c	0.027698748
231	0x3cdfb1fc	0.02730655
232	0xbd8a793c	-0.06761405
233	0x3d64d3e2	0.05586613
234	0xbd4634d5	-0.04839023
235	0x3d48305e	0.04887425
236	0x3ca8346c	0.02053281
237	0x3d0e2a08	0.034708053
238	0xbb5f1220	-0.0034037903
239	0x3d04902c	0.032364056
240	0x3d90d3b9	0.07071633
241	0x3cff605c	0.031173877
242	0xbcfd2ae8	-0.030904248
243	0x3d85103d	0.06497238
244	0xbccb65d4	-0.024828829
245	0x3d9776bd	0.073956944
246	0xbd41c430	-0.04730624
247	0xbbb46fc0	-0.0055064857
248	0x3d1b0f1e	0.037856214
249	0x3d9f5b45	0.0778108
250	0x3d8e973d	0.0696244
251	0x3cbbe604	0.022936828
252	0x3d0bdea0	0.03414786
253	0x3d9b9b51	0.07597984
254	0x3cbd6f88	0.023124471
255	0x3c984954	0.018589653

arr_1 f4 [128]
0	0x00000000	0.0
1	0x00000000	0.0
2	0x00000000	0.0
3	0x00000000	0.0
4	0x00000000	0.0
5	0x00000000	0.0
6	0x00000000	0.0
7	0x00000000	0.0
8	0x00000000	0.0
9	0x00000000	0.0
10	0x00000000	0.0
11	0x00000000	0.0
12	0x00000000	0.0
13	0x00000000	0.0
14	0x00000000	0.0
15	0x00000000	0.0
16	0x00000000	0.0
17	0x00000000	0.0
18	0x00000000	0.0
19	0x00000000	0.0
20	0x00000000	0.0
21	0x00000000	0.0
22	0x00000000	0.0
23	0x00000000	0.0
24	0x00000000	0.0
25	0x00000000	0.0
26	0x00000000	0.0
27	0x00000000	0.0
28	0x00000000	0.0
29	0x00000000	0.0
30	0x00000000	0.0
31	0x00000000	0.0
32	0x00000000	0.0
33	0x00000000	0.0
34	0x00000000	0.0
35	0x00000000	0.0
36	0x00000000	0.0
37	0x00000000	0.0
38	0x00000000	0.0
39	0x00000000	0.0
40	0x00000000	0.0
41	0x00000000	0.0
42	0x00000000	0.0
43	0x00000000	0.0
44	0x00000000	0.0
45	0x00000000	0.0
46	0x00000000	0.0
47	0x00000000	0.0
48	0x00000000	0.0
49	0x00000000	0.0
50	0x00000000	0.0
51	0x00000000	0.0
52	0x00000000	0.0
53	0x00000000	0.0
54	0x00000000	0.0
55	0x00000000	0.0
56	0x00000000	0.0
57	0x00000000	0.0
58	0x00000000	0.0
59	0x00000000	0.0
60	0x00000000	0.0
61	0x00000000	0.0
62	0x00000000	0.0
63	0x00000000	0.0
64	0x00000000	0.0
65	0x00000000	0.0
66	0x00000000	0.0
67	0x00000000	0.0
68	0x00000000	0.0
69	0x00000000	0.0
70	0x00000000	0.0
71	0x00000000	0.0
72	0x00000000	0.0
73	0x00000000	0.0
74	0x00000000	0.0
75	0x00000000	0.0
76	0x00000000	0.0
77	0x00000000	0.0
78	0x00000000	0.0
79	0x00000000	0.0
80	0x00000000	0.0
81	0x00000000	0.0
82	0x00000000	0.0
83	0x00000000	0.0
84	0x00000000	0.0
85	0x00000000	0.0
86	0x00000000	0.0
87	0x00000000	0.0
88	0x00000000	0.0
89	0x00000000	0.0
90	0x00000000	0.0
91	0x00000000	0.0
92	0x00000000	0.0
93	0x00000000	0.0
94	0x00000000	0.0
95	0x00000000	0.0
96	0x00000000	0.0
97	0x00000000	0.0
98	0x00000000	0.0
99	0x00000000	0.0
100	0x00000000	0.0
101	0x00000000	0.0
102	0x00000000	0.0
103	0x00000000	0.0
104	0x00000000	0.0
105	0x00000000	0.0
106	0x00000000	0.0
107	0x00000000	0.0
108	0x00000000	0.0
109	0x00000000	0.0
110	0x00000000	0.0
111	0x00000000	0.0
112	0x00000000	0.0
113	0x00000000	0.0
114	0x00000000	0.0
115	0x00000000	0.0
116	0x00000000	0.0
117	0x00000000	0.0
118	0x00000000	0.0
119	0x00000000	0.0
120	0x00000000	0.0
121	0x00000000	0.0
122	0x00000000	0.0
123	0x00000000	0.0
124	0x00000000	0.0
125	0x00000000	0.0
126	0x00000000	0.0
127	0x00000000	0.0

arr_2 f4 [128, 10]
0	0xbe1e4621	-0.1545644
1	0x3cd6e6d8	0.026233122
2	0xbe3723a8	-0.17884696
3	0x3e43e7bb	0.19131367
4	0x3e1b1a47	0.15146743
5	0x3dc2acca	0.09505613
6	0x3da338ba	0.07969804
7	0xbda3bfd0	-0.0799557
8	0x3d263c48	0.040584832
9	0xbdcb2ed5	-0.09921042
10	0x3e0458b9	0.1292447
11	0x3db0711a	0.086153224
12	0x3c0ad940	0.008474648
13	0xbddc2a62	-0.107502714
14	0x3e0693db	0.1314234
15	0x3d69df2c	0.0570976
16	0x3e3526a3	0.1769052
17	0xbd9da0e8	-0.07696706
18	0x3d887d1a	0.06664486
19	0xbd044de0	-0.03230083
20	0x3d856ed6	0.06515281
21	0x3e07efb7	0.13275038
22	0xbd5ead80	-0.05436468
23	0xbe41a51d	-0.18910642
24	0x3dd3333e	0.10312508
25	0xbd008ca0	-0.03138411
26	0x3bb4d100	0.005518079
27	0x3e3bc037	0.18335043
28	0x3d0c5304	0.034258857
29	0xbd81c27c	-0.06335923
30	0x3e4f2e7b	0.20232575
31	0xbe4166f0	-0.18886924
32	0x3cfb3240	0.03066361
33	0xbe0edf36	-0.13952336
34	0x3e1dbdab	0.15404384
35	0x3df121e2	0.11774041
36	0x3e46b393	0.1940444
37	0x3dc7cf36	0.09756319
38	0x3e29f9d1	0.16599204
39	0xbe07c9ca	-0.1326057
40	0xbcbff588	-0.023432508
41	0x3e0d7859	0.1381544
42	0xbe32a699	-0.17446364
43	0xbe421fa1	-0.18957378
44	0x3c08a7f0	0.008340821
45	0x3e3dc10d	0.18530674
46	0xbe553306	-0.20820245
47	0x3e41aac5	0.189128
48	0xbd027458	-0.031849235
49	0xbe1b7cb9	-0.15184297
50	0x3d45d95c	0.048302993
51	0x3e24a967	0.16080247
52	0x3dee8fa6	0.116484925
53	0x3d519d04	0.051175132
54	0x3c401ca0	0.011725575
55	0xbd5b4200	-0.05352974
56	0xbe454ba3	-0.19267134
57	0xbb8514c0	-0.0040613115
58	0xbe381edd	-0.17980523
59	0x3e3e63ff	0.18592833
60	0x3dd831de	0.105563864
61	0x3de0837e	0.1096258
62	0xbda2b6de	-0.079450354
63	0x3e26d9f1	0.16294076
64	0xbe063aa4	-0.13108307
65	0xbda8450c	-0.08216295
66	0xbe38f20a	-0.1806108
67	0x3e4e1b33	0.20127563
68	0x3d3905c4	0.045171514
69	0xbe1cb153	-0.15302019
70	0xbe542094	-0.20715553
71	0x3d8a3162	0.067477
72	0xbde2adaa	-0.1106828
73	0x3d8e725a	0.069554046
74	0xbc8a6da8	-0.016897991
75	0xbe293576	-0.165243
76	0x3e36228b	0.17786615
77	0x3e0ad2f7	0.13557039
78	0x3d6512cc	0.05592613
79	0x3adf0800	0.0017015934
80	0xbd1b66c8	-0.037939817
81	0xbe469081	-0.19391061
82	0xbe3286e4	-0.17434269
83	0x3e0716d1	0.13192298
84	0xbbbaf1c0	-0.0057050884
85	0xbd8eaa44	-0.06966069
86	0xbe4dc468	-0.20094454
87	0xbdb142d6	-0.08655326
88	0x3e50215d	0.20325227
89	0xbe46f5f8	-0.19429767
90	0x3d844682	0.06458761
91	0xbe411f5a	-0.18859616
92	0xbd476e64	-0.04868926
93	0xbd2ba390	-0.041904032
94	0x3db10fb2	0.08645572
95	0x3d01d8b0	0.03170079
96	0x3e259b1d	0.16172452
97	0x3bcfcb00	0.006341338
98	0xbe09afdc	-0.13445991
99	0xbe1619f9	-0.14658345
100	0x3d115694	0.035482958
101	0x3d3a25fc	0.04544638
102	0xbe0aa794	-0.13540488
103	0x3ddd653e	0.10810326
104	0x3e0a76f5	0.13521941
105	0x3c1721a0	0.009224325
106	0xbd60b060	-0.054855704
107	0xbe2ff65c	-0.17183822
108	0xbe038a38	-0.12845695
109	0xbe15b578	-0.14620006
110	0xbdf8005d	-0.12109444
111	0x3e3c15dd	0.18367715
112	0xbbd78340	-0.0065769255
113	0x3d64baf4	0.055842355
114	0x3dba7c0e	0.09105693
115	0x3e19ff09	0.15038694
116	0x3b82b300	0.0039886236
117	0x3e25677d	0.16152759
118	0xbe14ab4d	-0.14518471
119	0xbd959a14	-0.07304779
120	0x3e39d879	0.18148984
121	0xbd87c984	-0.06630233
122	0x3bc9cc40	0.0061583817
123	0x3dc09712	0.094038144
124	0x3ddb5756	0.107100174
125	0xbc042030	-0.008064315
126	0xbda90c34	-0.08254281
127	0xbb2c1a40	-0.0026260763
128	0x3d380e04	0.04493524
129	0x3d91e6ca	0.07124098
130	0x3e0acb99	0.13554229
131	0xbdbd1d01	-0.09234048
132	0x3e1d9bf5	0.15391524
133	0x3db7cd5e	0.089747176
134	0xbd810592	-0.062998906
135	0x3e34dffd	0.1766357
136	0x3e29b209	0.16571821
137	0xbe3bf9ff	-0.18357085
138	0xbd8a5f22	-0.067564264
139	0xbe406072	-0.18786791
140	0x3dc26512	0.09491934
141	0xbe4d4155	-0.20044453
142	0x3e351771	0.17684723
143	0x3d25b9c0	0.040460348
144	0xbe28f544	-0.16499811
145	0xbddd791a	-0.10814114
146	0x3d5dc344	0.054141298
147	0x3e1d27e7	0.15347253
148	0x3d18b324	0.037280217
149	0xbe3f579b	-0.18685763
150	0xbc8b59b0	-0.01701054
151	0x3dacc566	0.08436088
152	0xbe1dba02	-0.15402988
153	0xbe1f9e9f	-0.15587853
154	0xbe0956fc	-0.13412088
155	0xbe01881c	-0.12649578
156	0xbd3dbf00	-0.04632473
157	0x3d9cd5de	0.076579794
158	0xbd04470c	-0.032294318
159	0xbd5859e8	-0.052820116
160	0x3e4a83d7	0.19776855
161	0x3e4f667f	0.20253943
162	0xbdb3f1a1	-0.087863214
163	0xbd2dbed4	-0.042418316
164	0xbc9455d0	-0.018107325
165	0xbe147931	-0.14499356
166	0x3e4ca977	0.1998652
167	0x3d5a152c	0.053242847
168	0xbca9c6d8	-0.020724699
169	0xbe4671dd	-0.19379373
170	0x3e3088a1	0.1723962
171	0x3def97b6	0.116988584
172	0xbe0bb44d	-0.13642998
173	0xbca60a30	-0.02026853
174	0xbdfd44ab	-0.12366613
175	0x3e191c87	0.14952289
176	0x3dd8ece2	0.10592057
177	0x3e038b07	0.12846003
178	0xbe3f2ad0	-0.18668675
179	0xbd3d2078	-0.046173543
180	0xbdb1d334	-0.08682862
181	0xbdb0a9f8	-0.08626169
182	0xbdad33f0	-0.08457172
183	0x3c29f750	0.010373905
184	0x3e548139	0.2075242
185	0x3e1308ab	0.14358775
186	0xbc1ba2c0	-0.009499252
187	0x3db3ea32	0.087849036
188	0xbe35e479	-0.17762937
189	0x3b97dc40	0.00463441
190	0xbdead96e	-0.11467253
191	0x3de5e6a6	0.11225633
192	0x3df168b2	0.11787547
193	0x3d9a5376	0.0753545
194	0xbe468119	-0.19385184
195	0x3db68482	0.089119926
196	0x3e470c3b	0.1943826
197	0x3e149e41	0.14513494
198	0x3e2dae17	0.16960941
199	0xbe4a5de3	-0.19762377
200	0x3e13dce5	0.14439733
201	0x3e07dd43	0.13267998
202	0xbe0323c6	-0.12806615
203	0x3d9c4b86	0.076315925
204	0x3e45bd11	0.19310404
205	0x3c2a3540	0.010388672
206	0x3d5f8f34	0.05457993
207	0x3e3a9783	0.1822186
208	0xbd775ff8	-0.060394257
209	0xbe23f76c	-0.16012353
210	0xbc7f5a50	-0.015585497
211	0x3e4f6af9	0.2025565
212	0xbe4dfc47	-0.20115767
213	0xbd6e2a80	-0.058146
214	0xbe25c1d8	-0.16187227
215	0x3d8d776a	0.06907542
216	0x3e022ad5	0.12711652
217	0xbd957b7a	-0.07298942
218	0x3da395d2	0.0798756
219	0xbdee6a33	-0.1164135
220	0x3d57758c	0.052602336
221	0x3d6d6264	0.05795516
222	0xbe344952	-0.17606094
223	0xbbb0f6a0	-0.0054004937
224	0x3db4e7ea	0.088332966
225	0x3bc721a0	0.0060770065
226	0x3d7d02fc	0.061770424
227	0x3e36e35f	0.17860173
228	0xbe0274de	-0.12739894
229	0xbc8c3d80	-0.01711917
230	0xbe23b174	-0.15985662
231	0x3d832782	0.0640402
232	0x3e2901f9	0.16504659
233	0xbe204446	-0.15651044
234	0xbd91ebe0	-0.07125068
235	0xbe0dcba2	-0.13847211
236	0xbe46338b	-0.193556
237	0x3dadcbe6	0.08486156
238	0xbe0c85d2	-0.13722923
239	0x3c886298	0.016648576
240	0x3dfe67c2	0.12422134
241	0x3e0cb113	0.13739423
242	0x3da729fe	0.08162306
243	0xbe1a6990	-0.15079331
244	0x3d28d8f0	0.041222513
245	0x3e053497	0.13008343
246	0xbc906da8	-0.017630413
247	0xbd454a90	-0.04816681
248	0x3e237427	0.15962277
249	0x3e1113b3	0.14167671
250	0x3e09105f	0.13385151
251	0x3dfb623e	0.122745976
252	0xbe3a1847	-0.18173324
253	0xbe31d11b	-0.17364924
254	0xbde8f8d4	-0.11375585
255	0x3e02f421	0.1278844

arr_3 f4 [10]
0	0x00000000	0.0
1	0x00000000	0.0
2	0x00000000	0.0
3	0x00000000	0.0
4	0x00000000	0.0
5	0x00000000	0.0
6	0x00000000	0.0
7	0x00000000	0.0
8	0x00000000	0.0
9	0x00000000	0.0
