ep2-cnn/results-binary-brute/final_weights.npz (npz, 897450 bytes, 7 tensors)

arr_0 f4 [3, 3, 1, 32]
-0.19661967 0.1373614 0.051986575 0.14364977 0.12940493 -0.20079543 0.12681869 -0.054307666
-0.07494438 0.1179689 0.17135099 0.1036189 0.007983218 0.089924715 0.08963167 -0.25814986
0.04606275 -0.14634506 0.005963637 -0.056604236 -0.006161858 -0.1709341 -0.16197386 0.103799775
0.05449002 0.112617835 -0.0205298 0.107974224 -0.029546874 0.19921672 0.046127442 0.046947252
-0.05589497 0.115322456 -0.004975495 -0.01759807 -0.012814413 0.075783506 0.008383261 0.2402183
8.6591914e-05 0.023426788 0.1112517 0.16998705 0.07277584 -0.022675013 0.013640786 -0.18161415
0.051588908 -0.05110862 0.19758181 0.11802167 -0.09475547 0.12015543 -0.16628471 -0.07683248
0.10939054 0.0013485746 0.20427182 -0.014680759 -0.09494343 -0.045532312 0.1538629 0.11709618
0.2563369 -0.112468384 0.056162044 0.06861662 -0.105606414 0.03926415 -0.009189612 0.13166924
-0.10401948 0.069961466 -0.054976225 0.10368785 -0.14738238 0.1625201 -0.0774972 -0.09953435
-0.041890927 0.0986473 -0.09192415 -0.0004719772 -0.120576344 0.026429206 -0.26911855 -0.18220612
0.030033613 0.008685708 0.18269238 -0.19444373 -0.20135047 -0.08689786 -0.004037887 -0.22518843
0.020202095 0.04886222 -0.14885 0.037839256 0.14452414 -0.07441682 0.16249095 -0.31481934
0.074069574 0.10596703 -0.17993283 0.13425578 -0.1729443 0.13609527 0.07533804 -0.12229273
0.09898606 -0.16839673 0.121437185 0.11786962 -0.051356837 0.11835154 0.089234814 -0.025805501
0.21508516 -0.13959637 -0.05927862 0.18381914 0.16051364 0.09703763 0.06559262 0.13013837
-0.10334238 0.017574724 0.12518503 -0.18529329 -0.040116042 -0.15459347 -0.123445645 -0.046840414
0.15427822 0.1331213 -0.2173366 -0.082558155 -0.11500654 0.015640255 -0.004106805 0.081114054
0.17614155 0.15368427 0.037430458 0.11083914 0.13818318 0.18622115 0.09549551 0.1898824
0.0006310961 -0.14867009 -0.04769497 -0.025484568 -0.061525743 -0.21010213 0.15888989 -0.036652014
0.059197072 0.05982398 0.08492075 0.0013502238 -0.19418275 -0.2767479 -0.047043603 0.0039017305
0.05100195 0.08318938 -0.24745463 0.036002375 0.19955447 0.14847952 -0.08439007 0.10383448
-0.13487694 0.0128710065 -0.2600907 -0.07128419 0.117203325 -0.091338664 0.049050946 -0.26885086
-0.2918228 0.076152466 0.09719761 -0.16342016 0.037638474 0.03847607 -0.1599296 -0.08678381
0.052807257 0.0684295 -0.22700009 -0.1861067 0.030809386 0.20423238 0.104852535 0.0070407623
-0.13829303 0.020311197 -0.19316329 -0.32248905 0.031583782 -0.02383069 0.111163296 0.1463049
-0.003871446 -0.09665147 -0.06103854 0.15982518 0.009086879 0.026523009 -0.0031050488 0.12566552
-0.095322415 -0.085849516 -0.2300274 0.10924213 -0.072163075 -0.19074836 -0.09314318 0.08204718
0.085379414 0.12277257 0.07618888 0.11043335 -0.062025655 0.0022421847 0.051959034 -0.22500916
0.026686218 0.08149847 0.17848863 -0.11131461 0.011098456 -0.16954954 0.0014293537 0.20181398
-0.03272498 -0.10602911 -0.10717497 -0.063880496 0.13423988 -0.08152297 0.1889238 0.1099346
-0.23810264 0.09167511 -0.1767666 0.037247118 0.14684562 -0.0457853 0.13596152 0.09747689
00000000: ab56 49be 78a8 0c3e e0ef 543d ed18 133e
00000010: ba82 043e 519d 4dbe c2dc 013e b771 5ebd
00000020: 707c 99bd ae99 f13d a276 2f3e 2536 d43d
00000030: 0bcc 023c 732a b83d cf90 b73d 382c 84be
00000040: 4bac 3c3d 7bdb 15be 9d6a c33b d8d9 67bd
00000050: 69e9 c9bb 5909 2fbe 7adc 25be fa94 d43d
00000060: ed30 5f3d 2ea4 e63d 1c2e a8bc 9721 dd3d
00000070: 490c f2bc 78ff 4b3e 21f0 3c3d c34b 403d
00000080: 20f2 64bd 2e2e ec3d 7a09 a3bb d429 90bc
00000090: 8bf3 51bc 6234 9b3d f259 093c c9fb 753e
000000a0: ae98 b538 89e9 bf3c eed7 e33d 1611 2e3e
000000b0: 800b 953d f3c0 b9bc 9a7d 5f3c 0ff9 39be
000000c0: e44e 533d 4657 51bd e352 4a3e 58b5 f13d
000000d0: 280f c2bd 0d14 f63d 8a46 2abe 595a 9dbd
000000e0: 2608 e03d a8c2 b03a a22c 513e 9187 70bc
000000f0: b371 c2bd 1780 3abd 3c8e 1d3e 1fd0 ef3d
00000100: 973e 833e d355 e6bd 2c0a 663d df86 8c3d
00000110: 2d48 d8bd 72d3 203d 0790 16bc 4dd4 063e
00000120: 2a08 d5bd f547 8f3d c02e 61bd 4c5a d43d
00000130: 68eb 16be ab6b 263e dab6 9ebd aad8 cbbd
00000140: d295 2bbd 9807 ca3d bb42 bcbd b573 f7b9
00000150: bbf0 f6bd 1082 d83c e8c9 89be 3e94 3abe
00000160: 0d09 f63c 804e 0e3c b613 3b3e 421c 47be
00000170: d12e 4ebe 81f7 b1bd 4050 84bb cc97 66be
00000180: dd7e a53c c023 483d 226c 18be 56fd 1a3d
00000190: 23fe 133e d967 98bd 0764 263e 0030 a1be
000001a0: cab1 973d 3e05 d93d 5040 38be 597a 093e
000001b0: 5018 31be 8f5c 0b3e d54a 9a3d 9c74 fabd
000001c0: 34b9 ca3d 3170 2cbe 0fb4 f83d a165 f13d
000001d0: 8c5b 52bd 4b62 f23d bec0 b63d 0f66 d3bc
000001e0: 493f 5c3e 5af2 0ebe 23ce 72bd 163b 3c3e
000001f0: b05d 243e aabb c63d 6c55 863d fe42 053e
00000200: 2ba5 d3bd def8 8f3c 8130 003e 86bd 3dbe
00000210: b850 24bd c04d 1ebe 12d1 fcbd bcdb 3fbd
00000220: 1cfb 1d3e f350 083e 7c8d 5ebe 4014 a9bd
00000230: 8d88 ebbd fe1f 803c 6192 86bb 201f a63d
00000240: 735e 343e 695f 1d3e ae50 193d a2ff e23d
00000250: e47f 0d3e c2b0 3e3e 2693 c33d 8870 423e
00000260: 2470 253a f93c 18be cd5b 43bd 03c5 d0bc
00000270: 6b02 7cbd 0325 57be 08b4 223e 6c20 16bd
00000280: a178 723d fd09 753d eeea ad3d fef9 b03a
00000290: d8d7 46be e7b1 8dbe cbb0 40bd 2db4 7f3b
000002a0: 6ce7 503d 325f aa3d bf64 7dbe 3a77 133d
000002b0: 0258 4c3e 040b 183e b3d4 acbd 2ca7 d43d
000002c0: 2e1d 0abe eae0 523c 9c2a 85be 72fd 91bd
000002d0: 4c08 f03d c40f bbbd a5e9 483d d2a6 89be
000002e0: cc69 95be d3f5 9b3d 8a0f c73d 9d57 27be
000002f0: cd2a 1a3d 1599 1d3d 96c4 23be b6bb b1bd
00000300: 6c4c 583d c424 8c3d b672 68be c192 3ebe
00000310: f763 fc3c 4b22 513e edbc d63d 32b6 e63b
00000320: b09c 0dbe ab63 a63c 99cc 45be 491d a5be
00000330: ff5d 013d 9438 c3bc 95a9 e33d f4d0 153e
00000340: 16b8 7dbb 35f1 c5bd 8c03 7abd 36a9 233e
00000350: 22e1 143c c846 d93c 137e 4bbb 76ae 003e
00000360: 6638 c3bd dfd1 afbd 4e8c 6bbe 56ba df3d
00000370: 3cca 93bd 8a53 43be dac1 bebd 5a08 a83d
00000380: 67db ae3d 2f70 fb3d ea08 9c3d e12a e23d
00000390: 9d0e 7ebd 9ef1 123b ffd2 543d cd68 66be
000003a0: 0e9d da3c abe8 a63d b9c5 363e eaf8 e3bd
000003b0: 4cd6 353c 659e 2dbe 2759 bb3a 53a8 4e3e
000003c0: a10a 06bd ca25 d9bd 8d7e dbbd c7d3 82bd
000003d0: 2e76 093e 84f5 a6bd 3e75 413e 6425 e13d
000003e0: 2ed1 73be 29c0 bb3d 4e02 35be 6f90 183d
000003f0: b35e 163e 5e89 3bbd 7f39 0b3e f7a1 c73d

arr_1 f4 [32]
-0.0015047126 -0.05739705 -0.056145635 -0.009859951 0.017826667 0.025989354 -0.029387139 0.08541499
-0.04628479 -0.0919635 -0.0034994693 0.009762044 -0.02197969 -0.05749032 -0.047928892 -0.018420685
-0.067159496 -0.001258353 0.00092481106 -0.061340947 -0.039445322 -0.044461492 0.018375034 -0.058745228
0.020737723 -0.005365818 0.0093170805 -0.014748721 0.0036958365 0.0017266758 -0.02038706 -0.06534233
00000000: c739 c5ba 2b19 6bbd f7f8 65bd a28b 21bc
00000010: 3b09 923c a0e7 d43c 4cbd f0bc 0eee ae3d
00000020: 1f95 3dbd 5c57 bcbd 5a57 65bb fbf0 1f3c
00000030: c00e b4bc f87a 6bbd 1651 44bd fae6 96bc
00000040: eb8a 89bd 52ef a4ba 056f 723a a540 7bbd
00000050: 6b91 21bd 411d 36bd 3d87 963c d69e 70bd
00000060: 28e2 a93c bed3 afbb aba6 183c 9fa4 71bc
00000070: d935 723b a051 e23a c302 a7bc 33d2 85bd

arr_2 f4 [3, 3, 32, 64]
0.0101919705 -0.09099275 -0.03198382 0.24598426 0.0687998 -0.07821395 -0.10408464 -0.004187236
-0.08579885 -0.15771289 -0.04393204 0.011440961 0.05077329 0.028430697 0.04141623 0.02098888
0.00046297882 0.16768804 -0.044363286 0.0842783 0.08814419 0.07565716 0.15620853 -0.014884635
0.000354843 0.21862459 -0.016197482 -0.096844815 -0.0054248106 -0.038851917 -0.0075508445 0.0015848101
-0.11469016 0.095717736 0.07321666 0.040418047 -0.051532876 -0.05766472 0.034158252 -0.025467204
0.05927931 -0.06987996 0.07528794 0.06473158 0.07665895 0.0179528 0.030700129 -0.0386599
-0.038707938 0.012413617 -0.11749656 0.052949183 -0.08296894 0.018505337 0.05552639 -0.0026897192
0.046612367 0.062078506 0.085486196 0.029030377 0.0115712965 -0.1365686 -0.061007258 0.08695591
-0.033287574 -0.046987608 0.09208189 -0.14133127 -0.0694018 -0.008681679 -0.06571007 -0.046087578
0.09447186 0.049177628 -0.012686746 0.09438141 0.015484457 0.06520228 -0.008980058 -0.12513494
0.081505425 -0.017807193 0.015709646 0.033238165 -0.13615112 0.06523274 -0.15868501 -0.14407635
-0.10338888 -0.07552554 -0.14272277 -0.075982936 0.070973806 -0.00019252917 0.03117611 -0.0021453449
0.099254 0.03156133 0.0067098504 0.05566179 -0.013379109 0.14619347 -0.104035184 -0.05980118
-0.11602417 0.05492734 -0.08869944 -0.0692136 -0.028290052 -0.0938108 -0.0321551 -0.03732023
0.037917234 0.03422627 -0.09135674 0.02552797 -0.032116536 0.045358174 0.0040588463 -0.034971785
-0.017763626 -0.0108958725 -0.069776066 -0.106123835 0.05326007 0.04284762 0.10051684 0.04588103
-0.051137347 0.046903346 -0.0064875004 0.0012828095 0.060610767 -0.046934273 -0.11635355 0.06953588
0.06362819 0.047116082 -0.014992486 -0.06340733 0.04485302 0.12730306 0.033943105 -0.09054887
-0.0737432 0.07669164 0.004648543 -0.037897203 -0.120695464 -0.05656551 -0.17541638 -0.13046975
-0.12479307 -0.17579207 0.08223924 0.060567446 -0.034857962 -0.016807357 0.08488949 -0.05200807
-0.033416007 -0.042349152 -0.032041695 -0.0889198 0.069642395 -0.08657509 -0.12932137 -0.05606675
0.027558878 0.0067296242 -0.104601674 -0.048950795 -0.025483552 -0.08873848 0.039368805 -0.05928592
0.043990314 -0.039235283 -0.1095605 -0.032376986 0.004890147 0.033537835 0.06865297 -0.030895332
0.08013568 0.06428505 -0.051921304 -0.014546222 -0.040774193 -0.0047103995 0.061991557 0.080261484
-0.18221419 0.047865618 -0.111893035 -0.15641601 -0.009165004 0.037834372 -0.02537629 0.029124007
-0.0037249743 0.05984305 0.08198239 0.072935894 -0.073969014 0.069662265 0.06396202 0.084708005
-0.035756476 -0.04929641 -0.01663707 -0.13002458 -0.08367153 -0.023153773 -0.012189219 0.04055308
-0.056152944 -0.015783083 -0.0056821997 -0.021588953 0.053151038 -0.04285298 0.016506588 0.058797855
0.00645263 0.008570208 -0.023414442 -0.08091241 0.045958616 -0.0049813846 0.05023796 0.04776527
0.021911688 -0.09771392 -0.12580582 0.081808195 -0.047041185 0.04014198 -0.043085024 -0.09486548
0.09913136 0.033909395 -0.043593723 -0.0165961 0.053899087 0.05510827 0.053081494 -0.02130058
-0.0480401 -0.009432359 -0.105258234 0.0022948254 0.057132136 0.07145548 0.09962464 0.03147547
00000000: 39fc 263c 685a babd 7701 03bd 4ce3 7b3e
00000010: e9e6 8c3d a32e a0bd 542a d5bd 1535 89bb
00000020: 4fb7 afbd 7d7f 21be 15f2 33bd de72 3b3c
00000030: a7f7 4f3d 7ee7 e83c 11a4 293d dff0 ab3c
00000040: f7bb f239 6ab6 2b3e 47b6 35bd 1a9a ac3d
00000050: f184 b43d 24f2 9a3d 21f5 1f3e afde 73bc
00000060: 390a ba39 20df 5f3e 95b0 84bc 9356 c6bd
00000070: 9cc2 b1bb 3023 1fbd 136d f7bb 67b9 cf3a
00000080: ade2 eabd a907 c43d 9ef2 953d 658d 253d
00000090: 2314 53bd d731 6cbd 86e9 0b3d 99a0 d0bc
000000a0: ddce 723d 391d 8fbd 9030 9a3d fe91 843d
000000b0: 5eff 9c3d c011 933c d67e fb3c d859 1ebd
000000c0: 378c 1ebd 7c62 4b3c 09a2 f0bd 3ee1 583d
000000d0: 9feb a9bd 8198 973c a46f 633d 0046 30bb
000000e0: 9cec 3e3d 0846 7e3d 6313 af3d 1dd1 ed3c
000000f0: 8995 3d3c a4d8 0bbe bfe2 79bd f115 b23d
00000100: 8d58 08bd 1476 40bd 6e95 bc3d 25b9 10be
00000110: 8822 8ebd 9a3d 0ebc 0093 86bd 54c6 3cbd
00000120: 767a c13d 7b6e 493d 12dc 4fbc 0a4b c13d
00000130: 85b2 7d3c c688 853d 1821 13bc 6023 00be
00000140: 51ec a63d 64e0 91bc 84b1 803c be24 083d
00000150: 336b 0bbe be98 853d 537e 22be c088 13be
00000160: 8dbd d3bd 22ad 9abd eb25 12be f19c 9bbd
00000170: b75a 913d a8e1 49b9 0b65 ff3c ea98 0cbb
00000180: ae45 cb3d 7446 013d 4ede db3b 9efd 633d
00000190: 0d34 5bbc beb3 153e 6610 d5bd 15f2 74bd
000001a0: 149e edbd 7efb 603d 0da8 b5bd dcbf 8dbd
000001b0: 8ac0 e7bc e01f c0bd 11b5 03bd 19dd 18bd
000001c0: 1a4f 1b3d d830 0c3d 3e19 bbbd 0920 d13c
000001d0: a18c 03bd 7ec9 393d 1200 853b 933e 0fbd
000001e0: 0685 91bc 9a84 32bc c1e6 8ebd 7457 d9bd
000001f0: 3b27 5a3d fc80 2f3d c6db cd3d bfed 3b3d
00000200: 6575 51bd b91d 403d 1995 d4bb f223 a83a
00000210: ff42 783d 273e 40bd c54a eebd d468 8e3d
00000220: 7f4f 823d cbfc 403d 0ba3 75bc b4db 81bd
00000230: cdb7 373d bc5b 023e ed07 0b3d b071 b9bd
00000240: ad06 97bd 8210 9d3d ce52 983b 193a 1bbd
00000250: 2f2f f7bd 3cb1 67bd 5aa0 33be dd99 05be
00000260: 8293 ffbd d602 34be 0c6d a83d 9215 783d
00000270: 39c7 0ebd 95af 89bc 8ada ad3d 6a06 55bd
00000280: 39df 08bd 4e76 2dbd 273e 03bd 961b b6bd
00000290: aca0 8e3d 484e b1bd d26c 04be 40a6 65bd
000002a0: 28c3 e13c 2e84 dc3b 6739 d6bd a180 48bd
000002b0: e2c2 d0bc 85bc b5bd 2f41 213d cbd5 72bd
000002c0: 302f 343d 2db5 20bd 4161 e0bd bb9d 04bd
000002d0: 873d a03b f85e 093d ee99 8c3d 3518 fdbc
000002e0: 2d1e a43d e1a7 833d 6fab 54bd 4753 6ebc
000002f0: d702 27bd b259 9abb dcea 7d3d 2260 a43d
00000300: 5b96 3abe bd0e 443d 2d28 e5bd 852b 20be
00000310: d028 16bc 37f8 1a3d f0e1 cfbc 7895 ee3c
00000320: b31e 74bb fc1d 753d 62e6 a73d 6a5f 953d
00000330: 117d 97bd 17ab 8e3d 85fe 823d 647b ad3d
00000340: 6275 12bd 08eb 49bd 774a 88bc 2a25 05be
00000350: fb5b abbd fbac bdbc 4ab5 47bc fd1a 263d
00000360: a100 66bd 864b 81bc bf31 babb 51db b0bc
00000370: e7b4 593d 9b86 2fbd d338 873c 05d6 703d
00000380: 9570 d33b 0f6a 0c3c a5cf bfbc 68b5 a5bd
00000390: 1a3f 3c3d e23a a3bb 52c6 4d3d 84a5 433d
000003a0: 2480 b33c 3c1e c8bd 3ed3 00be 0e8b a73d
000003b0: 42ae 40bd eb6b 243d ec79 30bd d548 c2bd
000003c0: 6205 cb3d 94e4 0a3d 558f 32bd 8bf4 87bc
000003d0: 4ac5 5c3d 36b9 613d fb6b 593d 8e7e aebc
000003e0: b2c5 44bd 2e8a 1abc a191 d7bd c864 163b
000003f0: 6303 6a3d 4057 923d 0108 cc3d 6cec 003d

arr_3 f4 [64]
0.012989911 -0.013337976 -0.0060023516 -0.025984142 -0.0065438473 -0.0103919 0.08308335 0.0040332316
-0.009874247 -0.0053452575 -0.06644146 -0.02522934 -0.012002266 -0.02842337 -0.0064607114 -0.00920416
-0.054825835 -0.07820264 -0.05677875 -0.005215636 -0.010210737 -0.012957677 0.034483675 -0.002744154
-0.023372175 -0.022853317 -0.03292663 -0.0121154925 -0.0206273 -0.02363703 0.008346356 -0.013082171
-0.05121206 -0.007825728 -0.02104021 -0.019295687 -0.014561174 0.019434346 0.0004682987 -0.0010558927
-0.011074548 -0.005307986 -0.053388197 -0.021463139 -0.026001025 0.0010472575 -0.0195922 -0.008912482
-0.044167936 -0.01775924 -0.0071949037 -0.020584114 0.00029065175 -0.020713836 -0.007491736 -0.0133521855
-0.039169714 -0.06083899 -0.025115354 -0.015770823 -0.032442898 -0.010157788 -0.002556499 -0.016382119
00000000: a3d3 543c 8787 5abc 60af c4bb b2dc d4bc
00000010: c56d d6bb ca42 2abc 9a27 aa3d 3329 843b
00000020: 98c7 21bc 4527 afbb 7612 88bd c3ad cebc
00000030: 27a5 44bc 21d8 e8bc 60b4 d3bb 0ccd 16bc
00000040: 0e91 60bd b528 a0bd d690 68bd ede7 aabb
00000050: ef4a 27bc 704c 54bc c13e 0d3d 44d7 33bb
00000060: 0177 bfbc e136 bbbc 13de 06bd 0f80 46bc
00000070: 95fa a8bc 72a2 c1bc 28bf 083c 9a56 56bc
00000080: bdc3 51bd 7b37 00bc 855c acbc fd11 9ebc
00000090: fe91 6ebc c734 9f3c fd85 f539 e165 8aba
000000a0: 0572 35bc 9dee adbb 95ad 5abd 77d3 afbc
000000b0: 1a00 d5bc 2144 893a d27f a0bc a905 12bc
000000c0: 70e9 34bd d37b 91bc 3ac3 ebbb 04a0 a8bc
000000d0: 9e62 9839 10b0 a9bc 3d7d f5bb 20c3 5abc
000000e0: 6c70 20bd 4e32 79bd b7be cdbc d031 81bc
000000f0: d8e2 04bd da6c 26bc f08a 27bb cb33 86bc

arr_4 f4 [1600, 128]
-0.02194437 -0.005790158 0.012601995 -0.046827182 0.019287527 0.0025944558 0.0173409 0.0065917373
-0.029941835 0.06607657 -0.002523334 0.036007497 0.0132426005 0.0633735 -0.004952431 -0.020461464
-0.02856137 0.013425176 -0.003361277 -0.018877067 0.04786259 -0.026864987 -0.037254747 -0.0041882284
-0.014201504 0.045064814 0.07634494 -0.05625128 0.013791529 0.04764158 0.01954627 -0.052058436
-0.04259718 -0.0527212 -0.0032390633 -0.061704375 0.0467367 0.009234835 -0.0137378955 -0.037104644
0.05747416 -0.052602723 -0.0057852115 0.04539497 0.03265208 0.0033013804 0.067914486 0.023351828
0.07347333 -0.0370461 0.023461398 -0.010775456 -0.014219854 -0.02125143 -0.04789985 0.009468105
0.05617591 -0.008055493 0.049636047 -0.010801106 0.040007345 -0.00371724 0.01066574 0.02736377
0.0004422306 0.021703623 0.03188124 0.0046819304 0.03935155 -0.014027554 0.042960387 -0.026037639
0.031946138 0.015578116 0.0047599897 -0.053261682 0.02498458 -0.048081078 -0.029955909 0.08748141
-0.034760617 0.024686188 0.0145150805 0.08562355 -0.03146246 -0.007123493 -0.036152054 -0.03039875
0.001389719 0.01702102 -0.0155263655 0.027079476 -0.004688633 -0.052128952 -0.005787059 -0.015497396
0.035264734 0.038698286 0.07610021 0.05747146 0.055873644 0.059772313 0.0740014 0.0074686743
-0.025925485 0.027318155 -0.023046782 0.015717734 -0.06684276 0.032074533 -0.051979728 0.0044753477
0.030908287 -0.0072160983 -0.026616108 -0.0111916 -0.0037494085 0.10499273 -0.04450391 -0.042336974
0.037614305 -0.034131963 0.045965135 -0.0013560335 0.040210877 0.0064707394 -0.024590004 -0.0011096393
-0.0022463088 0.112244114 0.024720885 0.01145246 0.0045045917 0.10940129 0.08614603 0.10368384
-0.05107794 0.061111 0.14808962 -0.037536502 0.060500607 0.017436039 0.25205907 -0.06475479
-0.041971274 0.010504819 0.12721187 0.039856475 0.029579794 0.09094381 0.025853492 0.01476264
0.0064579104 -0.093147755 0.13769566 -0.08363316 -0.05764611 -0.01644356 0.04086637 0.03294715
0.14481297 0.071902096 0.019390484 0.01577792 0.12943566 0.044235487 0.004474905 -0.044850077
0.10013751 0.009160273 -0.0022512532 0.08395968 -0.03995599 -0.027584374 0.040161867 0.017026352
-0.011155124 0.14181063 -0.03386242 0.2100633 -0.04705502 -0.0532452 -0.016059842 0.024907142
-0.0068865223 0.046461985 -0.037381135 -0.0551083 0.13570547 0.03406454 0.07643071 -0.042014044
0.006047613 0.12428628 -0.0077467463 0.13824682 -0.0089528505 0.047217105 0.12294956 0.026747327
0.121698126 -0.016726904 0.06793709 0.026766239 0.011564538 -0.04522365 0.083301656 0.11498923
-0.027505282 -0.03771885 0.020799702 0.034659933 0.054899234 -0.033599775 -0.023314893 0.14683086
-0.0455815 0.10472585 0.021738058 0.0957248 0.04255892 0.01679323 -0.022415595 -0.05437128
0.042614534 0.077953726 0.05198025 -0.051233448 -0.02596854 0.08728965 0.12021599 -0.05849392
0.11887084 -0.029240523 0.005934665 -0.064805865 -0.00014857037 0.13420318 -0.07041347 -0.051593564
0.013320024 0.09536387 -0.17755719 0.11325176 0.027859984 0.12829444 0.12723997 0.03646412
0.108817324 -0.06949672 0.053310517 -0.039593015 0.037333317 0.11589495 -0.12277011 0.14520015
00000000: aec4 b3bc 5ebb bdbb 9978 4e3c dccd 3fbd
00000010: e000 9e3c bf07 2a3b 810e 8e3c 80ff d73b
00000020: 9448 f5bc 2753 873d 855e 25bb 997c 133d
00000030: 7ef7 583c f7c9 813d 0148 a2bb cd9e a7bc
00000040: 89f9 e9bc 45f5 5b3c df48 5cbb 14a4 9abc
00000050: 900b 443d f613 dcbc 6f98 18bd 683d 89bb
00000060: 6dad 68bc e295 383d bc5a 9c3d be67 66bd
00000070: def5 613c d123 433d 801f a03c 3a3b 55bd
00000080: 617a 2ebd 2ff2 57bd 7746 54bb babd 7cbd
00000090: fb6e 3f3d b54d 173c e914 61bc 0afb 17bd
000000a0: 066a 6b3d f475 57bd df91 bdbb 13f0 393d
000000b0: 30be 053d f95b 583b c016 8b3d 554c bf3c
000000c0: 2f79 963d a7bd 17bd 1e32 c03c 8a8b 30bc
000000d0: 64fa 68bc 7b17 aebc a232 44bd 1c20 1b3c
000000e0: b618 663d 30fb 03bc 2b4f 4b3d 1ff7 30bc
000000f0: bede 233d f09c 73bb 5bbf 2e3c fc29 e03c
00000100: 30db e739 cccb b13c e795 023d e16a 993b
00000110: 172f 213d d3d3 65bc 3bf7 2f3d e34c d5bc
00000120: f4d9 023d 5b3b 7f3c b0f9 9b3b ec28 5abd
00000130: 76ac cc3c aaf0 44bd 1866 f5bc 7429 b33d
00000140: 2661 0ebd b03a ca3c a9d0 6d3c 665b af3d
00000150: c8de 00bd 316c e9bb 2d14 14bd cd06 f9bc
00000160: 3b27 b63a ab6f 8b3c 4c62 7ebc c7d5 dd3c
00000170: 1ba3 99bb 2b85 55bd 5fa1 bdbb cae8 7dbc
00000180: c171 103d 1882 1e3d 6dda 9b3d 3267 6b3d
00000190: c3db 643d d0d3 743d 0c8e 973d c8bb f43b
000001a0: af61 d4bc 53ca df3c 9bcc bcbc 7ac2 803c
000001b0: dbe4 88bd 9660 033d b2e8 54bd f0a5 923b
000001c0: 6033 fd3c 0575 ecbb 060a dabc f95c 37bc
000001d0: a3b8 75bb 6e06 d73d bb49 36bd 8969 2dbd
000001e0: 7511 1a3d f5cd 0bbd f045 3c3d efbc b1ba
000001f0: 29b4 243d 7f08 d43b fa70 c9bc 5171 91ba
00000200: cf36 13bb 3ee0 e53d 7483 ca3c 19a3 3b3c
00000210: 419b 933b c90d e03d 546d b03d 3158 d43d
00000220: 1a37 51bd 874f 7a3d cea4 173e e0bf 19bd
00000230: 7ccf 773d 06d6 8e3c e30d 813e 299e 84bd
00000240: 12ea 2bbd 681c 2c3c d443 023e 8b40 233d
00000250: 5351 f23c c040 ba3d b4ca d33c 00df 713c
00000260: e19c d33b 40c4 bebd 1700 0d3e dd47 abbd
00000270: 541e 6cbd a5b4 86bc 7f63 273d 97f3 063d
00000280: da49 143e 6841 933d cbd8 9e3c b240 813c
00000290: c88a 043e 4530 353d 39a2 923b b7b4 37bd
000002a0: e514 cd3d f814 163c c389 13bb 0df3 ab3d
000002b0: e4a8 23bd a0f8 e1bc c580 243d d97a 8b3c
000002c0: fbc3 36bc ce36 113e 52b3 0abd d51a 573e
000002d0: c4bc 40bd a417 5abd ee8f 83bc 100a cc3c
000002e0: 56a8 e1bb ec4e 3e3d f61c 19bd 3eb9 61bd
000002f0: 60f6 0a3e 4287 0b3d b487 9c3d eb16 2cbd
00000300: 0e2b c63b ce89 fe3d 6bd8 fdbb 9390 0d3e
00000310: faae 12bc b966 413d fbcc fb3d 361d db3c
00000320: de3c f93d dc06 89bc 9a22 8b3d df44 db3c
00000330: 3079 3d3c 6f3c 39bd 0f9a aa3d 797f eb3d
00000340: c252 e1bc 157f 1abd 2364 aa3c 93f7 0d3d
00000350: 05de 603d eb9f 09bd e0fe bebc d45a 163e
00000360: abb3 3abd 827a d63d 0314 b23c 5d0b c43d
00000370: 4352 2e3d f591 893c e9a0 b7bc 6bb4 5ebd
00000380: 948c 2e3d 34a6 9f3d 3ee9 543d 2ada 51bd
00000390: fabb d4bc ebc4 b23d cd33 f63d 5297 6fbd
000003a0: 8e72 f33d d289 efbc 9477 c23b f0b8 84bd
000003b0: 8ec9 1bb9 8f6c 093e f034 90bd c653 53bd
000003c0: 3b3c 5a3c 224e c33d 8dd1 35be 8af0 e73d
000003d0: 9f3a e43c 9e5f 033e 324b 023e 675b 153d
000003e0: 9edb de3d 4c54 8ebd 215c 5a3d 492c 22bd
000003f0: d2ea 183d 555a ed3d e56e fbbd 59af 143e

arr_5 f4 [128]
0.012633497 0.009755239 -0.0065153865 -0.0064985747 -0.006435803 0.011415982 0.012208203 0.014179794
-0.007618329 0.014496067 0.01023588 0.0104123335 0.013351192 0.012793005 0.028231543 0.032962378
-0.0061429203 -0.006266223 0.013267943 -0.00802966 0.011215814 0.011642292 -0.0069356416 -0.0066406885
0.017484335 0.029139368 0.01640845 -0.0035528985 -0.008815139 -0.018013846 -0.008922545 -0.0061924406
0.0101738265 0.0067561097 -0.0072309603 -0.0085821 0.01237885 -0.008628035 0.009493295 -0.006036629
0.011976833 -0.008539832 -0.008793435 0.021610312 0.008838812 0.030133957 0.012134709 -0.007922569
0.012253633 0.011090439 -0.0063758106 0.02176471 -0.006004516 -0.006929717 -0.0038717089 -0.006002812
-0.006112867 0.011502726 -0.0063870866 -0.00810828 0.016087722 -0.010161891 0.0114080245 -0.0077032424
-0.007775633 0.013914329 -0.006113659 0.014203665 -0.006932342 -0.006037243 0.012609243 -0.0076004565
0.013494492 -0.009302066 0.019830143 -0.00681172 -0.006234612 -0.006007791 0.010793005 0.01090309
-0.006628174 -0.0070798714 0.014138527 0.019587638 0.018222438 0.012093528 -0.0072608753 0.014184395
-0.007555549 0.013122018 -0.0064045168 0.010471736 -0.00633041 -0.006455253 -0.006233475 -0.0070711975
0.010502409 0.013756792 0.017512433 0.035369072 -0.0059728553 0.015169224 0.006163115 -0.006001037
0.011620932 -0.0063590943 0.009691123 -0.010017838 -0.019502075 0.009879611 -0.023787497 -0.008069165
-0.007455255 0.0111139035 -0.020407178 0.019929195 0.011221988 0.026529891 0.007763429 -0.006025819
0.017573472 0.009147544 -0.006328942 -0.008057924 -0.006004271 0.010239945 0.030038629 0.014960772
00000000: bafc 4e3c 70d4 1f3c 067f d5bb fff1 d4bb
00000010: 6ee3 d2bb 190a 3b3c ea04 483c 5e52 683c
00000020: 2da3 f9bb e980 6d3c 64b4 273c 7e98 2a3c
00000030: f5be 5a3c c199 513c d645 e73c 8f03 073d
00000040: 8d4a c9bb e354 cdbb c961 593c d68e 03bc
00000050: 89c2 373c 50bf 3e3c 6144 e3bb 229a d9bb
00000060: 4f3b 8f3c afb5 ee3c 046b 863c bfd7 68bb
00000070: 5f6d 10bc c691 93bc de2f 12bc f5e9 cabb
00000080: 1fb0 263c 5b62 dd3b b1f1 ecbb f09b 0cbc
00000090: a9d0 4a3c 9a5c 0dbc c489 1b3c eace c5bb
000000a0: 7b3a 443c a7ea 0bbc 5712 10bc 1c08 b13c
000000b0: aad0 103c 7ddb f63c a9d0 463c aacd 01bc
000000c0: 76c3 483c acb4 353c 2dec d0bb e84b b23c
000000d0: 88c1 c4bb ae12 e3bb 7fbc 7dbb 3db3 c4bb
000000e0: 724e c8bb ee75 3c3c c44a d1bb 97d8 04bc
000000f0: 66ca 833c 0f7e 26bc b9e8 3a3c 7b6b fcbb
00000100: bdca febb edf8 633c 1755 c8bb 7db6 683c
00000110: b328 e3bb 11d4 c5bb 0097 4e3c 400d f9bb
00000120: 0018 5d3c b167 18bc d372 a23c d934 dfbb
00000130: b74b ccbb 01dd c4bb 25d5 303c e0a2 323c
00000140: 2731 d9bb 44fe e7bb 48a5 673c 4176 a03c
00000150: 3947 953c ef23 463c a3ec edbb aa65 683c
00000160: 8a94 f7bb bcfd 563c fbdc d1bb a591 2b3c
00000170: 546f cfbb 9686 d3bb 2e42 ccbb 81b5 e7bb
00000180: 4c12 2c3c 2b64 613c 3c76 8f3c 29df 103d
00000190: f1b7 c3bb 5688 783c f5f3 c93b 59a4 c4bb
000001a0: b965 3e3c f35f d0bb 84c7 1e3c dc21 24bc
000001b0: d1c2 9fbc 18de 213c ffdd c2bc 8834 04bc
000001c0: 364b f4bb 1717 363c f42c a7bc 8d42 a33c
000001d0: 6edc 373c 3755 d93c 5d64 fe3b 3c74 c5bb
000001e0: 3ef6 8f3c 95df 153c 0363 cfbb 6205 04bc
000001f0: 7abf c4bb 71c5 273c 9213 f63c 071e 753c

arr_6 f4 [128, 1]
-0.20041248 -0.15733714 0.11142868 0.0405233 0.09103564 -0.23691739 -0.19367132 -0.20311834
0.14182073 -0.25288376 -0.11735345 -0.15095738 -0.16647866 -0.27558467 -0.40304348 0.20294198
0.040705733 0.08811592 -0.15761511 0.15015367 -0.117070705 -0.11695424 0.10517259 0.09811232
-0.17003438 0.27683008 -0.13534671 0.35510844 0.19814545 0.12867936 -0.026743507 0.084728785
-0.12482888 -0.27647763 0.15050738 0.17445911 -0.2087191 0.070967145 -0.28083596 0.017713157
-0.14297648 0.09504077 0.03502939 -0.15425932 -0.26898015 0.2394049 -0.173192 -0.18590583
-0.06840797 -0.46520826 0.028559223 -0.32790306 0.099183775 0.15906343 -0.16337785 0.16858476
0.09631786 -0.27713853 0.20807505 0.13062425 -0.1830806 0.034867126 -0.07144546 0.08495142
0.16948377 -0.09836276 0.16423245 -0.096148044 0.117675796 0.15656912 -0.16795187 0.06793866
-0.08698712 0.07652195 -0.15812819 0.200864 0.13760969 0.1865883 -0.26092255 -0.23941217
0.022817528 0.20367986 -0.2148208 -0.15138616 -0.22622173 -0.15385623 0.13268954 -0.3491618
0.02400373 -0.12910908 0.1905596 -0.18390633 0.031932935 0.11790801 0.116292305 0.1894192
-0.11908702 -0.1922 -0.21905148 0.22366999 0.05333334 -0.08291585 -0.25534588 0.150418
-0.10034606 0.058236953 -0.2354805 0.16388811 0.17683291 -0.16815762 0.047501907 0.1295173
0.19587292 -0.16703375 0.114826374 -0.17318553 -0.13223661 -0.4780222 -0.22247042 0.059785884
-0.2220221 -0.12878264 0.18235072 -0.0004627212 0.08015016 -0.25794154 0.25739825 -0.18370014
00000000: ee38 4dbe fd1c 21be b834 e43d c3fb 253d
00000010: e570 ba3d 799a 72be c651 46be 41fe 4fbe
00000020: 7439 113e fb79 81be 0157 f0bd 9294 1abe
00000030: 6279 2abe 6f19 8dbe b75b cebe 06d0 4f3e
00000040: 0ebb 263d 1f76 b43d db65 21be e2c1 193e
00000050: c4c2 efbd b485 efbd ba64 d73d 1def c83d
00000060: 7e1d 2ebe acbc 8d3e 5498 0abe c6d0 b53e
00000070: a4e6 4a3e 86c4 033e 3315 dbbc 4986 ad3d
00000080: 49a6 ffbd 7a8e 8dbe 9b1e 1a3e 69a5 323e
00000090: 76ba 55be 3957 913d bbc9 8fbe 2f1b 913c
000000a0: 6d68 12be bca4 c23d fa7a 0f3d 28f6 1dbe
000000b0: c4b7 89be 8f26 753e 3e59 31be 195e 3ebe
000000c0: 7a19 8cbd c72f eebe 08f5 e93c e9e2 a7be
000000d0: dd20 cb3d 86e1 223e 864c 27be 7ca1 2c3e
000000e0: 4c42 c53d 1ae5 8dbe a011 553e 5dc2 053e
000000f0: 7b79 3bbe d5d0 0e3d ff51 92bd 03fb ad3d
00000100: 278d 2d3e 6a72 c9bd 8d2c 283e 44e9 c4bd
00000110: 0200 f13d a853 203e 93fb 2bbe 6d23 8b3d
00000120: 4e26 b2bd 8ab7 9c3d 5bec 21be 4baf 4d3e
00000130: 8ee9 0c3e 0111 3f3e a497 85be 7728 75be
00000140: d3eb ba3c 7491 503e fcf9 5bbe f904 1bbe
00000150: aba6 67be 7d8c 1dbe c4df 073e 56c5 b2be
00000160: 78a3 c43c 2c35 04be 0e22 433e f151 3cbe
00000170: 1ccc 023d c179 f13d a92a ee3d 1bf7 413e
00000180: e5e3 f3bd 14d0 44be 084f 60be bf09 653e
00000190: 0f74 5a3d c9cf a9bd b2bc 82be 2d07 1a3e
000001a0: 3c82 cdbd df89 6e3d cd21 71be 49d2 273e
000001b0: b013 353e 8331 2cbe 5c91 423d 2fa0 043e
000001c0: e992 483e e50a 2bbe 172a eb3d 8c57 31be
000001d0: 0969 07be 53bf f4be 49cf 63be 0be2 743d
000001e0: c359 63be 99df 03be 26ba 3a3e 6399 f2b9
000001f0: c425 a43d ea10 84be b4c9 833e e41b 3cbe
