ep2-cnn/results-binary-brute/initial_weights.npz (npz, 897450 bytes, 7 tensors)

arr_0 f4 [3, 3, 1, 32]
00000000: 6ebd e9bd e938 0b3e 228c bd3d d902 113e
00000010: ec22 6f3d 91fd b7bd 6c8d a43d 33bf 0fbe
00000020: 306c f5bc 66db f63d 1075 113c 7021 c73c
00000030: c8a2 403d e0c8 da3d 6c15 733d e10e 07be
00000040: 162b bb3d 7cc4 b5bc c533 85bd 1c3f 10bd
00000050: b895 1e3d 42d3 c6bd 62fe b4bd 4287 d03d
00000060: b654 06bd f6f4 c63d 52c2 a5bd fc90 613d
00000070: d88b 82bc d998 013e 705d 133d 6863 4c3d
00000080: 9ba5 a2bd f236 e03d e0ed abbc c089 73bc
00000090: ebeb 80bd de37 dd3d 903c 14bc 38a9 5d3d
000000a0: 50f9 e53c ccf7 0b3d 009d 55bc 50f0 bc3d
000000b0: cc64 d33d 10b6 313c 806a 04bc cc09 193d
000000c0: 6037 453c 0078 8338 da34 b63d 6615 dc3d
000000d0: ea5d b4bd ec48 bd3d 0894 34bd 1305 98bd
000000e0: 7075 143c 905c 78bc 8b35 0a3e c8c9 edbc
000000f0: d2d1 08bd 8a30 7bbd 8ce9 d63d 6e5c d43d
00000100: 5a21 f93d 9987 ffbd 401c 993b 001b 9c3d
00000110: b6e3 74bd f01b 5e3c a0b4 3bbc f643 6bbd
00000120: dc45 4fbd 48f5 003d 6836 843c 9087 283c
00000130: e644 9fbd 0448 c63d ab83 89bd 64d2 85bd
00000140: 78ba 26bd 1cad 673d 999e 0dbe d0ae 2fbc
00000150: 53a8 bcbd 207e 78bc b1bb bebd 48a1 62bd
00000160: 003c 413c 88b8 f03c 9ac1 b73d 2081 06be
00000170: 26aa fabd c0f7 ddbc 4c2a bbbc cb23 0fbe
00000180: 38b9 8e3c c828 543d f40b 35bd 4a45 df3d
00000190: 7e2d 9a3d 9c39 74bd 1610 f33d 7825 cebd
000001a0: b48b d63d 3ee0 913d e247 d0bd 1a3a b93d
000001b0: 8448 60bd f80f c63d acdd 073d 2265 70bd
000001c0: c89c 6a3d 64eb 1cbd e0f2 253d 4483 ac3d
000001d0: 0064 dd3a 261a 863d 2820 9d3c 88c1 b7bd
000001e0: 7a29 f93d ccd5 58bd e0bb 14bd ae58 ea3d
000001f0: b68d f83d 1895 ce3d 1cc4 0e3d 8c30 ae3d
00000200: 94b0 dcbd 1c86 1a3d 363c e93d dc5a fdbd
00000210: a4f4 a6bc 1a6e 50bd 9e78 e3bd 1063 683d
00000220: 7bfc 0b3e 84fb c83d 50ad 39bd 0e6a 06be
00000230: 9aae 93bd 30a5 d73c a0b9 423c d460 7d3d
00000240: b3b5 003e 1e0d fd3d c0dd d63b 708f d33d
00000250: 8e58 eb3d 5971 0c3e 84b9 153d 451e 0e3e
00000260: 2479 dfbc 8787 d4bd 5050 d9bd 68bb eabc
00000270: 4c32 cfbd 103f c2bd d6fe f13d bf3f a2bd
00000280: 002b 313b 7a27 ed3d 78b1 a33c 30ca ffbc
00000290: 8ebd bcbd 07b7 0ebe 204f 943c 057b d3bd
000002a0: 304a 933c 0080 013d c61c c6bd 1069 6a3c
000002b0: 8ded 073e d02c d93d 8c98 a9bc 9851 863c
000002c0: 5990 ddbd 78a2 b1bd 877f 06be 6c03 ddbc
000002d0: 88ca d63d 6613 fbbd 20c1 4b3d cde3 04be
000002e0: e16d f4bd 509d 6a3d 74a3 043d 74e3 7dbd
000002f0: 44f9 403d bc67 7e3d b4bb fdbd 2026 f6bb
00000300: a0eb c63c 8085 753d 7cc0 e7bd 2618 11be
00000310: 88b2 c4bc 5e71 fd3d dce0 a13d ac42 adbd
00000320: db51 d5bd f020 073c f577 05be 8cfa ffbd
00000330: 3c78 953d 5453 21bd f404 3d3d a898 d43d
00000340: fa48 6dbd 704d 8bbc 6778 cbbd 7ed8 de3d
00000350: b00b 903c 1c0d a5bc 588e 32bd 1723 013e
00000360: 7e70 f4bd ec8b 6fbd 65e9 c7bd b0f0 373d
00000370: 4e2e 68bd 5c52 f6bd daf2 fabd 7ac0 923d
00000380: 828f db3d 52a8 fa3d 94a3 893d 5850 ce3d
00000390: aeed 21bd e286 b3bd 320a a13d 4311 c5bd
000003a0: d018 5d3c 603d 2b3d c89a ce3d 789a 013d
000003b0: a0d1 3bbc e4ea 10be 5032 28bc 47a7 023e
000003c0: 7031 44bd bd8e 8bbd bace 43bd 407e 79bd
000003d0: ab35 103e 3061 0ebd 155f 0d3e d074 143d
000003e0: 45bb 0abe 98f2 0e3d b4cc 62bd f0f4 ba3c
000003f0: b669 e33d ef2c 8ebd 4e21 c43d 72cc d13d
-0.11413084 0.13595928 0.09255244 0.14161243 0.058382913 -0.08983911 0.080347866 -0.1403778
-0.029958814 0.12053566 0.0088780075 0.024307936 0.04703024 0.10682845 0.0593466 -0.1318927
0.09139077 -0.022188418 -0.06504015 -0.035216436 0.038717 -0.09708263 -0.08837582 0.101820484
-0.03279563 0.09714691 -0.08093704 0.05506991 -0.015935823 0.12655963 0.03597778 0.04989949
-0.07941743 0.1094798 -0.020987451 -0.014864385 -0.06294998 0.108016714 -0.009047642 0.054116458
0.028072983 0.034171864 -0.01303792 0.092255235 0.1032196 0.01084663 -0.008082032 0.03736286
0.012037128 6.2689185e-05 0.088967994 0.10746269 -0.08806975 0.09242424 -0.044086486 -0.07422843
0.009061202 -0.015158787 0.13496988 -0.02902688 -0.033403225 -0.061325587 0.10493764 0.10369192
0.121645644 -0.12477035 0.004672557 0.07622337 -0.059787475 0.0135564655 -0.011456639 -0.05743786
-0.050603732 0.03148392 0.016139224 0.010286227 -0.07776813 0.09681705 -0.06714567 -0.065342695
-0.040705174 0.056561574 -0.13830031 -0.010722831 -0.09211793 -0.015166789 -0.09313143 -0.05532959
0.01179409 0.029384866 0.089724734 -0.13135195 -0.122394845 -0.027095675 -0.022847317 -0.13978498
0.017422304 0.051796705 -0.044200853 0.10901888 0.07528208 -0.059625253 0.118683025 -0.1006574
0.10475865 0.07122849 -0.101699606 0.09044285 -0.054756656 0.096710145 0.033170387 -0.058690198
0.057278425 -0.038310423 0.040514827 0.084234744 0.0016890764 0.06547956 0.019180372 -0.0897246
0.12166114 -0.052938268 -0.036311984 0.114426956 0.12136404 0.10087031 0.034854993 0.08505353
-0.10775867 0.037725553 0.113884374 -0.12370846 -0.020380326 -0.05088625 -0.1110699 0.0567351
0.13670532 0.09813598 -0.0453313 -0.13126394 -0.07211037 0.026323885 0.011885077 0.06185992
0.12569313 0.123560175 0.0065571964 0.10330093 0.114915 0.13715114 0.036553875 0.13878734
-0.027279444 -0.10377412 -0.106110215 -0.028653815 -0.10117015 -0.094846845 0.11816184 -0.07922315
0.0027033687 0.11579795 0.019982085 -0.03122434 -0.09215842 -0.13937007 0.018104136 -0.103261985
0.017979711 0.03161621 -0.09673457 0.014307275 0.13274212 0.106042504 -0.020702623 0.016396329
-0.10818548 -0.086735666 -0.13134585 -0.02697917 0.104878485 -0.12259559 0.049744725 -0.12977524
-0.1193502 0.05727893 0.032382444 -0.061984494 0.04711272 0.062110648 -0.12389317 -0.007511869
0.024282277 0.05994177 -0.1131601 -0.14169368 -0.024010912 0.12375139 0.07904217 -0.08459982
-0.10416003 0.008247599 -0.13034041 -0.1249896 0.072983235 -0.03938611 0.0461473 0.10380679
-0.057930924 -0.017004699 -0.09935074 0.10881136 0.017583698 -0.020147853 -0.04359278 0.12611042
-0.11935519 -0.05848305 -0.09761313 0.04490727 -0.056684785 -0.120274276 -0.122533515 0.07165618
0.10720731 0.12239136 0.06720653 0.10073918 -0.03953331 -0.08765961 0.07863273 -0.09622433
0.013494685 0.04180658 0.10088116 0.031641454 -0.011463553 -0.14152104 -0.010265902 0.12759124
-0.04789871 -0.068143345 -0.04780457 -0.060911417 0.14082973 -0.034760654 0.13805802 0.036244214
-0.13548 0.034899324 -0.055371 0.022821873 0.11104147 -0.06942164 0.09576665 0.10244073

arr_1 f4 [32]
00000000: 0000 0000 0000 0000 0000 0000 0000 0000
00000010: 0000 0000 0000 0000 0000 0000 0000 0000
00000020: 0000 0000 0000 0000 0000 0000 0000 0000
00000030: 0000 0000 0000 0000 0000 0000 0000 0000
00000040: 0000 0000 0000 0000 0000 0000 0000 0000
00000050: 0000 0000 0000 0000 0000 0000 0000 0000
00000060: 0000 0000 0000 0000 0000 0000 0000 0000
00000070: 0000 0000 0000 0000 0000 0000 0000 0000
0.0 0.0 0.0 0.0 0.0 0.0 0.0 0.0
0.0 0.0 0.0 0.0 0.0 0.0 0.0 0.0
0.0 0.0 0.0 0.0 0.0 0.0 0.0 0.0
0.0 0.0 0.0 0.0 0.0 0.0 0.0 0.0

arr_2 f4 [3, 3, 32, 64]
00000000: 035d 80bd a33f 94bd ecc4 a3bc cd9c 933d
00000010: 5d5d 9a3d db93 50bd 30d4 a4bd 81a5 a03d
00000020: 60a5 e7bc f655 f4bc c366 84bd 80b9 27ba
00000030: d0c5 0b3d 300b df3b 664b 0d3d 3475 d63c
00000040: ca2e 2c3d 20fd d93c b6b6 fcbc c6ed 693d
00000050: 8cd6 96bc 53eb a93d 308e cbbb 74c7 89bc
00000060: a669 1ebd a1bb 833d 03be 85bd 031d 8dbd
00000070: 6a98 243d 969d 1ebd 6689 0fbd 0034 e238
00000080: 3036 003d 1a9c 433d 109b 033d d08e 82bb
00000090: d8c4 64bc 4c52 953c 903c 36bd ae9e 94bd
000000a0: 1d78 923d a0fa 00bd aaae 603d 9afe 743d
000000b0: 12d9 3d3d 4051 a93c eb9e 963d 8ced f1bc
000000c0: 181b 9dbd c027 60bc 4b19 11bd d83a 063c
000000d0: 4808 a6bd 7acb 053d d065 d23b ac51 e83c
000000e0: 5043 70bd 30a6 f1bb e129 823d 0070 7a3a
000000f0: 0c77 90bc 6e50 9cbd 30fe 84bd 1b5a 9b3d
00000100: 5e50 a2bd 941e 82bc 7613 533d e0f2 51bd
00000110: 00f3 80bd 34c8 a9bc b34d a7bd 8020 f13b
00000120: 6098 203d 542e dc3c 803b 19bd 3beb a03d
00000130: ec35 803c 742c d83c 5870 47bc 7b2b 76bd
00000140: d587 9c3d 8cb2 8dbc 0065 08bb 186c 1fbc
00000150: 0e61 a9bd f111 953d 8090 5bbd ebe5 6abd
00000160: ab58 a6bd e8fe 703c ae30 a6bd f863 9bbd
00000170: da10 073d 9020 52bd 1412 88bc b0d5 a8bb
00000180: 660f 343d 0055 adb9 50e7 de3b 0b00 9a3d
00000190: 60ed 72bb 8943 963d 6032 8bbd 032b a7bd
000001a0: a69f 8dbd 42c2 5d3d aa70 1d3d 0b90 28bd
000001b0: 0cdf debc 5857 14bc c0e2 dcbc 0cd9 e1bc
000001c0: 50be ddbb 1226 3d3d 1683 90bd a627 2f3d
000001d0: e80a 42bc cc1e c23c 8035 95bb b063 f8bb
000001e0: 805c 55bc 002d 2ebd 864c 27bd 43b6 a5bd
000001f0: b25c 3c3d 2add 243d cc25 e13c 9df4 913d
00000200: 409d 79bd 4da5 843d ecc7 d6bc d051 1c3d
00000210: 45a7 883d 20b4 cbbc 5815 a0bd 0a14 463d
00000220: cc41 e13c b638 133d bb47 80bd 166e 69bd
00000230: 002a 5c3c 1aa0 6c3d 00a2 603b 2b22 31bd
00000240: 2b42 8dbd c654 5f3d eb29 13bd 169a 72bd
00000250: 303a 2dbd 4c7a a0bc e80e 80bd a099 9fbd
00000260: 7617 a5bd d0ac 92bd 0672 5e3d 7698 413d
00000270: b043 d5bb f041 70bd f980 a23d 2e92 96bd
00000280: 4b57 3cbd f08d 25bd 4688 28bd 9099 56bd
00000290: a372 aa3d f622 58bd a685 53bd c3e0 81bd
000002a0: e273 4f3d caff 493d 6010 c13c c68c 88bd
000002b0: 8ed5 86bd 2058 98bd aab0 173d 16c7 43bd
000002c0: 8bc1 49bd f64e 64bd a86d 10bc c07e 643c
000002d0: d488 853c 58c1 46bc 81e7 813d 0c3c b4bc
000002e0: bdac a03d b191 8b3d 36ed 43bd 1674 b3bc
000002f0: ecfd 8dbc d6f8 eebc 0048 99bc dda4 a63d
00000300: 6b31 6dbd 9ae5 2d3d ebfc 91bd db21 a2bd
00000310: a0a7 25bb ca9c 5a3d 5388 983d 30fa a13b
00000320: ab82 21bd 000c 783b 539a 813d 42ef 583d
00000330: 5361 aabd 303d 12bd e290 383d 1926 a83d
00000340: a018 47bb 4092 59bc 86e5 41bd bb27 30bd
00000350: 3035 80bd 4c24 f4bc 6228 603d 00cf 5a3b
00000360: 8694 24bd 0023 ae3c 98e1 123c 0076 06bd
00000370: e51e 9f3d 9b31 a4bd 7649 233d aa86 783d
00000380: 0014 1e3d 8053 ac3c 50be f1bb 4ba3 98bd
00000390: 063f 623d 4034 a6bc 5050 833b 8236 303d
000003a0: 144e d93c 76b8 35bd e677 5cbd 0d4b 863d
000003b0: 4c25 f4bc 767e 093d e896 7abc 039c a6bd
000003c0: 06b6 223d f48d aabc 605d ba3c d88b 20bc
000003d0: aded 873d f4a4 df3c 14d3 eb3c 8039 dabc
000003e0: cbfa 9fbd 80b4 8bbc 1667 a6bd 00bf 583b
000003f0: cd43 953d 7690 593d 3a89 393d ca1d 063d
-0.062677406 -0.072387 -0.01999136 0.07207642 0.07537339 -0.050922256 -0.08048284 0.07844067
-0.0282771 -0.029826146 -0.06464913 -0.0006398186 0.034124196 0.0068067536 0.034495734 0.026178934
0.04203681 0.026609957 -0.030848842 0.057111524 -0.01841285 0.08296838 -0.0062120184 -0.01681874
-0.038674973 0.06432272 -0.065303825 -0.06890299 0.040184416 -0.038724504 -0.035043143 0.000107862055
0.031301677 0.047756292 0.0321303 -0.0039843097 -0.013962947 0.018227719 -0.04449135 -0.07256828
0.07151816 -0.031489015 0.054854073 0.05981312 0.046349593 0.020668626 0.0735453 -0.029532216
-0.07671183 -0.013681352 -0.035424512 0.00819274 -0.08107048 0.032664753 0.0064208284 0.028359257
-0.058657944 -0.0073745474 0.06355644 0.00095534325 -0.017634891 -0.07632528 -0.06493795 0.07585546
-0.07925485 -0.015883721 0.05153223 -0.051257014 -0.062963486 -0.020725347 -0.08169117 0.0073586106
0.039207816 0.02687756 -0.03741026 0.07857367 0.015650712 0.026388384 -0.012172781 -0.06010006
0.076430954 -0.017297052 -0.0020812154 -0.009730361 -0.08270465 0.07278813 -0.053604603 -0.057348173
-0.08122381 0.014709212 -0.08114754 -0.07587427 0.032975055 -0.051300585 -0.016610183 -0.0051524267
0.043959998 -0.0003306046 0.006802477 0.075195394 -0.0037067756 0.073371 -0.06796718 -0.08162501
-0.06915216 0.054140337 0.038437523 -0.041152995 -0.027205966 -0.0090540275 -0.026963592 -0.027569316
-0.006767072 0.046178885 -0.07056253 0.04276242 -0.011843421 0.023696326 -0.004553497 -0.007580243
-0.013022542 -0.042523384 -0.040844463 -0.08091404 0.04598684 0.04024998 0.027483843 0.071267344
-0.06094098 0.06476841 -0.026218377 0.03816396 0.06672529 -0.024866164 -0.07816571 0.048358954
0.027497195 0.035942756 -0.062636815 -0.05698975 0.013437748 0.057769872 0.0034276247 -0.043245476
-0.06897386 0.054524206 -0.035928648 -0.05922898 -0.04229182 -0.019589566 -0.06252843 -0.077929735
-0.080611154 -0.071618676 0.05430796 0.04726454 -0.006508313 -0.058656633 0.07934756 -0.073521
-0.045981687 -0.040418565 -0.041145585 -0.052392542 0.083226465 -0.052767716 -0.05164113 -0.06341698
0.050647624 0.049316205 0.023567379 -0.066674754 -0.06583701 -0.074386835 0.037033714 -0.047797285
-0.049256843 -0.055739366 -0.008815207 0.013946235 0.016300596 -0.012131058 0.06342984 -0.022001289
0.07845447 0.06814898 -0.047833644 -0.02190594 -0.017332993 -0.029171389 -0.01871109 0.08136914
-0.057908457 0.042455293 -0.071283184 -0.07916614 -0.0025276914 0.053372182 0.07447877 0.0049431548
-0.039431255 0.003784895 0.06328263 0.05296255 -0.08319344 -0.035702884 0.045060046 0.082103916
-0.0030379668 -0.013279498 -0.04733803 -0.04300664 -0.06260145 -0.029802464 0.054726012 0.0033387542
-0.040180705 0.021256924 0.008964919 -0.032827377 0.077695645 -0.08017274 0.03986498 0.0606753
0.038593292 0.02103591 -0.0073774233 -0.07453021 0.055235885 -0.020288587 0.0040073767 0.043020733
0.026526488 -0.04436537 -0.05382528 0.065572836 -0.02980294 0.03356787 -0.015294768 -0.081352256
0.039724372 -0.020819642 0.022749603 -0.009798966 0.0663713 0.027300335 0.028787173 -0.026638746
-0.07811507 -0.017053843 -0.08125131 0.003307283 0.072883226 0.053116284 0.045296885 0.032743253

arr_3 f4 [64]
00000000: 0000 0000 0000 0000 0000 0000 0000 0000
00000010: 0000 0000 0000 0000 0000 0000 0000 0000
00000020: 0000 0000 0000 0000 0000 0000 0000 0000
00000030: 0000 0000 0000 0000 0000 0000 0000 0000
00000040: 0000 0000 0000 0000 0000 0000 0000 0000
00000050: 0000 0000 0000 0000 0000 0000 0000 0000
00000060: 0000 0000 0000 0000 0000 0000 0000 0000
00000070: 0000 0000 0000 0000 0000 0000 0000 0000
00000080: 0000 0000 0000 0000 0000 0000 0000 0000
00000090: 0000 0000 0000 0000 0000 0000 0000 0000
000000a0: 0000 0000 0000 0000 0000 0000 0000 0000
000000b0: 0000 0000 0000 0000 0000 0000 0000 0000
000000c0: 0000 0000 0000 0000 0000 0000 0000 0000
000000d0: 0000 0000 0000 0000 0000 0000 0000 0000
000000e0: 0000 0000 0000 0000 0000 0000 0000 0000
000000f0: 0000 0000 0000 0000 0000 0000 0000 0000
0.0 0.0 0.0 0.0 0.0 0.0 0.0 0.0
0.0 0.0 0.0 0.0 0.0 0.0 0.0 0.0
0.0 0.0 0.0 0.0 0.0 0.0 0.0 0.0
0.0 0.0 0.0 0.0 0.0 0.0 0.0 0.0
0.0 0.0 0.0 0.0 0.0 0.0 0.0 0.0
0.0 0.0 0.0 0.0 0.0 0.0 0.0 0.0
0.0 0.0 0.0 0.0 0.0 0.0 0.0 0.0
0.0 0.0 0.0 0.0 0.0 0.0 0.0 0.0

arr_4 f4 [1600, 128]
00000000: f58d fdbc dc52 21bc b411 753c 9d30 3bbd
00000010: 5665 b03c 6ce3 7dbc e045 ec3a 38cd 29bc
00000020: 2a0a c2bc 4f13 543d cc32 1dbc 1e37 eb3c
00000030: 00f8 9ebb 27bb 543d 83f8 6abd 48b7 a3bb
00000040: 4aad e8bc a441 653c 1850 a1bc 9ccb 5dbc
00000050: a7aa 1c3d 0e88 11bd 2653 07bd 10b0 50bb
00000060: c590 1bbd 96cc fa3c 1735 553d 8c40 16bc
00000070: 020e af3c d123 433d ae40 b93c d510 54bd
00000080: c474 6fbd 8272 5ebd a075 c53a ea4e 5dbd
00000090: 913b 1c3d ba58 813c a86d cebc cd63 17bd
000000a0: 851f 243d 9cc5 3cbd 0062 153b 1c96 6c3c
000000b0: ce87 ba3c 5c67 42bc df35 6d3d f639 fc3c
000000c0: 8739 6e3d 74a2 24bd 1e32 c03c 6da7 36bd
000000d0: 64fa 68bc a877 90bc 5a95 30bd 1c20 1b3c
000000e0: 957a 673d d4c3 cabc b712 593d b83a 89bb
000000f0: dcc6 7f3c f09c 73bb 002b bbba 9121 023d
00000100: 4885 bf3b 70f8 733b 5f8a 043d 0e18 aebc
00000110: 217f 253d a4f1 5cbc dab2 f23c b2d2 a9bc
00000120: 56fc 843c 4e0e c73c 24a8 dcbc 96fd 49bd
00000130: 1af8 d03c 71ce 48bd d89b 18bd 971c 713d
00000140: 5e0c 08bd 66df e43c 509d 5dbb 1725 623d
00000150: 5a46 63bd 0049 5abc 2d22 fabc 0695 debc
00000160: c881 923b 9022 753b 4c62 7ebc d66f 983c
00000170: 503d 85bb f036 44bd e04b 7bbb 3c5b 30bc
00000180: b58b 083d aa66 be3c 47d9 4d3d 03ae 313d
00000190: c3db 643d 5955 093d 6182 403d c8bb f43b
000001a0: 3779 0dbd fa45 e33c 44e2 cbbc ea41 b83c
000001b0: fa37 26bd eea1 c73c 4545 52bd 2c08 273c
000001c0: f3dc 153d d893 a5bc ccc6 0fbc c468 24bd
000001d0: d271 8dbc 413b 6d3d ddde 3fbd 5322 2ebd
000001e0: d802 e53b c49d 29bd dde8 3e3d 0087 003a
000001f0: 29b4 243d 40b0 aebb 73ed 24bd 6c65 9dbc
00000200: 62d1 ccbc fa38 f73c c2a4 fd3c ea97 8a3c
00000210: ace1 2d3c aad9 a53c 2ac8 ea3c aa32 933c
00000220: 1034 35bd 12d8 893c c3ed 333d 1a93 17bd
00000230: d95f eebc 8e6e c6bc 0771 413d d84a f13b
00000240: 587e 15bd 3a49 853c d7df 183d 2b9e 413d
00000250: deb6 24bd 6ff1 193d 59d4 033d e2c4 aa3c
00000260: d457 6dbd b605 88bc 572b 0a3d 40f1 65ba
00000270: c340 4bbd 34c1 5abc d340 463d c17a 1e3d
00000280: e925 403d 6097 3ebc 8e86 d13c 46a2 bf3c
00000290: 57fd 303d 454a 553d 1843 b43b 80fd 20bd
000002a0: 781f a33b 9ab7 893c 6871 8c3b 0ab3 dabc
000002b0: 5d1f 43bd 3f33 483d 98cb 31bd 02fc 8e3c
000002c0: 43d7 69bd b4eb 263c cada 03bd 5123 1c3d
000002d0: 8e85 28bd e000 3fbd 383a 19bc 4a32 fb3c
000002e0: 20f7 a7ba 60ca cebc b938 febc adc8 45bd
000002f0: 232a 4b3d f707 1d3d 1078 54bc 14f8 0cbd
00000300: ec3a 563c e2ae a13c 2025 d3ba 5abd f53c
00000310: 1024 12bb 6bdd 593d 6fc2 073d 1164 083d
00000320: 3e69 d33c ac4f 0ebc 3a84 27bd d37a 0a3d
00000330: 7638 8d3c 869d 20bd 8091 84b9 1423 273c
00000340: ba44 afbc 2db5 febc 6e77 13bd 2831 c2bb
00000350: fab4 4bbd f8ab a3bc 92d4 8abc 1b9a 283d
00000360: ece5 1dbd 58dd ab3b 3e33 ec3c bc12 5e3c
00000370: e1e8 443d 862d b93c 1c56 85bc 0074 46bd
00000380: 9e5b 44bd 9099 27bb 1c8f 3fbd 2f89 1d3d
00000390: a6fe b5bc 009b 45b9 e593 523d ea9f 68bd
000003a0: e3a6 0f3d b294 c2bc ce17 f9bc 31b0 6fbd
000003b0: c947 353d 117e 483d 5a07 2dbd e0bf 34bd
000003c0: 7ab9 a83c 9d75 433d 0941 64bd abee 4d3d
000003d0: 8511 61bd 975f f2bc deba b93c 5771 2c3d
000003e0: 6870 8e3b 035f 40bd 7f81 6e3d 8539 08bd
000003f0: 9910 313d d69e ed3c fa7e 4dbd 3ba8 4a3d
-0.03095148 -0.009846415 0.014957834 -0.045700658 0.021532696 -0.015496116 0.0018026195 -0.010363869
-0.023686487 0.051776227 -0.00959463 0.028712805 -0.0048513412 0.051936295 -0.057365905 -0.004996214
-0.028402943 0.013992701 -0.019691512 -0.013537314 0.038248684 -0.035530142 -0.03303828 -0.0031843223
-0.03797986 0.030615132 0.052052584 -0.009170663 0.021368984 0.04764158 0.02261385 -0.051773865
-0.058460966 -0.054308422 0.0015064962 -0.054030336 0.038142744 0.015789378 -0.025198773 -0.03696041
0.040069122 -0.046086892 0.0022794008 0.014440086 0.022769835 -0.011865463 0.057912704 0.030789357
0.05816033 -0.04019399 0.023461398 -0.044593263 -0.014219854 -0.017635182 -0.043111183 0.009468105
0.056513388 -0.024751581 0.052996363 -0.004187908 0.015611377 -0.00371724 -0.0014279783 0.031770293
0.005844746 0.0037226938 0.032358523 -0.021251705 0.040404443 -0.013485346 0.029626299 -0.02073035
0.016233604 0.024298813 -0.026935644 -0.049314104 0.025508929 -0.049025003 -0.037258 0.058865156
-0.03321492 0.027938556 -0.003381569 0.055211153 -0.055487014 -0.013323069 -0.030533874 -0.02717067
0.0044710375 0.0037404634 -0.0155263655 0.018608015 -0.004066147 -0.047903955 -0.0038344786 -0.0107639395
0.03333636 0.023242313 0.05025604 0.04337884 0.055873644 0.03352866 0.04699934 0.0074686743
-0.034539428 0.027743328 -0.024888165 0.022492368 -0.040580727 0.024369206 -0.05133559 0.010194819
0.036587667 -0.020212099 -0.008775424 -0.040138975 -0.017266188 0.057917837 -0.0468434 -0.042513203
0.0069888644 -0.041410223 0.046608794 0.0004902929 0.040210877 -0.005331069 -0.04026551 -0.0192134
-0.025002185 0.030178536 0.030962352 0.016918141 0.010612886 0.020245392 0.028659899 0.017968494
-0.044239104 0.016826663 0.04392792 -0.03700552 -0.029098438 -0.024222638 0.047226932 0.0073636584
-0.036497444 0.016270269 0.037322845 0.04726998 -0.04021346 0.037583765 0.032184932 0.020845834
-0.057945088 -0.016604286 0.03373274 -0.0008771606 -0.04962231 -0.013351727 0.048401665 0.038691286
0.046911154 -0.01163277 0.025576856 0.023392808 0.043210354 0.052072782 0.0055011623 -0.039304256
0.0049781166 0.01681118 0.00428598 -0.0266967 -0.047637332 0.048876997 -0.043407053 0.017454151
-0.057090055 0.010188032 -0.032191075 0.038119618 -0.041142993 -0.046631694 -0.009352259 0.030663628
-0.0012814738 -0.025242984 -0.031032907 -0.048287082 0.04960073 0.038337674 -0.012968078 -0.034416273
0.0130755715 0.019736711 -0.0016109087 0.029997516 -0.0022299327 0.053189676 0.03314441 0.033298556
0.02580702 -0.008685987 -0.040897585 0.03380854 0.017238837 -0.039212726 -0.00025285408 0.010201234
-0.021395076 -0.03109225 -0.03600257 -0.00592627 -0.04973314 -0.019979462 -0.016947065 0.04116259
-0.03854935 0.005244892 0.028833028 0.013554271 0.048073653 0.022604715 -0.016276412 -0.04845047
-0.047938935 -0.0025573708 -0.04676734 0.038460907 -0.022216152 -0.00018845126 0.051410574 -0.05679313
0.035071265 -0.023752544 -0.030406859 -0.05851764 0.044257913 0.04894835 -0.04224334 -0.0441283
0.020596255 0.047719587 -0.055726085 0.05027644 -0.05494835 -0.029586596 0.022672113 0.042100277
0.004346896 -0.04696561 0.058228966 -0.03325798 0.04322872 0.029006403 -0.050169922 0.049476843

arr_5 f4 [128]
00000000: 0000 0000 0000 0000 0000 0000 0000 0000
00000010: 0000 0000 0000 0000 0000 0000 0000 0000
00000020: 0000 0000 0000 0000 0000 0000 0000 0000
00000030: 0000 0000 0000 0000 0000 0000 0000 0000
00000040: 0000 0000 0000 0000 0000 0000 0000 0000
00000050: 0000 0000 0000 0000 0000 0000 0000 0000
00000060: 0000 0000 0000 0000 0000 0000 0000 0000
00000070: 0000 0000 0000 0000 0000 0000 0000 0000
00000080: 0000 0000 0000 0000 0000 0000 0000 0000
00000090: 0000 0000 0000 0000 0000 0000 0000 0000
000000a0: 0000 0000 0000 0000 0000 0000 0000 0000
000000b0: 0000 0000 0000 0000 0000 0000 0000 0000
000000c0: 0000 0000 0000 0000 0000 0000 0000 0000
000000d0: 0000 0000 0000 0000 0000 0000 0000 0000
000000e0: 0000 0000 0000 0000 0000 0000 0000 0000
000000f0: 0000 0000 0000 0000 0000 0000 0000 0000
00000100: 0000 0000 0000 0000 0000 0000 0000 0000
00000110: 0000 0000 0000 0000 0000 0000 0000 0000
00000120: 0000 0000 0000 0000 0000 0000 0000 0000
00000130: 0000 0000 0000 0000 0000 0000 0000 0000
00000140: 0000 0000 0000 0000 0000 0000 0000 0000
00000150: 0000 0000 0000 0000 0000 0000 0000 0000
00000160: 0000 0000 0000 0000 0000 0000 0000 0000
00000170: 0000 0000 0000 0000 0000 0000 0000 0000
00000180: 0000 0000 0000 0000 0000 0000 0000 0000
00000190: 0000 0000 0000 0000 0000 0000 0000 0000
000001a0: 0000 0000 0000 0000 0000 0000 0000 0000
000001b0: 0000 0000 0000 0000 0000 0000 0000 0000
000001c0: 0000 0000 0000 0000 0000 0000 0000 0000
000001d0: 0000 0000 0000 0000 0000 0000 0000 0000
000001e0: 0000 0000 0000 0000 0000 0000 0000 0000
000001f0: 0000 0000 0000 0000 0000 0000 0000 0000
0.0 0.0 0.0 0.0 0.0 0.0 0.0 0.0
0.0 0.0 0.0 0.0 0.0 0.0 0.0 0.0
0.0 0.0 0.0 0.0 0.0 0.0 0.0 0.0
0.0 0.0 0.0 0.0 0.0 0.0 0.0 0.0
0.0 0.0 0.0 0.0 0.0 0.0 0.0 0.0
0.0 0.0 0.0 0.0 0.0 0.0 0.0 0.0
0.0 0.0 0.0 0.0 0.0 0.0 0.0 0.0
0.0 0.0 0.0 0.0 0.0 0.0 0.0 0.0
0.0 0.0 0.0 0.0 0.0 0.0 0.0 0.0
0.0 0.0 0.0 0.0 0.0 0.0 0.0 0.0
0.0 0.0 0.0 0.0 0.0 0.0 0.0 0.0
0.0 0.0 0.0 0.0 0.0 0.0 0.0 0.0
0.0 0.0 0.0 0.0 0.0 0.0 0.0 0.0
0.0 0.0 0.0 0.0 0.0 0.0 0.0 0.0
0.0 0.0 0.0 0.0 0.0 0.0 0.0 0.0
0.0 0.0 0.0 0.0 0.0 0.0 0.0 0.0

arr_6 f4 [128, 1]
00000000: fcad 1bbe 49d7 eebd 9ce6 f03d 10c4 3f3d
00000010: 18df c63d e7c9 2dbe aa02 00be 693f 19be
00000020: 0c5a 183e cddc 35be f014 ecbc 88ff 8ebd
00000030: b0e5 e2bd ccb8 4bbe 90e8 43bc f638 0a3e
00000040: 70d4 403d 60d8 c03d 1317 d8bd 2af6 203e
00000050: 3c02 a8bd becc b4bd 1858 e43d 0844 d63d
00000060: 88bb ffbc 4499 313e e4a6 6bbd 1c50 8f3d
00000070: 9ac1 523e 6c6f 113e b420 26bd 747f ba3d
00000080: 0826 83bd 0c79 52be 2896 203e 6614 3a3e
00000090: 9da2 27be 7ce5 a03d 84d3 4abe 9823 c23c
000000a0: 701e a2bd e8b0 d13d c008 333d 5c68 06bd
000000b0: c6dc 45be c40a 183e 822f 03be 3f0d 46be
000000c0: d877 f8bc 2aab 4cbe b8c1 0f3d 98b7 85bd
000000d0: 446b d73d b066 293e e886 2ebe 5ebe 323e
000000e0: 30af d13d 7b5a 56be 1c5f 5b3e c628 0d3e
000000f0: 6262 c5bd 1083 393d b0b7 19bd c472 bb3d
00000100: 5aab 343e c8f1 08bd 387b 2e3e 204f 88bb
00000110: 1822 fe3d 5c7a 263e 74ea d3bd 1025 993d
00000120: 2018 f2bc 5c04 ad3d 98ff d5bc cc48 543e
00000130: d037 133e 5039 453e e850 5abe 521f c3bd
00000140: b867 ee3c 7685 573e 78de 12be c8f8 82bc
00000150: 892b 0abe 7a26 86bd e881 0e3e 3d78 fdbd
00000160: 18a6 fb3c f4cd 6fbd f45e 493e 6abd 16be
00000170: c82a 1c3d 0017 fe3d ccab fa3d 8ede 483e
00000180: 3cf4 a4bd 7a84 03be a9f8 febd ac5d f53d
00000190: 908b 723d 808a ceba 6c34 9abd aa27 203e
000001a0: f046 8fbd fcc1 833d f212 21be 88c4 1b3e
000001b0: 18cc 9e3c 902c f3bd bc38 db3d 36d7 0b3e
000001c0: 6226 4f3e 7ce9 02be c035 50bc 1e85 9dbd
000001d0: 96ca 9ebd cef1 27be 2552 09be ac65 863d
000001e0: d2ab 01be 48fe bdbc d0d8 403e 0040 e03b
000001f0: ac70 b03d 0aac 49be 3871 343e 61d5 e2bd
-0.15203089 -0.11662156 0.11762735 0.04681784 0.097105205 -0.16971551 -0.12501016 -0.14965595
0.148781 -0.1776001 -0.028818578 -0.069823325 -0.11078966 -0.19894713 -0.011957303 0.13498291
0.047077596 0.0941627 -0.10551276 0.15718904 -0.08203551 -0.08828114 0.11149615 0.10462195
-0.031217352 0.17343622 -0.057532206 0.069977015 0.20581666 0.1420266 -0.040558532 0.09106341
-0.06403738 -0.20553988 0.1568228 0.18171844 -0.16370626 0.07856271 -0.1980725 0.023698613
-0.07915962 0.1023882 0.043709517 -0.03281437 -0.193225 0.14847857 -0.12811092 -0.1934099
-0.030330583 -0.19987169 0.035096854 -0.06529158 0.10518506 0.16543078 -0.1704365 0.17455432
0.102384925 -0.20932953 0.21423 0.13785085 -0.09637906 0.045291007 -0.037528694 0.09152749
0.1764349 -0.033433706 0.17039192 -0.004159823 0.124088466 0.16257614 -0.10347453 0.07477772
-0.02955252 0.08448097 -0.026122853 0.20730895 0.1437676 0.19260144 -0.21319926 -0.09527458
0.029102191 0.21047005 -0.14342678 -0.015987769 -0.1349317 -0.065503076 0.13916743 -0.12376449
0.030718848 -0.05854602 0.19665128 -0.14720693 0.038126737 0.12406731 0.12239799 0.19616148
-0.080543965 -0.12843505 -0.12449772 0.11980757 0.05921513 -0.0015757829 -0.0752953 0.1564013
-0.06995952 0.06433484 -0.15729883 0.1521169 0.019384429 -0.11873734 0.107041806 0.13656315
0.20229486 -0.1278438 -0.0127081275 -0.07691406 -0.07753484 -0.16400835 -0.13410242 0.06562361
-0.126632 -0.02319254 0.18832707 0.006843567 0.086152405 -0.19694534 0.17621315 -0.11075855
