ep2-cnn/results-multiclass-hog/final_weights.npz (npz, 25094 bytes, 4 tensors)

arr_0 f4 [36, 128]
000000 63 f8 d1 3d bd 23 14 3e 99 a5 7e 3e d4 55 1a 3d
       0.10252454 0.14466758 0.24867858 0.03767951
000010 51 02 6d 3b df d9 6d 3e d0 1c bc 3d e4 04 6f be
       0.003616471 0.23227642 0.09185183 -0.2334171
000020 ca cc 9c 3e 6f cb 09 bc 29 6b 31 3e 7f 30 80 3e
       0.30624992 -0.008410319 0.17326035 0.25037
000030 3d 55 ac bd 66 a0 40 3d e7 96 5c 3e 1d 28 cc 3d
       -0.084146954 0.047027968 0.2154194 0.099685885
000040 f4 c1 28 3e 3e 15 4b bd d5 2a 81 be a9 c1 26 be
       0.16480237 -0.049580805 -0.2522799 -0.16284813
000050 a5 3b 61 be 03 6c ac 3e 99 2f a2 3e c4 41 27 be
       -0.21995409 0.33676156 0.3167694 -0.16333681
000060 a7 61 df bc 91 30 8a 3e d2 90 fd 3c 12 a9 95 be
       -0.027268244 0.26990178 0.030952845 -0.29230553
000070 32 43 cf 3d d7 de ea bd 50 dd c1 bd 9d d4 42 3d
       0.10120238 -0.114682846 -0.0946604 0.047566045
000080 3d cc 82 3d 57 fa 06 be 52 6c 6a 3e a3 24 84 3d
       0.063866116 -0.13181435 0.22892883 0.064523004
000090 a7 88 7b bc a5 b5 d1 3d 9a f0 45 bd f0 4a 24 3e
       -0.015352405 0.10239724 -0.04832516 0.16044211
0000a0 81 96 49 be 6b 75 8e bd e7 10 42 3d 14 bd 18 3e
       -0.19686319 -0.069559895 0.0473794 0.14915878
0000b0 54 30 1f 3f 0c 68 ef bd 59 51 ad bd c3 08 22 be
       0.6218312 -0.11689767 -0.084627815 -0.15823655
0000c0 19 18 e1 3e 23 74 c4 be 99 c8 8b 3e 5e 4b 90 3e
       0.43963698 -0.38369855 0.2730148 0.281825
0000d0 ad 81 c6 3c 78 21 bf be 87 3d 5f 3d 7d bd 0a 3e
       0.024231756 -0.37330222 0.054502036 0.13548847
0000e0 61 12 bb bd 6b 9d b5 be 62 a0 a1 3e c4 38 7f 3e
       -0.09134365 -0.35471663 0.31567675 0.24923998
0000f0 11 dd de 3d 4d d3 8b be 48 b8 81 be 18 9d 27 bd
       0.10882009 -0.27309647 -0.25335908 -0.0409213
000100 9e a2 69 3e 90 8e 07 3e f3 5a 12 3e fe d0 f8 3c
       0.2281594 0.13237977 0.14292507 0.030373093
000110 bb f7 de 3c f1 45 9e be 2f c3 cc 3e 53 85 76 bd
       0.027217736 -0.30912736 0.39992663 -0.06018574
000120 4c 3a 30 3e 00 fa f5 bd f9 1e f7 3b 54 21 5e 3e
       0.17209738 -0.12010574 0.007541534 0.21692401
000130 f2 d7 12 be aa f9 6f be e0 95 ed bd 89 c5 3b be
       -0.14340189 -0.23435083 -0.11600852 -0.18337072
000140 61 a2 b1 be c0 8b 8a bd bc 93 35 be da 8a ab 3d
       -0.34694198 -0.067649364 -0.17732137 0.08376093
000150 46 60 56 be 7a 02 8f 3d 56 8d 32 bc 43 5d 6f 3e
       -0.20935163 0.06982894 -0.010897955 0.2337542
000160 4d cb 6b 3e b5 01 a4 3d 79 87 9c be ba 2e f5 bd
       0.23026772 0.08008138 -0.30572107 -0.11971803
000170 74 a0 0a bf e7 6b 44 be 8e ab b2 3d dd f1 07 bd
       -0.5415108 -0.19181786 0.08724128 -0.033189643
000180 22 0d 4b be 6d f6 9d bd 2c e2 a3 bc ff d8 ff 3e
       -0.19829229 -0.077130176 -0.020005308 0.49970242
000190 2d 16 0e 3e 32 06 93 bd d9 23 db 3d 26 9c 2a 3e
       0.13875647 -0.07178916 0.10700197 0.16661128
0001a0 2b d5 56 3e fb fb 5b be dc 64 8c bd e8 bf c5 3d
       0.20979755 -0.21482842 -0.06855175 0.09655744
0001b0 15 2e 29 be a3 12 8e 3d c8 b8 cf 3b 2c 1c 15 3e
       -0.16521485 0.069371484 0.0063391663 0.14561528
0001c0 47 f6 12 bd 21 ad 31 be 2a 56 d3 3c e5 e8 a5 bd
       -0.0358794 -0.173512 0.025797922 -0.08101062
0001d0 99 de 30 bd 3a 4b 8b 3e 90 a3 a4 be 30 1b 5d 3e
       -0.043181036 0.2720583 -0.32156038 0.21592402
0001e0 96 59 47 3e 14 55 c0 be 93 5d 2f bb 6b 29 6c be
       0.19467768 -0.3756491 -0.0026758655 -0.23062675
0001f0 2f 7b df bd c0 11 a4 bc 57 52 5b 3c 21 ad 72 be
       -0.10912167 -0.020027995 0.013386331 -0.23698856
000200 2a 30 06 be 43 26 9e be f5 79 02 3f 85 58 2f 3d
       -0.1310431 -0.30888566 0.5096734 0.04280903
000210 49 57 87 bd 6c f1 14 be 45 36 81 bd 9a 57 13 be
       -0.06608445 -0.1454522 -0.06309179 -0.14388886
000220 61 93 66 ba 5b 15 b8 bd 95 83 3e be af ac 92 3e
       -0.0008795765 -0.08988448 -0.18604882 0.28647372
000230 16 48 12 bf ef fe 93 3e 99 a1 0b 3e 78 6c aa bc
       -0.57141244 0.28905436 0.13635863 -0.020803675
000240 0a 3a d2 3d 1c b7 aa be 27 7b 89 be ee 0a 00 3d
       0.10264976 -0.33342826 -0.2685177 0.031260423
000250 40 2f f4 3d a6 07 30 3e 6a 3f 48 3e 0b 83 2f be
       0.11923075 0.17190418 0.1955544 -0.17139833
000260 76 43 c5 3d 41 5a 09 3e d6 6d bc bd a3 4a c3 3e
       0.09632008 0.13413335 -0.09200637 0.3814288
000270 97 b5 d7 3e 8a 69 d5 3e 31 ec bb 3c 07 c5 80 bd
       0.4213073 0.41682082 0.022939773 -0.0628758
000280 fd cf 24 be 4f c5 69 be 27 f5 03 3c 20 7b 89 bd
       -0.16094966 -0.22829174 0.008054054 -0.06712937
000290 b2 32 b6 3e 36 ad b0 bd ec 3c 5c 3e 28 e3 00 be
       0.35585552 -0.08626787 0.21507615 -0.12586653
0002a0 8e b7 a2 be 5a ee 1a 3b 42 4d 91 bd 41 69 57 3d
       -0.31780666 0.0023640604 -0.07094814 0.052590612
0002b0 0a 3d 69 3e 32 08 ed 3d 34 47 5c 3e 43 a3 18 bf
       0.22777191 0.11573829 0.21511537 -0.5962412
0002c0 b1 1c f4 3d 63 f8 0e bf b7 a9 dc bd bd 66 94 bd
       0.11919535 -0.5584776 -0.10774558 -0.07246158
0002d0 33 4d c5 be f3 67 92 bd 5a f8 8c 3d 1b 03 9a 3d
       -0.3853546 -0.07148733 0.06883307 0.075201236
0002e0 cb 83 30 be d0 02 ad bd 4b f7 9c bc 31 e3 2d 3e
       -0.17237775 -0.08447802 -0.019160887 0.16981198
0002f0 b5 12 f8 bd 3b 5e 97 be af bc 7f be 00 c8 f1 38
       -0.12112943 -0.2956408 -0.24974321 0.000115290284
000300 bb 71 25 be 5d 89 ec 3d 95 b8 88 3d 9d 50 81 be
       -0.16156666 0.115496375 0.06675831 -0.25256816
000310 b5 a7 2b bf eb 55 41 bc b7 c0 9e 3e 00 6a a7 bb
       -0.67052776 -0.01180027 0.31006405 -0.0051090717
000320 72 ff 00 bd 3f 3c 05 bf 3a 5f 17 3e c9 3a 0b 3f
       -0.03149361 -0.52045053 0.1478242 0.54386574
000330 a2 24 16 3e 98 64 61 be 86 4a cb 3e 31 e2 92 3d
       0.14662412 -0.2201103 0.39705294 0.07172049
000340 c2 25 5d be a3 8d ac 3e c6 ab 81 3e d2 89 2a bd
       -0.21596435 0.3370181 0.25326365 -0.041635342
000350 77 16 35 bd 20 11 17 be 95 44 e7 3d bb 0a b4 3e
       -0.044210877 -0.14752626 0.11292378 0.35164437
000360 fe 03 9e 3e 2c 7c b3 bd b2 af 01 3d 7c 9b 5a bd
       0.3086242 -0.08763918 0.031661697 -0.053370938
000370 ea c2 42 3b 75 87 39 3e da ac c9 3d 5b ff 9f be
       0.0029718229 0.18118079 0.09847422 -0.31249508
000380 86 84 dc be d6 65 53 be 38 fd 1c 3e f3 a9 0b 3f
       -0.43069857 -0.20644316 0.1533097 0.54556197
000390 dc a3 7a bd 57 47 06 3e 8b 3b 7c 3d cb 47 d9 3e
       -0.061191425 0.13113151 0.061580222 0.42437586
0003a0 6d 03 65 3e 65 67 df 3d a0 ee 4c be 17 6b d9 bd
       0.22364588 0.10908393 -0.20012903 -0.10616129
0003b0 cc ad 8b bd bb 5f 15 bd e2 3b 47 bd 51 f6 7a 3e
       -0.068202585 -0.03646825 -0.048641093 0.24508025
0003c0 00 09 6b be aa a5 a5 be 9d 19 41 be 1f 0c be bd
       -0.22952652 -0.32352954 -0.18857427 -0.09279656
0003d0 2e 55 bc 3d 6e b5 2c bc d9 4f 8e be ce 8d 6b 3e
       0.09195934 -0.010541303 -0.27795294 0.23003313
0003e0 15 95 e7 3e 36 51 78 be 2f 96 8e 3d e8 67 ee bc
       0.45230928 -0.2424973 0.06962239 -0.02910228
0003f0 3f e6 fb 3d 3c 13 a5 3d 77 31 8a 3d 21 f5 83 be
       0.12299775 0.08060309 0.06747716 -0.25772956

arr_1 f4 [128]
000000 82 d3 9e 3d 3c 82 89 3d d7 38 c8 bb fe f2 0a bc
       0.07755186 0.06714293 -0.0061102915 -0.008480785
000010 13 f3 b4 bc 0a 80 ff 3c 19 ee c2 3c 71 c5 a7 3c
       -0.022088563 0.031188983 0.023795174 0.02047989
000020 ea 54 67 3e a9 28 f1 3c 47 8a 8a 3e 43 d3 6f 3d
       0.22590986 0.029438334 0.27058622 0.058551084
000030 2c 10 36 3c c9 ae 45 3c f3 b5 5c 3d c1 6e 6c 3d
       0.011112254 0.012065598 0.053884458 0.05772281
000040 c5 8f 8a 3d 0f cd d4 3c 5f f0 7e bd 56 4d c7 bc
       0.06765703 0.025976686 -0.062240954 -0.024328869
000050 3e f1 da 3e 61 45 69 3d a1 29 58 3e c0 5a 22 3e
       0.42762178 0.05695093 0.2110963 0.15854931
000060 f9 d5 72 3d 2d 43 47 3d 51 68 a5 3d 31 de 50 3d
       0.05928609 0.04864805 0.080765374 0.05099315
000070 cf 95 09 be d8 21 a9 3d 85 fa cf bc 97 ab 6a bd
       -0.13436054 0.08258408 -0.025388012 -0.057292547
000080 05 95 e9 3c 14 e9 4e bd 20 23 85 3d 79 90 20 bd
       0.02851344 -0.05051525 0.0650084 -0.03920028
000090 d0 39 24 3b 46 15 ae 3d 13 0e 0a bd bb a2 94 3d
       0.0025058873 0.08500151 -0.03370483 0.07257601
0000a0 09 b7 f2 bd 55 0c ac 3c b8 04 fc bc 31 2a 03 3f
       -0.118513174 0.021001974 -0.030763969 0.51236254
0000b0 77 11 c3 3e 14 f9 4c 3d 89 42 dc 3c 47 66 78 3d
       0.38099262 0.050042227 0.026887195 0.060644414
0000c0 d0 47 16 3d fc d2 79 bd 50 33 f9 3e e3 ff a7 3d
       0.03668958 -0.060992226 0.4867196 0.082031034
0000d0 82 08 3f 3e 69 5b 69 3d c8 7d 20 bc 05 95 c8 bd
       0.18655589 0.05697194 -0.009795614 -0.09794048
0000e0 78 10 68 3e 01 e4 58 3e 38 a7 c8 bd bf 64 84 3c
       0.22662532 0.21180727 -0.097975194 0.01616132
0000f0 57 c4 4c 3d bc 43 82 3d 60 66 5b be 00 00 00 00
       0.04999193 0.063605756 -0.21425772 0.0
000100 92 09 8b bc 47 cc 30 3d 16 a1 17 bd 96 f7 d9 3b
       -0.016972337 0.043163564 -0.037018858 0.006651829
000110 26 ec f2 3e ec c7 61 3e c5 d5 37 3d d8 c0 61 3e
       0.47445792 0.2204892 0.0448816 0.2204622
000120 d5 18 4f 3d ad 43 80 3d 8d 85 51 3d bf db 83 3e
       0.05056079 0.06262908 0.051152755 0.2575359
000130 0b ab f4 3d 42 72 af 3d e7 7c 21 3e 4b 74 a1 3d
       0.11946686 0.08566715 0.15770303 0.07883509
000140 cc 34 15 3e 0b 74 51 3e c6 c4 20 3d 5c f2 45 3d
       0.14570922 0.20454423 0.039250158 0.048326835
000150 29 93 aa 3d 82 83 94 3e c4 f6 d8 3c 87 4f e8 3c
       0.0832885 0.29006582 0.026484855 0.028358234
000160 e2 56 f5 3d 13 b8 8e 3d 96 2b 12 3e 73 a3 a2 bc
       0.11979462 0.06968703 0.14274439 -0.01985333
000170 3d 50 b1 3d c2 f2 4b 3d 42 76 a1 bd 4d 82 ec 3d
       0.08657882 0.04979206 -0.07883884 0.115482904
000180 ac 9e 29 3e 0c 46 8a 3d 38 23 8f 3e 99 2a 75 3e
       0.16564435 0.06751642 0.27956557 0.23942031
000190 cc 28 b1 bc ba 3f 0f 3e 63 8a ba bc 15 42 02 3e
       -0.021625899 0.13989154 -0.022771066 0.12720521
0001a0 65 a8 d6 3d 3b f2 e6 3c 63 a3 c8 3c 22 68 ea bc
       0.104813375 0.028191676 0.024491971 -0.028614108
0001b0 3c 01 67 3d 97 88 cb 3e 59 80 72 3d b9 0a 6c 3d
       0.05639766 0.39752647 0.059204433 0.057627413
0001c0 36 aa f9 3d 3d 04 36 bd b0 54 e3 bc 76 13 17 bd
       0.12190668 -0.044437636 -0.027750343 -0.036883794
0001d0 23 0e 2a 3d aa c1 55 3e 72 65 64 bc 3d 56 5e 3d
       0.041517388 0.20874658 -0.013940202 0.054281462
0001e0 96 f7 58 3e ac 7c 49 bd 80 f6 e3 3c 5d 1e be 3d
       0.21188197 -0.049191162 0.027827501 0.09283135
0001f0 d8 1b 01 3e d8 9e a2 3d 15 0f 10 bd c8 23 df 3c
       0.12608278 0.07940453 -0.035170633 0.027238742

arr_2 f4 [128, 10]
000000 5d 89 46 be d9 54 16 3e 64 0c c2 be 6b ab e0 3d
       -0.19388337 0.14680804 -0.37900078 0.109701954
000010 2b 28 a6 bd d8 02 98 be 73 42 c9 bd 42 84 2b 3d
       -0.0811313 -0.2968967 -0.09827127 0.041874178
000020 0a 6c 1f 3e b7 dd a2 3d 7d 9c 39 bf ca a4 16 be
       0.15568557 0.07952445 -0.7250441 -0.147113
000030 92 06 37 3e 03 c5 b4 3d e0 4a 76 3e d6 3d e0 3e
       0.178736 0.088266395 0.24052 0.43797177
000040 3a 98 72 bf 9d 6b ec bd 81 a6 1c be 6b 99 62 bf
       -0.9476353 -0.11543963 -0.15297891 -0.8851535
000050 a0 a6 73 bf b6 96 60 bf 0b 5a 89 bf 3e bc a1 bf
       -0.95176125 -0.87729967 -1.0730604 -1.2635572
000060 cd c8 3a bf 94 ae 15 3f cb 46 2d 3f 8e 07 71 bf
       -0.7296265 0.5846951 0.67686146 -0.9415215
000070 a2 93 e3 bd 43 e0 68 bf 0d 95 d5 bd 04 6f c1 bc
       -0.11112143 -0.90967196 -0.1042882 -0.023612507
000080 ee 96 ca 3b c5 cf 66 3e a6 c9 cc 3d b2 48 e2 be
       0.006182543 0.22540195 0.09999399 -0.44196087
000090 b9 13 26 be f2 ae bc be e9 f7 7f be 98 26 29 3e
       -0.16218461 -0.36852223 -0.24996914 0.16518629
0000a0 32 58 57 3c 3e 29 a9 3e 2f 8a 21 3e 49 bc 4e be
       0.013143586 0.33039278 0.15775369 -0.20189013
0000b0 ff da 8d be 65 45 24 bd 0a 6e 02 3e d0 32 44 3d
       -0.27706143 -0.040105242 0.12737289 0.04790002
0000c0 85 24 4c 3e aa ee 88 3c 2a 7d 97 be 9d aa 65 bc
       0.19935806 0.016715366 -0.2958768 -0.014017728
0000d0 8c 81 7e 3e d1 9d 62 be f9 01 60 be 30 12 57 3e
       0.24854106 -0.22130515 -0.21875753 0.21003032
0000e0 6c 87 19 3e d9 88 55 be 65 b7 8f be a4 23 8e be
       0.14993066 -0.20852984 -0.28069606 -0.27761567
0000f0 25 65 05 be c6 bc 8b be 4f ca 31 3e 0b 10 8d 3e
       -0.13026865 -0.2729246 0.17362331 0.27551302
000100 a0 95 a7 bd 2f f0 9e be 8c c9 6f bd 2b ee 85 bd
       -0.081828356 -0.3104262 -0.05854182 -0.065395676
000110 2f f3 fa bd ad 50 4e be ed ff 90 3e 4f 51 d7 bd
       -0.12253415 -0.20147963 0.28320256 -0.10513555
000120 11 18 90 be c7 4f b2 3e 0c 4b 4d 3e 79 50 fb be
       -0.2814336 0.3482649 0.2004816 -0.49084833
000130 95 4a f6 be 14 b9 81 be 9b 96 87 be 64 fb 82 bc
       -0.48103777 -0.25336516 -0.2648209 -0.015989013
000140 87 94 cc 3e 93 84 6e 3f ba ca 2d bf bf 3d 82 bd
       0.39957067 0.9317104 -0.6788746 -0.063594334
000150 a2 46 51 bf b9 38 a2 bd b9 39 8d bf 97 83 18 bf
       -0.817484 -0.07920975 -1.103324 -0.5957579
000160 ed 78 03 3f 76 9d 20 bf c7 02 25 3f 85 a4 87 3d
       0.51356393 -0.62740266 0.6445736 0.066231765
000170 03 eb 4c 3f 9b 69 96 be db 4e 81 3d 01 f0 15 be
       0.800461 -0.29377446 0.063138686 -0.14642335
000180 27 69 3f be c3 06 4d bd 4a 77 df be 32 3d 57 bf
       -0.18692456 -0.050055277 -0.43645698 -0.8407775
000190 dc 6b 26 3e 5d 81 06 3f 9a 4b b0 3e 6a d5 71 bf
       0.16252083 0.5254114 0.3443268 -0.9446627
0001a0 5f 70 de be e0 86 9c bf 11 50 d5 3e f2 d0 48 bf
       -0.43445107 -1.222866 0.41662648 -0.78443825
0001b0 a2 03 db bd 69 ed 46 bf f4 85 38 be 35 2f 1b be
       -0.10694052 -0.7770601 -0.18019849 -0.15154727
0001c0 5a cd 14 be 0b a5 10 be 8b d7 a5 3e 43 f1 de 3d
       -0.1453146 -0.14125459 0.3239101 0.10885861
0001d0 62 e9 53 be 91 3b d1 be bd 48 00 3e 81 56 f6 3d
       -0.20694497 -0.40865758 0.12527747 0.12028218
0001e0 b5 fd 14 bf 3a cf 7e 3e 0f b0 9f 3d 2a 6f 00 3f
       -0.58199626 0.24883738 0.077972524 0.5016962
0001f0 53 7f 40 be 11 b7 7f bf 94 10 24 bf 86 ff 91 3e
       -0.1879857 -0.9988871 -0.64087796 0.2851526
000200 05 38 d3 3e 49 68 00 be 5a 26 13 bf 52 76 88 be
       0.41253677 -0.12539782 -0.57480395 -0.2665277
000210 39 eb 01 bf 8e 47 a0 be 01 3f 88 3e f1 56 ab 3e
       -0.50749546 -0.31304592 0.26610568 0.3346477
000220 d9 f9 9d 3e d6 18 89 be 84 5f 85 3c a2 bc 88 be
       0.3085468 -0.2677676 0.016280897 -0.26706415
000230 7a 37 71 be 4f b3 b5 be b4 79 4f 3d d1 7a cf bd
       -0.23556319 -0.35488364 0.050653175 -0.10130847
000240 0c 7a 9e bd 6a 78 3b bd 0a 52 9d 3d 4c d3 b6 bd
       -0.07738122 -0.045769133 0.07681663 -0.089270204
000250 71 a6 86 be cd d5 5f 3e d7 0a 0a 3f e1 04 05 3f
       -0.2629886 0.21858902 0.5392279 0.5196057
000260 83 44 17 bf 7a 0b 81 3e c0 71 47 be 28 6e ba bd
       -0.59088916 0.25204068 -0.19476986 -0.09103042
000270 d6 a4 e2 3d da 63 b3 39 c6 ac 3b 3f 05 7e 15 bf
       0.11066596 0.00034215936 0.73310506 -0.58395416
000280 f7 88 8e 3c 52 52 5d 3e 2c 96 21 bf 7e 0e 0f bf
       0.017399294 0.21613434 -0.6311977 -0.5588149
000290 ae 73 89 be 46 71 1f 3e 2a 7c cc be 89 68 93 3e
       -0.2684607 0.15570554 -0.3993848 0.28790691
0002a0 0f 8d 08 3f aa 1b dd 3e cd 9b e5 be 8e 23 d6 3d
       0.5334024 0.43185169 -0.4484543 0.10456
0002b0 8e 00 2e bf e5 32 a5 3e 42 fa 90 3e 68 6c 46 be
       -0.67969596 0.32265392 0.28315932 -0.19377291
0002c0 58 71 a5 bd 17 71 e9 bd 65 08 4d 3e bd 74 21 bf
       -0.08078259 -0.11398523 0.20022734 -0.63068753
0002d0 82 38 24 3f f6 28 d9 be 9f f2 1a 3d 6b f1 f3 3e
       0.64148724 -0.42414063 0.037829038 0.47645125
0002e0 82 22 a0 3d bb 3e e3 be df 40 a9 bc f8 5b 85 3e
       0.07819082 -0.44383797 -0.020660816 0.2604673
0002f0 67 07 02 3f a4 e2 5e bf 67 4a b0 3d 33 7c 02 bd
       0.50792545 -0.87064576 0.08607941 -0.031856727
000300 08 b1 11 3e a0 f3 55 3d 09 d9 36 be dd 98 36 bc
       0.14227688 0.052234292 -0.1785623 -0.011144844
000310 dc e2 3e 3e 72 a5 8f 3d 44 67 b7 3d 42 47 ce 3d
       0.18641227 0.07013978 0.08955243 0.10072185
000320 12 5c 44 bd 9e 67 b8 3e 09 b3 a1 3e 53 c7 81 bf
       -0.047939368 0.36016554 0.31581905 -1.0138954
000330 7e b4 52 3e 51 44 ac be b1 c7 45 bd ac 6b 8f 3e
       0.20576665 -0.3364587 -0.048286144 0.28011835
000340 8d e6 a0 bf 91 db 13 bf 5c b3 44 be c4 88 75 3d
       -1.2570359 -0.57756907 -0.19209045 0.059944883
000350 6d 09 78 bf 7f dc a6 bf b3 8b 1b bf 74 e2 4b 3e
       -0.9688938 -1.303604 -0.6076004 0.19910604
000360 e0 8b d9 3e 2e ad 05 bf 2a ce b2 3e a6 aa 96 bf
       0.4248953 -0.52217376 0.34922916 -1.1770828
000370 3a 81 3d bf 08 f3 8a 3f 83 4c 1b bf ba dd 9b be
       -0.7402531 1.0855417 -0.6066362 -0.304426
000380 4b 59 c2 bf 9a 64 52 bd ac b5 2d 3f 4e d4 5c bf
       -1.51835 -0.051365472 0.67855334 -0.8626145
000390 da d9 4a bf 8d 58 53 bf 34 40 06 be 0a 21 f7 bb
       -0.79238665 -0.8255699 -0.13110429 -0.0075417804
0003a0 76 ef 06 3e 65 60 d6 be 02 e5 2e bd 88 f1 05 bf
       0.13177285 -0.41870418 -0.042698868 -0.5232167
0003b0 ee d1 f2 be 97 0e c9 3d 62 dc 01 bf 79 1a d1 be
       -0.4742579 0.09817236 -0.507269 -0.4084051
0003c0 04 b0 65 be 88 12 f1 bc d7 16 53 be f3 50 9f be
       -0.22430426 -0.029427782 -0.20614181 -0.31116447
0003d0 9a 35 17 be 45 37 07 be 19 11 29 3e b4 4a 1e be
       -0.14766541 -0.13204677 0.16510428 -0.15458184
0003e0 26 62 8c bd 6b 9b 5e 3e ec 5a f7 3d 1a ef 90 3e
       -0.06854658 0.21738975 0.12077889 0.2830742
0003f0 b6 66 8a bc 08 d5 59 bd 5e 56 41 be f5 dc b0 be
       -0.01689468 -0.053181678 -0.18880603 -0.34543577

arr_3 f4 [10]
000000 4b a6 ee bc b7 63 29 bd 70 4c a2 bd 56 4e 99 bd
       -0.029132029 -0.04135486 -0.079247355 -0.074856445
000010 92 37 55 bd 81 37 8c bc 2e 10 73 bd e4 50 fe bc
       -0.05205495 -0.01711631 -0.059341602 -0.031044431
000020 c2 3d a4 bd a8 58 69 bd
       -0.08019592 -0.056969315
