ep2-cnn/results-multiclass-hog/initial_weights.npz (npz, 25094 bytes, 4 tensors)

arr_0 f4 [36, 128]
00000000: ca3a e93d 70da 2fbe 4d45 bebd 58ef f53c
00000010: 20ad 3bbc 97a9 363e ea0e d53d 30d6 eabd
00000020: 36ed b43d 4744 113e 0c58 6ebd 28c5 db3c
00000030: 5ad9 e33d 9faf 16be 62b1 bc3d a3e0 093e
00000040: ec16 553d f8a6 1cbd c40e 35bd 5664 17be
00000050: a82b 02be a0aa 663d eacd b63d 0079 27ba
00000060: c93b d6bd 525d c63d 489e d93c 308c 18be
00000070: c596 07be 1458 0dbd 32d9 853d 3f62 0bbe
00000080: 80dc ee3b 46b6 8dbd 6aee da3d 65e9 cbbd
00000090: 5468 d6bd 2e25 e23d 684b 2ebe 4e59 d43d
000000a0: 00e8 78ba 6a23 33be 3684 9c3d d867 673d
000000b0: 38c4 dc3c c023 86bd 30b1 02bd cb55 8fbd
000000c0: cc38 35bd 55c0 41be e361 103e 642c 793d
000000d0: ecb2 233d 58f6 18be 4e46 b93d b9c4 1c3e
000000e0: c0d8 7cbd a0aa 7ebc d303 293e 7d21 273e
000000f0: 7081 dcbc 87ef 2c3e dadc f9bd 189d 27bd
00000100: e618 db3d 3ea7 8c3d e195 3f3e 85b9 0f3e
00000110: 1e10 42be ccea 0abe afad 273e 44c5 713d
00000120: 3db7 323e 5818 31bd 11fa e2bd a813 1f3d
00000130: 57b6 f8bd 9867 22be a6a5 c4bd 36b4 ab3d
00000140: ecd1 b2bd 98cf f1bc 1e5f 41be d118 163e
00000150: e306 0bbe 4bcf 283e 50dc 0cbd caf4 cc3d
00000160: 00ad a03a cc8b 7d3d b65f 1ebe 6d53 d7bd
00000170: 36ee bbbd 7662 31be 78a6 a03c 6066 ed3b
00000180: 94c0 4bbd 29aa e2bd 033c 103e 99ad 003e
00000190: d1cf 283e 3184 ecbd 59fd 003e e0b4 9b3b
000001a0: c066 ab3b 62e5 10be 604c 573d 16fc fd3d
000001b0: 5dcc 09be ccd2 7b3d 0038 06bd 7251 b93d
000001c0: fd72 e0bd fb35 20be f3d1 c9bd 0cf6 4bbd
000001d0: 3019 bebd bad9 e93d 9e1b 06be 749f 14be
000001e0: 005a 5a3c 4e28 05be adb4 22be 543e 1fbe
000001f0: 131e 323e 81b2 e7bd 80e5 4b3d 07ca e3bd
00000200: 18b8 21bd 63f6 12be 6a63 de3d ea1f 963d
00000210: a0dc 55bc b458 95bd f0ec a43c 1fb4 12be
00000220: 6e14 e0bd d458 1dbe 4488 16be 926a a83d
00000230: b27d b6bd 42c1 a93d 00b7 a73b 7843 ccbc
00000240: fc75 203d 60d9 8dbd 1ebf eebd 407f 573d
00000250: 5da0 1c3e e35a d7bd 20b6 e5bc 53e0 9dbd
00000260: 58e4 043d 8661 8d3d 405e 7abc f2ff f93d
00000270: a7b7 3c3e a33c 0b3e 7f1d 1c3e 744f 49bd
00000280: e8b5 e93c a8d8 03be e0ef 64bd 2072 b23c
00000290: d23e c23d 1899 233d da29 8f3d d06c 14bd
000002a0: 78ab 92bd 2835 91bc 8ce7 43bd f2df 39be
000002b0: 089c 6dbd fd5a 383e bdaf 1e3e 5261 fdbd
000002c0: 0666 04be ab96 08be 49a7 2abe 2648 9d3d
000002d0: 07f8 d5bd 90ec 02bc 8379 dcbd d317 2d3e
000002e0: 552c d3bd 02ff a5bd c20d 26be 078e 023e
000002f0: 9d8a 0ebe a43f 7fbd 88ec 5d3d 00c8 f138
00000300: f329 2fbe 22ed 853d 0a65 d83d 291b 3ebe
00000310: 4053 0ebb e8ad 2e3d dab4 f13d 808a 553b
00000320: c670 0dbe 1148 42be b021 3dbc e008 603d
00000330: 9543 d5bd 047c 3f3d 889d 80bc 10c5 c7bc
00000340: 14a4 20bd a2fe a23d 311b 133e 1894 d8bd
00000350: a2ba cfbd d46e b5bd a602 c63d 5ef8 b13d
00000360: 77a7 2cbe c5cf 1fbe d865 2bbd 5849 24bd
00000370: c090 cbbb eb0e 0a3e b3f6 343e 0802 26be
00000380: c1fa 16be c790 27be 5f6e 193e 42b1 aebd
00000390: 80b4 2bbd 0e28 81bd 26da 993d 1d7d 0e3e
000003a0: 5a73 c83d 80d6 423d 645d 03bd ebf7 b6bd
000003b0: c0f3 30bc 5246 8f3d bd81 f4bd 21e0 203e
000003c0: 304d 303c 507c 2bbe 66ab e33d 3ab5 bd3d
000003d0: cf01 2c3e 62db aabd a2d3 b4bd 238b 3a3e
000003e0: 1051 f1bc b1bf b9bd b6c3 a43d d86d d7bd
000003f0: f0c5 3e3c 8030 bfba a288 cd3d 6a50 d13d
0.11388166 -0.17173171 -0.09290562 0.030021355 -0.01145485 0.17838131 0.10403235 -0.11466634
0.08834307 0.14186202 -0.058189437 0.02682741 0.11125441 -0.14715432 0.092135206 0.13464598
0.052023813 -0.03824517 -0.044203535 -0.14784369 -0.12711966 0.056315064 0.08925994 -0.0006388575
-0.10460622 0.09685768 0.026564732 -0.14897227 -0.13241108 -0.034507826 0.06535567 -0.13611697
0.0072894692 -0.069195315 0.10690005 -0.09956626 -0.10469118 0.11042248 -0.17020953 0.10368596
-0.000949502 -0.17493978 0.07642405 0.056495517 0.026949033 -0.065497875 -0.03190726 -0.069987856
-0.04424362 -0.18921025 0.14099841 0.06083335 0.039965555 -0.14937723 0.09046613 0.15309419
-0.061730146 -0.01554361 0.16505365 0.16321369 -0.02691719 0.16888247 -0.12200327 -0.0409213
0.106981084 0.068678364 0.18709518 0.14035614 -0.1895146 -0.1356613 0.16374849 0.059026018
0.17452712 -0.043236107 -0.11082853 0.038837105 -0.121441536 -0.1585983 -0.096019074 0.08383982
-0.08731446 -0.029517934 -0.1888394 0.14657904 -0.13576846 0.16485326 -0.034389794 0.10007627
0.0012258589 0.0619009 -0.15466198 -0.10513959 -0.091762945 -0.17322716 0.019610628 0.00724487
-0.049744204 -0.11067612 0.14085393 0.12566222 0.16485526 -0.11548651 0.12596644 0.0047517866
0.0052307546 -0.14150003 0.05256307 0.12401597 -0.13456865 0.06148033 -0.03276825 0.090487376
-0.10959432 -0.15645592 -0.09854498 -0.049795195 -0.09282148 0.11418481 -0.13096473 -0.14513952
0.013327122 -0.13003656 -0.15889235 -0.1555112 0.17394285 -0.11313344 0.049779415 -0.11122518
-0.039482206 -0.14351802 0.108588055 0.07330306 -0.013053089 -0.072923094 0.020132512 -0.14326523
-0.10941397 -0.15365916 -0.14700419 0.08223452 -0.08910693 0.08288814 0.005118251 -0.024934515
0.03917502 -0.069262266 -0.116575465 0.05261159 0.15295549 -0.10515382 -0.028040946 -0.07708802
0.032444328 0.06903367 -0.01528126 0.12207021 0.18429433 0.1359735 0.15245627 -0.049148038
0.028529122 -0.12875617 -0.055892825 0.021782935 0.09484638 0.039940923 0.069904044 -0.036236584
-0.07161611 -0.017725542 -0.047828242 -0.18151835 -0.05801013 0.1800346 0.15496726 -0.12372078
-0.12929544 -0.13338725 -0.16665377 0.07679777 -0.10447698 -0.007990971 -0.10765364 0.1690362
-0.1031119 -0.081052795 -0.16216186 0.12749492 -0.13920064 -0.06231655 0.054180652 0.000115290284
-0.17105846 0.0653937 0.10566147 -0.18565048 -0.0021717101 0.04264632 0.11802073 0.0032583773
-0.13812551 -0.18972804 -0.011543676 0.054695964 -0.10413281 0.04674913 -0.015700117 -0.024385959
-0.039218977 0.079587236 0.14365841 -0.10575122 -0.10143019 -0.088590294 0.09668474 0.086899504
-0.16860758 -0.15606602 -0.041845173 -0.04010901 -0.006212324 0.13482253 0.17672233 -0.16211712
-0.14744093 -0.16363822 0.1498351 -0.08529903 -0.041920185 -0.06306468 0.07512312 0.13914914
0.097876266 0.047567844 -0.032071486 -0.08934005 -0.010800302 0.069958344 -0.11938808 0.15710498
0.01076059 -0.1674664 0.11116676 0.09263082 0.16797565 -0.08342625 -0.08829428 0.18217139
-0.029457599 -0.09069765 0.080451414 -0.10518998 0.011643872 -0.0014586598 0.10035826 0.10220416

arr_1 f4 [128]
00000000: 0000 0000 0000 0000 0000 0000 0000 0000
00000010: 0000 0000 0000 0000 0000 0000 0000 0000
00000020: 0000 0000 0000 0000 0000 0000 0000 0000
00000030: 0000 0000 0000 0000 0000 0000 0000 0000
00000040: 0000 0000 0000 0000 0000 0000 0000 0000
00000050: 0000 0000 0000 0000 0000 0000 0000 0000
00000060: 0000 0000 0000 0000 0000 0000 0000 0000
00000070: 0000 0000 0000 0000 0000 0000 0000 0000
00000080: 0000 0000 0000 0000 0000 0000 0000 0000
00000090: 0000 0000 0000 0000 0000 0000 0000 0000
000000a0: 0000 0000 0000 0000 0000 0000 0000 0000
000000b0: 0000 0000 0000 0000 0000 0000 0000 0000
000000c0: 0000 0000 0000 0000 0000 0000 0000 0000
000000d0: 0000 0000 0000 0000 0000 0000 0000 0000
000000e0: 0000 0000 0000 0000 0000 0000 0000 0000
000000f0: 0000 0000 0000 0000 0000 0000 0000 0000
00000100: 0000 0000 0000 0000 0000 0000 0000 0000
00000110: 0000 0000 0000 0000 0000 0000 0000 0000
00000120: 0000 0000 0000 0000 0000 0000 0000 0000
00000130: 0000 0000 0000 0000 0000 0000 0000 0000
00000140: 0000 0000 0000 0000 0000 0000 0000 0000
00000150: 0000 0000 0000 0000 0000 0000 0000 0000
00000160: 0000 0000 0000 0000 0000 0000 0000 0000
00000170: 0000 0000 0000 0000 0000 0000 0000 0000
00000180: 0000 0000 0000 0000 0000 0000 0000 0000
00000190: 0000 0000 0000 0000 0000 0000 0000 0000
000001a0: 0000 0000 0000 0000 0000 0000 0000 0000
000001b0: 0000 0000 0000 0000 0000 0000 0000 0000
000001c0: 0000 0000 0000 0000 0000 0000 0000 0000
000001d0: 0000 0000 0000 0000 0000 0000 0000 0000
000001e0: 0000 0000 0000 0000 0000 0000 0000 0000
000001f0: 0000 0000 0000 0000 0000 0000 0000 0000
0.0 0.0 0.0 0.0 0.0 0.0 0.0 0.0
0.0 0.0 0.0 0.0 0.0 0.0 0.0 0.0
0.0 0.0 0.0 0.0 0.0 0.0 0.0 0.0
0.0 0.0 0.0 0.0 0.0 0.0 0.0 0.0
0.0 0.0 0.0 0.0 0.0 0.0 0.0 0.0
0.0 0.0 0.0 0.0 0.0 0.0 0.0 0.0
0.0 0.0 0.0 0.0 0.0 0.0 0.0 0.0
0.0 0.0 0.0 0.0 0.0 0.0 0.0 0.0
0.0 0.0 0.0 0.0 0.0 0.0 0.0 0.0
0.0 0.0 0.0 0.0 0.0 0.0 0.0 0.0
0.0 0.0 0.0 0.0 0.0 0.0 0.0 0.0
0.0 0.0 0.0 0.0 0.0 0.0 0.0 0.0
0.0 0.0 0.0 0.0 0.0 0.0 0.0 0.0
0.0 0.0 0.0 0.0 0.0 0.0 0.0 0.0
0.0 0.0 0.0 0.0 0.0 0.0 0.0 0.0
0.0 0.0 0.0 0.0 0.0 0.0 0.0 0.0

arr_2 f4 [128, 10]
00000000: bbe8 29be 1aa5 df3d 6243 2ebe 0c52 1e3d
00000010: 403a 60bb b68c 1bbe 481c e13c 1330 073e
00000020: b058 3c3c 8084 9f3c dbf1 40be 1631 8d3d
00000030: 205a d63c 2024 c83b c300 0d3e cdc7 4b3e
00000040: 9c42 68bd e08a d93b 2cac 9ebd d4cd ccbd
00000050: 11e5 e6bd 5abb e23d 022f 51be 68a8 94bd
00000060: 70ca a8bc dc8d 453d 0730 523e f088 093c
00000070: 5beb 433e 7453 673d e8be 95bd dc96 043d
00000080: 9816 28bd d2fd a13d 46f4 f83d 5f61 53be
00000090: 989e 91bd 90d6 33be 6fd0 0ebe 0f3e 123e
000000a0: 20a0 ff3b ef8f 443e a1c4 293e 7a2b 84bd
000000b0: 8028 4dbb 84ac 4f3d 37aa 463e f6b2 9a3d
000000c0: 54c5 1a3d 3c3c 643d 6024 42be 2ea0 c83d
000000d0: b1bf 0f3e 0212 00be a6ec 3abe 87aa 0c3e
000000e0: 7fc8 193e 6431 3ebe 0748 50be 42b3 42be
000000f0: e60b a5bd 64f4 28be 2acc f33d 9504 1c3e
00000100: ec66 36bd ad9e 36be 1897 36bd a095 a73c
00000110: 2e81 a2bd 8e75 a9bd bb39 423e e461 00bd
00000120: 6e21 d1bd edff 173e bad5 f13d ff7f 32be
00000130: 64e9 49be e07b 22be 2c4b 10be 983b 243d
00000140: aa04 eb3d 6188 483e 6d99 c1bd 2211 9a3d
00000150: 6c59 083d 4f8a 483e 60ae 2abe 1887 a8bc
00000160: 4f3d 263e 9f90 01be 62bf e83d e173 0d3e
00000170: 3ab2 f23d e0ee 71bd 7ff2 153e d04e 9f3c
00000180: f37d 383e 23b6 0b3e c801 06be c814 d23c
00000190: b0a8 1a3c 6691 b83d e5d9 443e 9c2a 45bd
000001a0: 6e46 8e3d 1937 3ebe b322 2d3e 7264 06be
000001b0: 7c17 543d 4c8e 5b3d 84b4 02bd c83c 9f3c
000001c0: 40a3 72bd 2b97 b6bd 35f1 3d3e cca4 4e3d
000001d0: b0b4 a5bc 4774 3cbe f64e c23d 808a a63b
000001e0: 4021 13be 00c0 ed37 b4ca 273d 3621 9d3d
000001f0: 182a 35bd 47c6 44be 303d cabd ea3b e03d
00000200: 9bc2 543e 5964 133e 0020 69b8 e3f3 353e
00000210: a027 1bbe 70ff 563c f22b a13d c4dd 7a3d
00000220: 9fcd 2b3e 7867 5bbd ae30 c13d fc68 06be
00000230: 8e88 1fbe d099 09be f0fd 51bc 10da 93bc
00000240: bca8 03bd a07d bbbc b4ef 4e3d c876 2abd
00000250: 4e19 3abe d12b 333e 1e18 d73d 4db2 2b3e
00000260: 9511 1abe b7e1 543e 3217 843d ca70 aabd
00000270: a158 3d3e 0203 863d 33d1 403e 6ffd 41be
00000280: a745 c1bd f093 14bc 7578 54be df03 28be
00000290: c804 92bc a27d 8a3d acbf 4c3d 7d09 433e
000002a0: 8fbb 3b3e 1c06 3d3d 5e02 4bbe 4e41 ec3d
000002b0: 7bec 37be 77fa 3b3e adc3 413e 5c81 25be
000002c0: 203f 80bc e81f 05bd 08d9 ef3c 3a7e 50be
000002d0: d622 a43d f2b0 90bd c53c 253e b3d1 543e
000002e0: 60a9 083c 30df 53bc 90e0 ccbc d99c 0c3e
000002f0: 2efa da3d 3534 dcbd e2e6 ce3d 6020 56bc
00000300: 0d5a 193e 82f4 a03d 66f9 13be 80a4 dd3b
00000310: d9a8 4b3e 668d be3d 4653 ef3d ef60 003e
00000320: c02d 423b dc12 663d 5e80 e23d c821 d03c
00000330: 042a 02bd a872 e6bc f0eb a53c 3c6b 8dbd
00000340: d888 2ebe 0214 953d ead5 c83d 0e72 be3d
00000350: cc30 23bd dfe9 f0bd 1cad 96bd 2f64 483e
00000360: 60f5 86bc 282f 66bd 4ebb a83d 2149 10be
00000370: f0cc 11bc b237 f13d 0d57 1d3e e006 fb3c
00000380: f6ec 853d 65e1 303e 6970 443e 3439 633d
00000390: e0eb 443c f667 8fbd 6031 af3b bc99 3e3d
000003a0: 84ea 673d 4879 1ebe e043 6bbd d655 a3bd
000003b0: 7ca9 c2bd 6443 643d 74f3 07bd 18d8 debc
000003c0: 8e09 10be 7cfa 7a3d eb43 4bbe 0149 36be
000003d0: 8f7b eebd c48b 27be e52a 3d3e cab5 d2bd
000003e0: e0ac 6fbd 9f92 1c3e 9e9d e53d 20be fcbc
000003f0: 7277 b53d 22df b43d ac6c e5bd dcea 403d
-0.16592686 0.109201625 -0.17017892 0.038652465 -0.0034214407 -0.15190396 0.027479306 0.13201933
0.011495754 0.01947236 -0.1884226 0.06894128 0.026166022 0.006107822 0.13769822 0.19900437
-0.05670415 0.0066388696 -0.07747683 -0.10000196 -0.1127416 0.11070891 -0.20428088 -0.072586834
-0.020604342 0.04823099 0.20526133 0.008394465 0.1913275 0.05647607 -0.07311803 0.032370433
-0.041037172 0.079097405 0.121559665 -0.20642613 -0.071103275 -0.17562318 -0.13946699 0.14281486
0.007801071 0.19195531 0.16578914 -0.06453605 -0.0031304657 0.050701633 0.1940087 0.07553665
0.037785843 0.055721506 -0.18959188 0.09796177 0.14037968 -0.1250687 -0.18254337 0.13736926
0.1501789 -0.18573529 -0.20339976 -0.19013694 -0.0805891 -0.16499478 0.119041756 0.15236123
-0.044531748 -0.17833968 -0.044577688 0.020457089 -0.07934795 -0.08274375 0.18967335 -0.031343356
-0.10211454 0.14843722 0.11808343 -0.17431639 -0.19717938 -0.15867567 -0.14091176 0.040095896
0.11475499 0.19583274 -0.09453092 0.07522799 0.033288404 0.1958401 -0.16668081 -0.02057223
0.16234325 -0.12652825 0.113646284 0.13813736 0.118504 -0.0590657 0.14643286 0.01944676
0.18016796 0.13643698 -0.13086617 0.025644675 0.009439632 0.090121076 0.19223745 -0.04813634
0.06947027 -0.18575706 0.16907768 -0.13124254 0.05178021 0.0536025 -0.031910434 0.019438162
-0.05923772 -0.08915552 0.18549044 0.05045013 -0.02022776 -0.18403731 0.09487717 0.0050824285
-0.14368153 2.8342009e-05 0.040964797 0.0767235 -0.044229597 -0.19216262 -0.09874952 0.10948928
0.20777361 0.14393748 -5.558133e-05 0.17768817 -0.15151834 0.0131224245 0.0786971 0.06124665
0.16777657 -0.053565472 0.09433113 -0.13125986 -0.15579435 -0.13437581 -0.012816891 -0.018048316
-0.03214334 -0.022887051 0.050521567 -0.041617185 -0.18173715 0.17497183 0.10502647 0.16767235
-0.1504577 0.20789228 0.06449737 -0.08322294 0.1849084 0.065435424 0.18829803 -0.18944333
-0.09437113 -0.009068474 -0.20749076 -0.16407727 -0.017824546 0.06762244 0.04998748 0.19046588
0.18333267 0.046148404 -0.19825122 0.115358934 -0.17961304 0.18357264 0.189223 -0.16162628
-0.0156551 -0.03250113 0.029278293 -0.20360652 0.08014457 -0.07065 0.16136463 0.20783119
0.008341163 -0.01293163 -0.025009423 0.13731708 0.10692249 -0.10752145 0.10102631 -0.013069242
0.14975758 0.07859136 -0.14450607 0.0067639947 0.19888629 0.09304313 0.11685805 0.12536977
0.002962932 0.05617033 0.1105964 0.025406733 -0.03177835 -0.028130844 0.020254105 -0.06905219
-0.17044389 0.07279207 0.09806426 0.09299098 -0.03984146 -0.11763357 -0.07357237 0.19569467
-0.016474426 -0.056197315 0.082388505 -0.14090396 -0.008898959 0.11778201 0.15365238 0.030642927
0.06539337 0.17273481 0.19183506 0.055474475 0.012019128 -0.07002251 0.005346462 0.04653333
0.056620136 -0.15475953 -0.057437778 -0.07975356 -0.09504983 0.05572833 -0.03319116 -0.02720265
-0.14066145 0.061274037 -0.19850127 -0.17801286 -0.11644661 -0.1636191 0.18473394 -0.1028858
-0.058514476 0.15290307 0.11211704 -0.030852377 0.08860673 0.08831622 -0.11202368 0.04709898

arr_3 f4 [10]
00000000: 0000 0000 0000 0000 0000 0000 0000 0000
00000010: 0000 0000 0000 0000 0000 0000 0000 0000
00000020: 0000 0000 0000 0000
0.0 0.0 0.0 0.0 0.0 0.0 0.0 0.0
0.0 0.0
