ep2-cnn/results-multiclass-lbp/final_weights.npz (npz, 11782 bytes, 4 tensors)

arr_0 f4 [10, 128]
000000 bf 2c 34 3d 3f 10 14 40 46 52 b4 3d 6c 90 37 bd
       0.043987986 2.3134916 0.08804755 -0.044815466
000010 ca 28 99 bf f0 5e 0e be 0d 25 d8 3f 28 d3 60 40
       -1.1965573 -0.13903403 1.6886307 3.512888
000020 28 40 1e 3f 4f ff 42 bf 91 4e ec be 90 c7 21 be
       0.61816645 -0.7617082 -0.4615369 -0.15798783
000030 3c 68 56 bd 77 7b 86 3c 95 d5 19 be 61 47 fe bf
       -0.0523455 0.016416295 -0.15022881 -1.9865533
000040 77 58 0d 40 88 ab c5 bc b8 ac 57 bd 5c 06 a9 bd
       2.2085245 -0.024129644 -0.05265495 -0.08253166
000050 81 71 43 bf 28 87 da 3c f2 d1 71 bf 3a 83 f8 3d
       -0.7634507 0.026675776 -0.94460976 0.121344045
000060 00 b3 26 bc e5 b6 24 3e 48 e2 4d be 83 55 02 3e
       -0.010174513 0.16085394 -0.2010585 0.12727933
000070 73 05 3a 3f 06 13 e9 3d 1c c4 9c bf 1c 6f 60 bd
       0.72664565 0.113805816 -1.2247348 -0.054793462
000080 b7 b5 fa bc a5 dd f4 3d 09 19 95 3e 5b 47 23 3e
       -0.030604227 0.11956338 0.29120663 0.15945189
000090 0e 50 2b c0 bc a4 4b be 7b f8 28 be 69 04 6b 3f
       -2.6767612 -0.1988706 -0.16501038 0.91803604
0000a0 98 5b 03 bd 00 f6 a9 bd c0 7b 12 be ec 21 dc 3e
       -0.032069772 -0.08298874 -0.1430502 0.4299463
0000b0 01 ca 9e 3f 74 bf 20 be c3 a7 28 be 25 4b 2c c0
       1.2405397 -0.15698034 -0.16470246 -2.6920865
0000c0 1a 48 19 3f 74 ac 37 be 67 53 4b 3e b4 b2 10 3e
       0.59875643 -0.1793688 0.19856034 0.1413067
0000d0 10 63 38 3c 99 7f 2b 40 2f 56 1e 3e e0 82 b6 bc
       0.011254087 2.679663 0.15462564 -0.022279203
0000e0 d3 24 2d be bf 8e 0d 3e 0b c4 36 40 69 13 26 be
       -0.16908579 0.13823985 2.8557155 -0.16218342
0000f0 f0 85 1c 40 c8 ba 32 bd 2c 26 86 bd 3f 5c 00 3f
       2.445675 -0.04363516 -0.065502495 0.50140756
000100 85 84 1c be 48 ea ca bf 6c ef 66 3d 1f 9c d2 bf
       -0.15284927 -1.5852747 0.056380674 -1.6453894
000110 45 c2 46 3e 4b af 3b c0 7a 41 8a 3f 1a aa 4d 3f
       0.19410045 -2.932574 1.0801232 0.8033768
000120 d7 3f 4f c0 38 21 18 bd de de 88 3d d6 9f 75 bf
       -3.2382715 -0.037141055 0.066831335 -0.95947015
000130 24 cb 04 bd 24 ce 17 bd 22 32 a9 3d 28 d2 19 bd
       -0.032420292 -0.037061825 0.08261515 -0.037553936
000140 51 72 7a bf 20 2a 12 bd 96 98 1a 3e 83 4d 4a bf
       -0.97830683 -0.035684705 0.1509727 -0.79024523
000150 ca cd ec bf d0 22 20 3d d5 6b 0c be e8 2a 40 bd
       -1.8500302 0.0390957 -0.1371301 -0.04691592
000160 91 3d 30 c0 0e d7 20 be 67 d3 1c be ec 33 14 3d
       -2.7537577 -0.15707037 -0.15315019 0.03618233
000170 68 4d 3c c0 b0 c8 ad bd 45 56 2f be 80 38 6c 3b
       -2.9422245 -0.08485544 -0.17122753 0.0036044419
000180 7c 23 0b be 91 c6 14 3e b9 72 17 be de 62 b8 bd
       -0.13587755 0.14528872 -0.14789857 -0.090032324
000190 32 6c 4e be 33 67 51 3f e6 6b d8 bd f0 ce 26 bc
       -0.2015846 0.81798095 -0.10567455 -0.010181174
0001a0 4a bc c4 bf 1b 91 8c bf 2f 9b 03 40 00 a8 a8 3f
       -1.5369961 -1.0981783 2.0563467 1.317627
0001b0 26 a2 f4 3d 6c e8 55 bd 5a 79 db 3d 22 19 52 be
       0.1194499 -0.052223608 0.10716505 -0.205174
0001c0 e3 f2 43 3e 5a de 41 be f7 57 0f c0 e9 09 bf bf
       0.19135623 -0.18932477 -2.239744 -1.4924899
0001d0 a0 0b 93 3c fa e3 ef 3d 38 ba c2 bf 7b 8f 28 c0
       0.01794988 0.11713405 -1.521308 -2.6337574
0001e0 cf bc dc bf 1e b8 fa 3d 35 14 fc bf a1 70 3e 40
       -1.724512 0.12242149 -1.9693667 2.9756243
0001f0 18 d8 d1 3c c7 df b3 bf cc 0c 63 3d 40 a8 1f 3b
       0.025615737 -1.4052666 0.055432126 0.002436176
000200 bc 01 2c be a9 59 03 40 6e 62 e6 3d 0a 38 f0 3d
       -0.16797537 2.0523474 0.11249243 0.117294386
000210 20 7e 4d bf 69 74 4c 3e fc ef a7 3f 05 d2 43 40
       -0.80270576 0.19966282 1.3120112 3.0596936
000220 e4 b6 03 3d 66 36 05 bf 32 29 b6 3e ce 8c 02 be
       0.03215684 -0.5203613 0.35578305 -0.12749025
000230 0c 1f 1b 3d 1f 8f 38 be c0 af af bd b2 96 c2 bf
       0.037871405 -0.18023346 -0.085784435 -1.5202239
000240 89 f1 d9 3f 74 8f 4d bd 15 88 44 3b e4 2d 0a bd
       1.7026836 -0.050185636 0.0029988338 -0.03373517
000250 2e b0 fb be 08 2e d8 bc bc 4d 51 bf d0 37 5f 3c
       -0.49157852 -0.026389137 -0.8175924 0.013624147
000260 f3 dc 00 3e a6 cd c7 3d 67 c2 a3 3d 97 19 1f 3e
       0.12584285 0.09756021 0.07996064 0.15537106
000270 75 d1 5c 3f 08 d4 ac bc 38 8d 60 bf 20 a1 32 be
       0.86257106 -0.021097198 -0.8771548 -0.17444277
000280 ba 4f c2 3d 16 ef 80 3f a0 df fd 3e dc 17 3a bd
       0.09487863 1.0072963 0.49584675 -0.04543291
000290 7a 08 2a c0 5e 39 4c bd 4e f7 65 be dc 04 31 3f
       -2.6567674 -0.049859397 -0.2245762 0.6914804
0002a0 60 c8 4c bd a8 d3 27 3d 45 f6 51 be ec e4 6a 3e
       -0.04999578 0.040973336 -0.205041 0.2293889
0002b0 ef 0a 7a 3f b3 96 2e be 57 63 26 3e d1 f5 21 c0
       0.97672933 -0.17049675 0.16248833 -2.5306284
0002c0 0c a0 17 3f ac e1 7a 3d 00 cd 93 bb 2c 4c 14 3f
       0.5922859 0.061250374 -0.004510522 0.5792873
0002d0 08 7f fa 3c d4 1d 20 40 b1 75 45 be 00 21 59 bb
       0.030578151 2.5018206 -0.19283177 -0.0033131242
0002e0 57 40 57 be 00 c8 af 39 18 c9 22 40 02 74 80 be
       -0.21020637 0.00033527613 2.5435238 -0.25088507
0002f0 fb 29 0b 40 eb 33 49 be 28 9d cc bd 81 a5 e1 3e
       2.1744373 -0.19648711 -0.09990913 0.44071582
000300 97 d6 f2 bd 1f 90 c0 bf 08 51 98 bd 3c 1d c6 bf
       -0.11857336 -1.5043982 -0.074373305 -1.5477672
000310 ba ad 20 be a7 bc 23 c0 08 d4 7b 3f 41 5b 5f 3f
       -0.15691271 -2.5583894 0.9837041 0.8724862
000320 0c 5b 30 c0 d0 d4 07 be 60 e0 bb bb 72 6f 44 be
       -2.755557 -0.13264775 -0.0057335347 -0.19183138
000330 90 2e a4 bd fa 3c 2c be 15 42 ef 3e e5 5e 0a 3e
       -0.080166936 -0.16820136 0.46730104 0.13512762
000340 f1 6d a4 bf 9b 63 04 be 4d 09 27 be ef 67 d0 be
       -1.2846051 -0.12928621 -0.16312142 -0.40704295
000350 ac 72 98 bf 58 7b 06 be 46 b3 c9 bd 7f a2 45 be
       -1.1909995 -0.1313299 -0.09848647 -0.19300269
000360 b2 ea 1d c0 cc 60 1f bd cc 7d 7a 3d 6e 04 bc 3d
       -2.4674497 -0.038910672 0.061155125 0.091805324
000370 ea fb 32 c0 a2 06 9f 3d d8 8e ee bc 57 90 27 3e
       -2.7966256 0.07764937 -0.029120848 0.16363655
000380 ff 10 f9 bd 91 99 26 3e c4 82 c2 3d 30 63 02 3d
       -0.12161445 0.16269518 0.09497598 0.031832874
000390 22 40 f6 3d 39 e2 63 3f 17 4c 3b 3e 52 81 e7 bd
       0.12023951 0.89017063 0.18290745 -0.11303963
0003a0 67 4d b9 bf 08 2b 21 bf e6 7f e9 3f 9f f1 33 3f
       -1.4476746 -0.62956285 1.8242157 0.7029056
0003b0 af 3c 39 3e f9 63 00 3e e7 fc 4e 3e 32 bd c2 3d
       0.18089555 0.12538137 0.20213662 0.095087424
0003c0 88 79 35 be fc ae 91 3d 5c ed a4 bf 91 d4 9e bf
       -0.17722142 0.07113454 -1.2884936 -1.240862
0003d0 10 6c 7c 3c 50 ee 2c bc a1 78 e4 bf bb c8 1c c0
       0.0154066235 -0.010554865 -1.7849313 -2.4497516
0003e0 b8 9b 8e bf 66 2d b5 bd 65 b4 f6 bf 84 8a 2f 40
       -1.1141272 -0.0884655 -1.9273802 2.7428293
0003f0 70 18 21 be a5 c7 6e bf cc c6 4b 3d 20 11 f9 bd
       -0.15731978 -0.93273383 0.049750134 -0.121614695

arr_1 f4 [128]
000000 ae 4c 99 bd e6 25 48 3e 00 00 00 00 00 00 00 00
       -0.074853286 0.19545707 0.0 0.0
000010 b1 27 dd 3d 00 00 00 00 32 7f 44 3e 0e 95 ec 3e
       0.10798586 0.0 0.19189146 0.4620747
000020 3d e6 12 3e 6f 3d fe 3d b2 71 2a 3e 00 00 00 00
       0.14345641 0.12414061 0.16644934 0.0
000030 00 00 00 00 7d 51 c0 3d 00 00 00 00 ba 3b e4 3d
       0.0 0.09390543 0.0 0.111442044
000040 96 ad 58 3e 00 00 00 00 24 25 fd bb 00 00 00 00
       0.21159968 0.0 -0.007725375 0.0
000050 5f 46 e6 3d 00 00 00 00 f4 1b c7 3d 00 00 00 00
       0.11243891 0.0 0.097221285 0.0
000060 00 00 00 00 00 00 00 00 1b 32 24 bd 00 00 00 00
       0.0 0.0 -0.040086847 0.0
000070 80 28 1f 3e 00 00 00 00 6e 44 cc 3d 00 00 00 00
       0.15542793 0.0 0.099739894 0.0
000080 b9 3b 0c 3e 85 60 42 3e ad 95 16 3e 00 00 00 00
       0.13694657 0.18982132 0.14705534 0.0
000090 00 db 9c bd 4b 99 ee bb 5b 7a df 3d 49 a3 09 3e
       -0.076589584 -0.0072814575 0.10912009 0.13441195
0000a0 00 00 00 00 00 00 00 00 6a 73 f8 3d 61 39 05 3e
       0.0 0.0 0.121313885 0.1301017
0000b0 0f 2d 19 3e 00 00 00 00 00 00 00 00 b1 ef b7 bd
       0.14958595 0.0 0.0 -0.089812644
0000c0 92 21 07 3e 00 00 00 00 00 00 00 00 b8 95 16 3e
       0.131964 0.0 0.0 0.1470555
0000d0 00 00 00 00 7b 9a 67 3e 00 00 00 00 00 00 00 00
       0.0 0.22617523 0.0 0.0
0000e0 93 37 12 bc 00 00 00 00 11 63 31 3e 11 2f 34 bd
       -0.008924383 0.0 0.17322947 -0.0439902
0000f0 6a 03 2d 3e 00 00 00 00 e4 a6 47 bc 4e 8f 12 3e
       0.16895834 0.0 -0.012185786 0.14312479
000100 00 00 00 00 62 3b d8 3d 00 00 00 00 04 d5 c9 3d
       0.0 0.105582014 0.0 0.09855083
000110 00 00 00 00 39 46 2e bd 28 c7 1e 3e 2d 76 27 3e
       0.0 -0.04254744 0.1550566 0.16353674
000120 40 98 08 be 00 00 00 00 00 00 00 00 e0 a9 23 3e
       -0.13339329 0.0 0.0 0.15982771
000130 00 00 00 00 00 00 00 00 70 e6 1c 3e 00 00 00 00
       0.0 0.0 0.1532228 0.0
000140 29 c9 ba 3d 00 00 00 00 07 fa bd bc d6 14 33 bd
       0.091203995 0.0 -0.023190511 -0.043721043
000150 40 a4 be 3d 00 00 00 00 1b 19 34 bc 00 00 00 00
       0.09308672 0.0 -0.010992314 0.0
000160 8c 27 d9 bd 00 00 00 00 00 00 00 00 00 00 00 00
       -0.10603246 0.0 0.0 0.0
000170 da 73 d1 bd 00 00 00 00 00 00 00 00 00 00 00 00
       -0.10227175 0.0 0.0 0.0
000180 00 00 00 00 00 00 00 00 23 04 6e bc 00 00 00 00
       0.0 0.0 -0.014527353 0.0
000190 00 00 00 00 86 2f 40 3e 9e 89 93 bc 00 00 00 00
       0.0 0.18768129 -0.018009957 0.0
0001a0 9d 4a bb 3d 53 d1 b9 3d 75 b1 43 3e 49 49 24 3e
       0.09145091 0.090731286 0.19110663 0.16043581
0001b0 00 00 00 00 00 00 00 00 00 00 00 00 00 00 00 00
       0.0 0.0 0.0 0.0
0001c0 00 00 00 00 6b 57 0e 3e f8 a4 bb bc fc 02 f6 3d
       0.0 0.13900535 -0.022905812 0.12012288
0001d0 00 00 00 00 00 00 00 00 cf 41 80 3c 65 bd 8c bd
       0.0 0.0 0.01565638 -0.06872062
0001e0 56 82 f8 3d 00 00 00 00 ae 3d 3d bd 2b 9a 3a 3e
       0.121342346 0.0 -0.0462014 0.18222873
0001f0 00 00 00 00 0e d6 d0 3d 00 00 00 00 00 00 00 00
       0.0 0.10197078 0.0 0.0

arr_2 f4 [128, 10]
000000 0c b5 54 3a 38 c4 ad 3d b6 9c 06 be 98 1b 2c 3d
       0.0008114136 0.084846914 -0.13145718 0.042018503
000010 b0 39 16 3e 33 9d 09 3d 8c 38 14 3d 70 26 22 3d
       0.14670444 0.033597182 0.03618674 0.039587438
000020 c9 7c cc 3d 15 a1 ca bc 1e a0 3f be 59 e9 5a bf
       0.099847384 -0.024735013 -0.18713424 -0.8551231
000030 b1 c5 92 3c 2f 59 89 be f1 36 75 3d 42 b0 b9 3d
       0.017916532 -0.26825854 0.05986685 0.09066822
000040 02 48 29 3d f0 6f 90 be 9a fc 76 3d 9d 8b 05 3e
       0.041328438 -0.28210402 0.060299493 0.1304154
000050 78 4d ae 3c 80 90 16 bc 85 70 51 3e 07 31 cd bd
       0.021277174 -0.009189725 0.20453079 -0.10019117
000060 d3 46 1f be c3 41 01 3e 35 06 09 3e fa 73 ef bd
       -0.15554361 0.12622742 0.13381274 -0.11692043
000070 c3 e5 04 3e 12 0b bc 3d 9f a3 4a be e2 6c fc 3d
       0.12978272 0.09181799 -0.19788979 0.12325455
000080 98 31 08 bd de 3f 20 be 60 39 85 bd ca 6f 93 3d
       -0.03325042 -0.15649363 -0.06505084 0.071990564
000090 09 22 40 3e 75 8d 18 3e 59 a5 40 3e 80 ef 18 bd
       0.18762983 0.14897712 0.18813075 -0.03733778
0000a0 86 5a ca be 59 01 80 3e 49 25 ee 3b ff 89 4e bc
       -0.3952219 0.25001028 0.0072676283 -0.012606143
0000b0 22 60 42 bd 88 36 1d be 29 cd 92 be b5 a1 6e be
       -0.04745496 -0.15352833 -0.2867215 -0.23303874
0000c0 82 30 86 be 9c 4f 23 bd 0a 5d fb 3d d0 b3 23 be
       -0.26208884 -0.039870843 0.12273605 -0.15986562
0000d0 62 d0 a8 3d 05 8d 46 3e 52 9f 90 bd 34 d1 15 be
       0.08242871 0.19389732 -0.07061638 -0.14630586
0000e0 46 03 96 3d 6b 04 df bd c8 d0 5b bd b6 ae d6 3d
       0.07324843 -0.108895145 -0.053665906 0.10482542
0000f0 96 12 8f be 15 e0 23 bf 0f 64 d0 bc 53 20 2c be
       -0.27943867 -0.640138 -0.025438337 -0.16809206
000100 57 a3 1d be 33 13 5b be 7a 66 a4 3d 16 39 a8 be
       -0.1539434 -0.21394043 0.08027358 -0.32856053
000110 fe 7b 7d 3e ac 20 18 be 8f 57 f4 3f c4 d2 46 c0
       0.2475433 -0.14856213 1.9089221 -3.106614
000120 27 97 76 3f c5 e3 85 3f 30 b4 52 bf 5c 6e 75 3e
       0.9632439 1.0460135 -0.82306194 0.2396788
000130 d1 a7 fe 3e ec ae 9b bf 3f 3e 8d 3f 8e 1b 1a bf
       0.4973741 -1.2162757 1.1034621 -0.60198295
000140 6c 09 21 be d7 82 36 be f1 e7 c0 bd 24 cf ac be
       -0.1572625 -0.17823349 -0.09419239 -0.33751786
000150 60 48 0d be 63 07 3c be 3b 2d b0 bd d1 4d a5 bc
       -0.1379714 -0.18362193 -0.08602377 -0.020178707
000160 71 74 e1 3c 26 f8 0f 3d c1 24 a8 be 11 01 54 bd
       0.027521344 0.035148762 -0.3284054 -0.05175883
000170 83 d5 5a be 06 89 64 be f3 18 6e be d8 9b 20 bd
       -0.21370511 -0.22317895 -0.23251705 -0.039211124
000180 83 5d 6f bd 57 d6 64 3d f7 a7 c6 be f1 f9 3c be
       -0.05843879 0.055868473 -0.38800022 -0.1845472
000190 58 a5 fc bd 1d c0 a3 be 68 0f 0a 3b 6a ad b2 3d
       -0.12336224 -0.31982508 0.0021066312 0.08724482
0001a0 07 6a 81 be 0c 94 ab 3d 65 ef aa be c2 cc 16 bc
       -0.25276205 0.08377847 -0.3338577 -0.0092040915
0001b0 a6 dc d2 be ae b1 8d be de 75 f3 bd b4 d7 3b bd
       -0.41183966 -0.2767462 -0.11887716 -0.045860007
0001c0 a3 59 50 3e 18 28 41 bd 00 a8 71 ba 64 3c 0f be
       0.20346694 -0.047157377 -0.00092184544 -0.13987881
0001d0 46 94 f8 3d f5 ec 05 3e 90 86 17 bd e1 0a 50 be
       0.12137656 0.13078673 -0.036993563 -0.2031665
0001e0 8b cf d2 bd a2 0b 9c 3d 8f 11 26 3e e0 2f e1 bc
       -0.10293492 0.07619406 0.16217636 -0.027488649
0001f0 d8 ec 29 bd 5a 9c f5 3d 47 ad 3f 3e aa 46 9b 3d
       -0.041485637 0.11992712 0.18718444 0.075818375
000200 e0 eb 91 bd 40 26 d7 bc 44 61 82 3e 7b a8 24 be
       -0.07125068 -0.026263356 0.25464833 -0.16079895
000210 26 df 70 be ec 54 63 3d 3b 69 0b be 5c 44 43 be
       -0.23522624 0.05550091 -0.13614361 -0.19069046
000220 dc cb 37 be f1 b1 0c be 53 14 f8 bd 6a 37 cf be
       -0.1794886 -0.13739754 -0.121132515 -0.40471965
000230 8c 24 bf bd 7c 6c 7d 3d 2a 61 b6 3d 70 81 7e bc
       -0.09333143 0.061871037 0.08905251 -0.01553379
000240 0e 53 de 3d e3 76 2f 3e 80 be b6 bd bc e5 60 3d
       0.10855685 0.17135195 -0.08923054 0.05490659
000250 7e 78 4c be 26 2b c2 3d 88 8c 9d be 5d d3 e0 3e
       -0.19967839 0.09480886 -0.3077128 0.43911257
000260 09 ef f8 bd 6b f9 b3 be ee 15 7e be 02 49 9f be
       -0.12154967 -0.35151228 -0.24813053 -0.31110388
000270 dc 3d 22 be 7e 99 4d 3e 61 29 0e bf af bb 55 be
       -0.1584391 0.20078084 -0.5553189 -0.20872377
000280 7b 43 83 3e 33 10 9e bf 1a f1 5b 3d 32 0c 7b 3d
       0.2563742 -1.2348694 0.05369673 0.061290927
000290 cd 61 e3 be 44 db b0 be 3c 59 42 bb d8 ac c4 be
       -0.44410554 -0.34542286 -0.0029655239 -0.3841312
0002a0 4a 02 7e 3e 38 f4 e7 bd 89 49 35 be 26 dc 8d 3d
       0.2480556 -0.11325878 -0.17703833 0.069267556
0002b0 ea 99 f9 3d 0f 2d e1 bd 90 52 e8 3c 05 f0 18 be
       0.1218756 -0.10994922 0.028359681 -0.1493531
0002c0 fc 9f 6d 3d 4f 7a 08 be 0b 5a 39 3e 3d c4 25 3e
       0.0580139 -0.13327907 0.18100755 0.1618814
0002d0 75 a6 45 3e d3 58 0c 3e 7d 69 50 bd 81 c6 a9 bd
       0.1930178 0.13705759 -0.05088185 -0.08289815
0002e0 ef c5 02 3e d0 25 48 be fa 7e 83 3d ca 07 eb bd
       0.12770818 -0.19545674 0.06420703 -0.11476095
0002f0 35 26 05 be 3a 57 42 3e e0 95 a0 bb 09 0a 4e 3e
       -0.13002856 0.18978587 -0.004900679 0.20121016
000300 1f 46 3c 3e a0 75 f0 bb 92 8a 0a be 60 38 f9 3b
       0.18386124 -0.0073382407 -0.13529423 0.0076055974
000310 20 5e d8 3b 4a 6b fa 3d fe 17 cb 3d 49 04 c8 bd
       0.0066030174 0.12227495 0.099166855 -0.09766442
000320 eb 2d d5 be de 6c aa 3d 1a fe b5 be c7 4c 44 be
       -0.41636595 0.08321546 -0.35545427 -0.19169913
000330 19 39 a4 bd 18 5c 85 bd 4e d8 8d be 5e 6c ed bd
       -0.08018703 -0.06511706 -0.2770409 -0.11592935
000340 22 6e b0 be d1 39 29 bd 18 29 c1 bc a9 98 46 be
       -0.34459025 -0.041314904 -0.023579165 -0.19394173
000350 78 26 a1 bc 6a 0d 31 be 07 27 1c be 92 32 2a be
       -0.019671664 -0.17290273 -0.15249263 -0.16620854
000360 da 39 e9 3d 5c a1 61 3d 00 16 f9 bd ee fb da 3d
       0.113879874 0.055085525 -0.12162399 0.10692583
000370 ff 25 ac be 7e b9 92 3e dc d7 d7 bc 94 9c 23 bd
       -0.3362274 0.28657144 -0.026348047 -0.039944246
000380 e3 88 e5 bd 48 2d a9 be 97 37 9b be 71 f8 73 be
       -0.1120775 -0.3304236 -0.3031585 -0.23825242
000390 3a 5f 83 be 7e 42 7b be 5d 37 29 3e 48 15 b0 3c
       -0.2565859 -0.24537084 0.16525026 0.021494523
0003a0 67 53 49 3e 66 99 c9 3d 98 93 d5 bc 3f 13 53 3e
       0.19660722 0.098437116 -0.026071355 0.2061281
0003b0 91 e7 3e be 53 96 46 3e 97 c0 19 3e 31 c0 43 3e
       -0.18643023 0.19393282 0.15014873 0.19116284
0003c0 2c 1f 79 3d 52 ed 9b 3d 00 f2 d7 39 00 1c 09 ba
       0.060820743 0.07613625 0.000411883 -0.00052303076
0003d0 29 8f 30 be eb d2 40 3e 5c 51 10 bd 2c bf 43 bd
       -0.17242111 0.18830459 -0.03523384 -0.047789738
0003e0 44 52 86 bd 19 c2 32 3e 84 8a 4f bd 1a 23 d9 3d
       -0.0655866 0.17456855 -0.05066921 0.10602398
0003f0 05 df c9 bd ba 33 d0 3d 16 9c c3 3d 1b 37 35 be
       -0.09856991 0.10166116 0.095512554 -0.17696802

arr_3 f4 [10]
000000 3a 31 bf bd 2c df 2a be c3 61 ac bd 62 d8 a1 bd
       -0.09335561 -0.16686696 -0.08417084 -0.079026
000010 0a f1 bf bd dc 92 ae bd f8 14 a6 bd 17 e3 a4 bd
       -0.093721464 -0.08524105 -0.08109468 -0.080511265
000020 ad be b6 bd 0c b8 c1 bd
       -0.08923087 -0.09458932
