ep2-cnn/results-multiclass-lbp/initial_weights.npz (npz, 11782 bytes, 4 tensors)

arr_0 f4 [10, 128]
000000 cc 61 43 3d f4 ea 43 3d 46 52 b4 3d 6c 90 37 bd
       0.04770069 0.04783149 0.08804755 -0.044815466
000010 e0 4d 77 bd f0 5e 0e be 63 ea 29 be b9 4f 34 3e
       -0.060377 -0.13903403 -0.16593318 0.17608537
000020 b0 4c cd 3c e8 e1 c7 bd d0 e0 b6 3c 90 c7 21 be
       0.025060982 -0.09759885 0.022323996 -0.15798783
000030 3c 68 56 bd 68 78 8f bd 95 d5 19 be 35 61 1d be
       -0.0523455 -0.070053875 -0.15022881 -0.15369113
000040 a0 b2 98 bb 88 ab c5 bc 5c ea 3b bd 5c 06 a9 bd
       -0.0046599656 -0.024129644 -0.0458778 -0.08253166
000050 b8 3d f7 bc 28 87 da 3c dc fa 32 3d 3a 83 f8 3d
       -0.030180797 0.026675776 0.04369627 0.121344045
000060 00 b3 26 bc e5 b6 24 3e 23 75 26 be 83 55 02 3e
       -0.010174513 0.16085394 -0.16255622 0.12727933
000070 f9 42 4d be 06 13 e9 3d cc e3 77 bd 1c 6f 60 bd
       -0.2004508 0.113805816 -0.06051998 -0.054793462
000080 98 cb e4 bd dc 82 4e 3d 2e f7 4c be 5b 47 23 3e
       -0.11171645 0.050417766 -0.20016167 0.15945189
000090 ca ad f1 3d 28 35 45 be 96 90 8c bd 12 fa df 3d
       0.11800726 -0.19258559 -0.06863515 0.10936369
0000a0 98 5b 03 bd 00 f6 a9 bd be 4f 28 be 7c 1d 28 3d
       -0.032069772 -0.08298874 -0.16436669 0.041043743
0000b0 80 31 90 ba 74 bf 20 be c3 a7 28 be c2 48 d2 3d
       -0.001100108 -0.15698034 -0.16470246 0.10267784
0000c0 c8 1c 4d bd 74 ac 37 be 67 53 4b 3e b9 35 21 3e
       -0.050076276 -0.1793688 0.19856034 0.1574315
0000d0 10 63 38 3c 22 27 3e be 2f 56 1e 3e e0 82 b6 bc
       0.011254087 -0.18569615 0.15462564 -0.022279203
0000e0 c4 8a 2c be bf 8e 0d 3e 40 2e 57 3b 54 9b 54 3d
       -0.1684981 0.13823985 0.0032833964 0.051905945
0000f0 cf 5e 4d 3e c8 ba 32 bd f8 82 61 bd 6e e6 14 be
       0.20055698 -0.04363516 -0.055056542 -0.14541027
000100 85 84 1c be 2e 9b cb 3d 6c ef 66 3d 24 28 22 3d
       -0.15284927 0.099417076 0.056380674 0.039589062
000110 45 c2 46 3e 84 a5 14 be 93 35 07 be 74 0c 39 3d
       0.19410045 -0.14516264 -0.1320403 0.04517789
000120 9f 47 15 be 38 21 18 bd de de 88 3d 04 4b 8c bd
       -0.14578103 -0.037141055 0.066831335 -0.068502456
000130 24 cb 04 bd 24 ce 17 bd a0 03 40 3c 28 d2 19 bd
       -0.032420292 -0.037061825 0.011719614 -0.037553936
000140 94 7b 55 bd 20 2a 12 bd e3 2c 31 3e 04 8f 73 bd
       -0.052119806 -0.035684705 0.17302279 -0.059462562
000150 20 7e 07 be d0 22 20 3d df a5 03 be e8 2a 40 bd
       -0.13231707 0.0390957 -0.12856244 -0.04691592
000160 98 49 88 bd 0e d7 20 be 67 d3 1c be ec 33 14 3d
       -0.06654662 -0.15707037 -0.15315019 0.03618233
000170 60 71 7a 3c b0 c8 ad bd 45 56 2f be 80 38 6c 3b
       0.01528582 -0.08485544 -0.17122753 0.0036044419
000180 7c 23 0b be 91 c6 14 3e 4f 4b 0a be de 62 b8 bd
       -0.13587755 0.14528872 -0.1350529 -0.090032324
000190 32 6c 4e be 65 c2 23 be cf 23 b6 bd f0 ce 26 bc
       -0.2015846 -0.15992124 -0.08893549 -0.010181174
0001a0 58 07 4c bd 28 80 0a bd 12 c4 d8 bd f5 4a 0d 3e
       -0.04981169 -0.033813626 -0.105842724 0.13798125
0001b0 26 a2 f4 3d 6c e8 55 bd 5a 79 db 3d 22 19 52 be
       0.1194499 -0.052223608 0.10716505 -0.205174
0001c0 e3 f2 43 3e f7 b9 44 be fd 9a 4c be 2c d2 25 be
       0.19135623 -0.19211565 -0.19980998 -0.16193455
0001d0 a0 0b 93 3c fa e3 ef 3d 9b 71 22 3e 7c 18 80 bd
       0.01794988 0.11713405 0.1586365 -0.0625467
0001e0 ec 7d 0d be 1e b8 fa 3d 92 8a e0 3d 09 ac 54 3e
       -0.13817567 0.12242149 0.1096393 0.20768751
0001f0 18 d8 d1 3c 56 a7 09 be cc 0c 63 3d 40 a8 1f 3b
       0.025615737 -0.1344274 0.055432126 0.002436176
000200 c4 ce 24 be 37 fd db bd 6e 62 e6 3d 0a 38 f0 3d
       -0.160945 -0.10741656 0.11249243 0.117294386
000210 c0 a3 01 bc 69 74 4c 3e df 47 c9 bd d3 27 d3 bd
       -0.007912576 0.19966282 -0.098281614 -0.1031033
000220 1b cf 4c be e3 58 44 be 10 64 4e 3c ce 8c 02 be
       -0.2000088 -0.19174533 0.012597099 -0.12749025
000230 0c 1f 1b 3d 38 28 ef bc c0 af af bd 3c 1f 52 3d
       0.037871405 -0.029193982 -0.085784435 0.05129932
000240 48 44 2a be 74 8f 4d bd 00 06 28 3c e4 2d 0a bd
       -0.1662761 -0.050185636 0.010255337 -0.03373517
000250 b1 18 11 be 08 2e d8 bc a0 18 f7 3b d0 37 5f 3c
       -0.14169575 -0.026389137 0.0075407773 0.013624147
000260 f3 dc 00 3e a6 cd c7 3d 32 03 f4 3d 97 19 1f 3e
       0.12584285 0.09756021 0.11914672 0.15537106
000270 f8 5c 26 bd 08 d4 ac bc 2a 7e ae 3d 20 a1 32 be
       -0.040616006 -0.021097198 0.08520158 -0.17444277
000280 00 9f 85 3c df 3b 50 3e 00 dd 7c 3a dc 17 3a bd
       0.016311169 0.20335339 0.00096459687 -0.04543291
000290 03 ca ee bd 98 e9 2f bd 89 b4 33 3e ce 9a bf 3d
       -0.116596244 -0.04294738 0.17549337 0.093556985
0002a0 60 c8 4c bd a8 d3 27 3d d5 06 13 be dc b3 6b 3d
       -0.04999578 0.040973336 -0.14358075 0.057544574
0002b0 7f f4 19 3e b3 96 2e be 57 63 26 3e fe 13 cb 3d
       0.15034674 -0.17049675 0.16248833 0.099159226
0002c0 d3 67 ba bd ac e1 7a 3d 00 cd 93 bb d2 8d e3 3d
       -0.09101834 0.061250374 -0.004510522 0.111110345
0002d0 08 7f fa 3c 7a 79 fd bd b1 75 45 be 00 21 59 bb
       0.030578151 -0.123766854 -0.19283177 -0.0033131242
0002e0 64 a2 53 be 00 c8 af 39 90 47 29 be f4 8c 3e bd
       -0.20667416 0.00033527613 -0.16531205 -0.046521142
0002f0 26 44 96 3d eb 33 49 be 9b bb b5 bd c7 8c 18 3e
       0.07337217 -0.19648711 -0.088736735 0.14897452
000300 97 d6 f2 bd f8 b9 db bd 08 51 98 bd 09 4a 07 be
       -0.11857336 -0.1072883 -0.074373305 -0.13211836
000310 ba ad 20 be a0 05 ce 3b c0 f6 91 bd 62 d1 8f 3d
       -0.15691271 0.0062872916 -0.07127142 0.070223585
000320 ce 5d bd 3d d0 d4 07 be 60 e0 bb bb 60 4f 6b bc
       0.092464074 -0.13264775 -0.0057335347 -0.014362186
000330 90 2e a4 bd fa 3c 2c be ce 49 89 bd e5 5e 0a 3e
       -0.080166936 -0.16820136 -0.0670353 0.13512762
000340 b3 b9 fe bd 9b 63 04 be f7 7e 10 be 2f cc 27 3e
       -0.12437763 -0.12928621 -0.14110933 0.16386484
000350 42 cb fb 3d 58 7b 06 be 20 7b b6 bd 7f a2 45 be
       0.12294628 -0.1313299 -0.08910203 -0.19300269
000360 ba 15 c9 3d cc 60 1f bd cc 7d 7a 3d 6e 04 bc 3d
       0.09818597 -0.038910672 0.061155125 0.091805324
000370 e0 71 83 bd a2 06 9f 3d d8 8e ee bc 57 90 27 3e
       -0.06418204 0.07764937 -0.029120848 0.16363655
000380 ff 10 f9 bd 91 99 26 3e 8a 5c df 3d 30 63 02 3d
       -0.12161445 0.16269518 0.10906322 0.031832874
000390 22 40 f6 3d 56 f7 d7 bd 7b 99 4d 3e 52 81 e7 bd
       0.12023951 -0.105452225 0.2007808 -0.11303963
0003a0 5e fc 8e bd 57 30 46 3e e0 a7 59 bc f4 07 28 3d
       -0.06981729 0.19354378 -0.013284653 0.04102321
0003b0 af 3c 39 3e f9 63 00 3e e7 fc 4e 3e 32 bd c2 3d
       0.18089555 0.12538137 0.20213662 0.095087424
0003c0 88 79 35 be da c6 e5 bd 5d 67 4e 3e 00 78 bc 39
       -0.17722142 -0.112195686 0.20156617 0.0003594756
0003d0 10 6c 7c 3c 50 ee 2c bc 91 7d 1e 3e 8f ca 42 be
       0.0154066235 -0.010554865 0.15477587 -0.19022582
0003e0 43 8a 04 3e 66 2d b5 bd 16 d3 2a be b4 3e 49 bd
       0.12943368 -0.0884655 -0.16682085 -0.049132064
0003f0 70 18 21 be 84 ce 4b 3d cc c6 4b 3d 20 11 f9 bd
       -0.15731978 0.049757496 0.049750134 -0.121614695

arr_1 f4 [128]
000000 00 00 00 00 00 00 00 00 00 00 00 00 00 00 00 00
       0.0 0.0 0.0 0.0
000010 00 00 00 00 00 00 00 00 00 00 00 00 00 00 00 00
       0.0 0.0 0.0 0.0
000020 00 00 00 00 00 00 00 00 00 00 00 00 00 00 00 00
       0.0 0.0 0.0 0.0
000030 00 00 00 00 00 00 00 00 00 00 00 00 00 00 00 00
       0.0 0.0 0.0 0.0
000040 00 00 00 00 00 00 00 00 00 00 00 00 00 00 00 00
       0.0 0.0 0.0 0.0
000050 00 00 00 00 00 00 00 00 00 00 00 00 00 00 00 00
       0.0 0.0 0.0 0.0
000060 00 00 00 00 00 00 00 00 00 00 00 00 00 00 00 00
       0.0 0.0 0.0 0.0
000070 00 00 00 00 00 00 00 00 00 00 00 00 00 00 00 00
       0.0 0.0 0.0 0.0
000080 00 00 00 00 00 00 00 00 00 00 00 00 00 00 00 00
       0.0 0.0 0.0 0.0
000090 00 00 00 00 00 00 00 00 00 00 00 00 00 00 00 00
       0.0 0.0 0.0 0.0
0000a0 00 00 00 00 00 00 00 00 00 00 00 00 00 00 00 00
       0.0 0.0 0.0 0.0
0000b0 00 00 00 00 00 00 00 00 00 00 00 00 00 00 00 00
       0.0 0.0 0.0 0.0
0000c0 00 00 00 00 00 00 00 00 00 00 00 00 00 00 00 00
       0.0 0.0 0.0 0.0
0000d0 00 00 00 00 00 00 00 00 00 00 00 00 00 00 00 00
       0.0 0.0 0.0 0.0
0000e0 00 00 00 00 00 00 00 00 00 00 00 00 00 00 00 00
       0.0 0.0 0.0 0.0
0000f0 00 00 00 00 00 00 00 00 00 00 00 00 00 00 00 00
       0.0 0.0 0.0 0.0
000100 00 00 00 00 00 00 00 00 00 00 00 00 00 00 00 00
       0.0 0.0 0.0 0.0
000110 00 00 00 00 00 00 00 00 00 00 00 00 00 00 00 00
       0.0 0.0 0.0 0.0
000120 00 00 00 00 00 00 00 00 00 00 00 00 00 00 00 00
       0.0 0.0 0.0 0.0
000130 00 00 00 00 00 00 00 00 00 00 00 00 00 00 00 00
       0.0 0.0 0.0 0.0
000140 00 00 00 00 00 00 00 00 00 00 00 00 00 00 00 00
       0.0 0.0 0.0 0.0
000150 00 00 00 00 00 00 00 00 00 00 00 00 00 00 00 00
       0.0 0.0 0.0 0.0
000160 00 00 00 00 00 00 00 00 00 00 00 00 00 00 00 00
       0.0 0.0 0.0 0.0
000170 00 00 00 00 00 00 00 00 00 00 00 00 00 00 00 00
       0.0 0.0 0.0 0.0
000180 00 00 00 00 00 00 00 00 00 00 00 00 00 00 00 00
       0.0 0.0 0.0 0.0
000190 00 00 00 00 00 00 00 00 00 00 00 00 00 00 00 00
       0.0 0.0 0.0 0.0
0001a0 00 00 00 00 00 00 00 00 00 00 00 00 00 00 00 00
       0.0 0.0 0.0 0.0
0001b0 00 00 00 00 00 00 00 00 00 00 00 00 00 00 00 00
       0.0 0.0 0.0 0.0
0001c0 00 00 00 00 00 00 00 00 00 00 00 00 00 00 00 00
       0.0 0.0 0.0 0.0
0001d0 00 00 00 00 00 00 00 00 00 00 00 00 00 00 00 00
       0.0 0.0 0.0 0.0
0001e0 00 00 00 00 00 00 00 00 00 00 00 00 00 00 00 00
       0.0 0.0 0.0 0.0
0001f0 00 00 00 00 00 00 00 00 00 00 00 00 00 00 00 00
       0.0 0.0 0.0 0.0

arr_2 f4 [128, 10]
000000 21 24 02 3e f8 67 f4 3c 24 a1 05 bd 25 dc 05 3e
       0.12709095 0.029834732 -0.03262438 0.1307226
000010 4f 64 54 3e f6 d1 e0 3d 4e ce e5 3d da 97 99 3d
       0.2074139 0.10977547 0.1122099 0.074996665
000020 a3 f3 3b 3e 40 d1 13 3d e9 03 cd bd 76 f3 4b be
       0.18354659 0.03608823 -0.100105114 -0.19917092
000030 52 32 ef 3d c4 10 2a be ff c1 29 3e 17 de 1f 3e
       0.1167952 -0.16607958 0.1657791 0.15612064
000040 2e 8c be 3d f2 45 b4 bd f0 4f 7e bd 25 5c 2e 3e
       0.09304081 -0.088024035 -0.062087953 0.17027338
000050 78 4d ae 3c 80 90 16 bc 85 70 51 3e 07 31 cd bd
       0.021277174 -0.009189725 0.20453079 -0.10019117
000060 d3 46 1f be c3 41 01 3e 35 06 09 3e fa 73 ef bd
       -0.15554361 0.12622742 0.13381274 -0.11692043
000070 c3 e5 04 3e 12 0b bc 3d 9f a3 4a be e2 6c fc 3d
       0.12978272 0.09181799 -0.19788979 0.12325455
000080 98 31 08 bd de 3f 20 be 60 39 85 bd ca 6f 93 3d
       -0.03325042 -0.15649363 -0.06505084 0.071990564
000090 09 22 40 3e 75 8d 18 3e 59 a5 40 3e 80 ef 18 bd
       0.18762983 0.14897712 0.18813075 -0.03733778
0000a0 80 96 78 bd 7a 4b 96 3d 7b df 22 3e 8e fb f2 3d
       -0.060690403 0.07338615 0.15905564 0.118643865
0000b0 68 d0 21 3d 7c c7 02 bd 98 dd 11 be b6 86 4c be
       0.039505392 -0.031928524 -0.14244688 -0.19973263
0000c0 c0 08 ae bc 8e 57 b8 3d 0a 5d fb 3d d0 b3 23 be
       -0.021244407 0.09001075 0.12273605 -0.15986562
0000d0 62 d0 a8 3d 05 8d 46 3e 52 9f 90 bd 34 d1 15 be
       0.08242871 0.19389732 -0.07061638 -0.14630586
0000e0 46 03 96 3d 6b 04 df bd c8 d0 5b bd b6 ae d6 3d
       0.07324843 -0.108895145 -0.053665906 0.10482542
0000f0 08 02 15 be 00 48 63 ba 82 3d cc 3d b8 a4 9d bc
       -0.14551556 -0.00086700916 0.09972669 -0.019243583
000100 00 2e cc 3b 7c d0 a8 bd d5 6b 09 3e 8d 6d ce bd
       0.0062310696 -0.0824289 0.13420041 -0.10079489
000110 93 60 32 3e 18 14 a0 bd 8b 52 af bd 7a 9f 0b be
       0.17419653 -0.078163326 -0.08560666 -0.13635054
000120 80 8d d5 bb 66 e9 da 3d 3c 41 18 3d d8 e3 0e 3d
       -0.0065171123 0.106890485 0.037171587 0.034885257
000130 7e fb b1 3d 4e 22 94 3d b9 f3 e9 bd 22 7a 90 3d
       0.086905465 0.072331056 -0.114234395 0.07054545
000140 5c 2a 2b 3d ec 8a 8b bd 90 8a 21 3d b3 2c 37 be
       0.041788444 -0.068136066 0.039438784 -0.17888145
000150 38 9f d6 bc a4 9b 49 bd 40 e7 36 bb 0a e7 9c 3d
       -0.026198968 -0.049220696 -0.0027908832 0.07661255
000160 a6 a9 e7 3d 32 be fb 3d 8a c4 ca bd dd 8a e1 bd
       0.11311655 0.12292136 -0.09900768 -0.11012814
000170 8c 04 95 bd 6e d8 cb bd ff c8 04 be 22 17 89 3d
       -0.07276258 -0.0995339 -0.12967299 0.06693865
000180 36 a9 83 3d 6e f8 ac 3d c0 d5 15 be 08 a8 83 bd
       0.06428759 0.08445822 -0.1463232 -0.06428534
000190 1e 03 90 bd c0 2a 28 bb c6 f1 e4 3d a1 b2 24 3e
       -0.070318446 -0.0025660247 0.11178927 0.16083767
0001a0 0f fd e3 bd a1 1b 43 3e 96 04 0e be 98 61 25 3d
       -0.111322515 0.19053508 -0.13868937 0.040376276
0001b0 a0 35 ed bd b4 50 51 bd de 75 f3 bd b4 d7 3b bd
       -0.11582494 -0.051102355 -0.11887716 -0.045860007
0001c0 a3 59 50 3e 18 28 41 bd 00 a8 71 ba 64 3c 0f be
       0.20346694 -0.047157377 -0.00092184544 -0.13987881
0001d0 46 94 f8 3d f5 ec 05 3e 90 86 17 bd e1 0a 50 be
       0.12137656 0.13078673 -0.036993563 -0.2031665
0001e0 8b cf d2 bd a2 0b 9c 3d 8f 11 26 3e e0 2f e1 bc
       -0.10293492 0.07619406 0.16217636 -0.027488649
0001f0 d8 ec 29 bd 5a 9c f5 3d 47 ad 3f 3e aa 46 9b 3d
       -0.041485637 0.11992712 0.18718444 0.075818375
000200 e0 eb 91 bd 40 26 d7 bc 05 70 23 3e f5 08 25 3e
       -0.07125068 -0.026263356 0.15960701 0.16116698
000210 dd 47 1b be c9 67 2a 3e 74 d7 4b 3d 90 7f be bc
       -0.15164132 0.16641153 0.04976602 -0.023254186
000220 54 9c 68 bd 5d bd ce bd 3f 19 13 3e a8 cc 3e be
       -0.05678971 -0.10094712 0.143651 -0.18632758
000230 8c 24 bf bd 7c 6c 7d 3d 2a 61 b6 3d 70 81 7e bc
       -0.09333143 0.061871037 0.08905251 -0.01553379
000240 0e 53 de 3d e3 76 2f 3e 80 be b6 bd bc e5 60 3d
       0.10855685 0.17135195 -0.08923054 0.05490659
000250 7e 78 4c be 26 2b c2 3d 06 7c b9 bd c2 5f fe 3d
       -0.19967839 0.09480886 -0.09056859 0.12420608
000260 28 75 c6 3c 5f 0a 2b be 1c c3 e0 bd 6a 15 97 bd
       0.024225786 -0.16703175 -0.10974714 -0.07377131
000270 4c e1 48 3d cb 60 3b 3e cb 25 d4 bd bc 9c 39 3d
       0.049042985 0.18298642 -0.10358771 0.04531549
000280 0c 8d 55 3d f8 27 d7 bd 36 83 ff 3d dd fe 2a 3e
       0.052136466 -0.1050567 0.124761984 0.16698785
000290 8d 9d 4e be 09 cc 4e be 5c ca 22 3d 6a ff fc bd
       -0.20177288 -0.2019502 0.039743766 -0.12353404
0002a0 cf 3b 25 3e 30 f8 dc 3c 89 49 35 be 26 dc 8d 3d
       0.16136096 0.026973814 -0.17703833 0.069267556
0002b0 ea 99 f9 3d 0f 2d e1 bd 90 52 e8 3c 05 f0 18 be
       0.1218756 -0.10994922 0.028359681 -0.1493531
0002c0 fc 9f 6d 3d 4f 7a 08 be 0b 5a 39 3e 3d c4 25 3e
       0.0580139 -0.13327907 0.18100755 0.1618814
0002d0 4d f5 49 3e eb 1a 15 3e 94 f3 2c bd 06 ae 97 bd
       0.19722481 0.1456105 -0.04222448 -0.07406239
0002e0 19 77 0b 3e 1a 06 3f be 3e 4f 95 3d 5e 8a d9 bd
       0.13619651 -0.18654671 0.07290505 -0.106220946
0002f0 b3 63 fa bd 9d c5 4a 3e e0 95 a0 bb 09 0a 4e 3e
       -0.12226047 0.19801946 -0.004900679 0.20121016
000300 1f 46 3c 3e a0 75 f0 bb 92 8a 0a be 60 38 f9 3b
       0.18386124 -0.0073382407 -0.13529423 0.0076055974
000310 20 5e d8 3b 4a 6b fa 3d fe 17 cb 3d 49 04 c8 bd
       0.0066030174 0.12227495 0.099166855 -0.09766442
000320 60 19 d8 bd 6a a7 8c bd 4b 38 4b be 04 8a 57 bd
       -0.10551715 -0.06867869 -0.19845693 -0.052621856
000330 70 fe 61 3c 8c f0 6d 3d 40 f8 07 be ea b7 a9 bd
       0.013793573 0.05809073 -0.13278294 -0.08287032
000340 ff 09 df bd ba 45 b3 3d 18 29 c1 bc a9 98 46 be
       -0.108905785 0.08753534 -0.023579165 -0.19394173
000350 78 26 a1 bc 6a 0d 31 be 07 27 1c be 92 32 2a be
       -0.019671664 -0.17290273 -0.15249263 -0.16620854
000360 da 39 e9 3d 5c a1 61 3d 00 16 f9 bd ee fb da 3d
       0.113879874 0.055085525 -0.12162399 0.10692583
000370 43 75 cc bd 01 8b 25 3e 3e dd ce 3d fa 23 dd 3d
       -0.099833034 0.16166307 0.10100792 0.107978776
000380 58 ee 85 bc 8e d2 26 be 74 66 1b be 4e 87 4b be
       -0.016349003 -0.16291258 -0.15175802 -0.19875833
000390 10 94 d6 bc 4a 6b a4 bd 5d 37 29 3e 48 15 b0 3c
       -0.026193649 -0.08028276 0.16525026 0.021494523
0003a0 67 53 49 3e 66 99 c9 3d 98 93 d5 bc 3f 13 53 3e
       0.19660722 0.098437116 -0.026071355 0.2061281
0003b0 91 e7 3e be 53 96 46 3e 97 c0 19 3e 31 c0 43 3e
       -0.18643023 0.19393282 0.15014873 0.19116284
0003c0 2c 1f 79 3d 52 ed 9b 3d 00 f2 d7 39 00 1c 09 ba
       0.060820743 0.07613625 0.000411883 -0.00052303076
0003d0 29 8f 30 be eb d2 40 3e 5c 51 10 bd 2c bf 43 bd
       -0.17242111 0.18830459 -0.03523384 -0.047789738
0003e0 44 52 86 bd 19 c2 32 3e 84 8a 4f bd 1a 23 d9 3d
       -0.0655866 0.17456855 -0.05066921 0.10602398
0003f0 05 df c9 bd ba 33 d0 3d 16 9c c3 3d 1b 37 35 be
       -0.09856991 0.10166116 0.095512554 -0.17696802

arr_3 f4 [10]
000000 00 00 00 00 00 00 00 00 00 00 00 00 00 00 00 00
       0.0 0.0 0.0 0.0
000010 00 00 00 00 00 00 00 00 00 00 00 00 00 00 00 00
       0.0 0.0 0.0 0.0
000020 00 00 00 00 00 00 00 00
       0.0 0.0
